experiment/digit_classifier/version_0/checkpoints/best.ckpt (torch, 446119 bytes, 16 tensors)

_problem._r1._cls_token f4 [1, 1, 128]
00000000: 3b57 9a3b a341 fdbc 3c47 673c a027 9bbb
00000010: a837 d1bb 8c45 27bb 7470 00bc 9733 cfbc
00000020: 6053 803c f550 8bbc 6f57 ccbc 098b dabb
00000030: 50c2 ab3b 6b57 5e3b 6ce2 44bc a16a a33c
00000040: 25e7 1b3b e0e3 933c 39c8 283d 5a10 3a3a
00000050: 34c7 f53b 61f5 cd3b 9f94 543d aec8 a33b
00000060: 9c6f 3c3c 4b19 b63c 4e4f 9cbc 7b6b 063d
00000070: 9e4c e43b c247 d1bc bee2 493c d257 9ebc
00000080: 8c00 e439 7c16 44bd 9070 6f3c cde8 d93c
00000090: 2ec6 84bc ce75 953c 14a6 43bc cc46 f03c
000000a0: 8e3d a33c 4554 033c bf24 bfbb 06b8 01bd
000000b0: c745 fc3b db24 723b fadf f13c f082 003c
000000c0: 55f2 d7bc 46c1 1a3d 6ce8 88bc ea23 993b
000000d0: 7a2f 60bb c3b6 e93b 37f0 c4bc 75ea 533d
000000e0: cf0c 9c3b d52d 12bd 76ca 583c c329 ad3c
000000f0: 2ab4 3dbc 6635 153d 626b c5bb 5b34 efb6
00000100: 6fab 753c 1f5d b3bc 1056 4ebc e5d0 123d
00000110: 48a8 9dbc ada0 2ebc a345 bc3c 32e6 8c3b
00000120: 640c 94bc 8a6f 50bc 45f7 a63b 6dbe 3cbc
00000130: a945 9ebc f22f 8bbc f426 bb3c 290d d2ba
00000140: d549 edbb 0e28 9a3c 6f92 7a3c 45bb 103d
00000150: 1f79 913c 16cc 61bc 7c25 b5bc b3e8 9bbc
00000160: 7782 813c 622c 96bc 12ad 123c 7851 bdbb
00000170: f461 f5bc b6bd dbba 1f03 58bb be9f 8cbc
00000180: 1007 fa3b 6185 b43c bc4d c1bc fe33 013c
00000190: 8200 38bc 5f52 e73a 04ae d63c 30f3 63bb
000001a0: ffc8 04bd 51e7 17bc 7955 fb3c fb04 7b3b
000001b0: a081 0638 3cba fc3c 3e8b eebc 5711 76bb
000001c0: 5a0d 013c d8a3 5e3c 028e 2dbc 8d22 c9bc
000001d0: aa43 d23c 563b 4e3c 7cc1 8dbc 5d99 55bc
000001e0: 182d bd3c ccbf 2bbc fb00 e93b 8aa4 123d
000001f0: 9b43 bdbb 69aa a33b 5b31 bd3b 542c 5b3c
0.0047101057 -0.030915087 0.014116105 -0.0047349483 -0.0063848086 -0.002552363 -0.007839311 -0.025293155
0.015664756 -0.017006377 -0.024944035 -0.0066694063 0.0052416697 0.0033926617 -0.012016874 0.019948306
0.0023788896 0.018052995 0.041206572 0.00070977735 0.0075005535 0.006285355 0.05189955 0.004998288
0.011501219 0.022228858 -0.019080784 0.032817345 0.0069671413 -0.025546912 0.012322126 -0.019328985
0.00043487956 -0.047873005 0.014614239 0.026600266 -0.01620778 0.01824465 -0.011941452 0.029330634
0.019926812 0.008015697 -0.005833238 -0.03166964 0.007698748 0.0036948237 0.029525746 0.007843718
-0.02636067 0.037781976 -0.01671239 0.0046734707 -0.0034207986 0.0071323826 -0.024040325 0.051737268
0.004762269 -0.03568824 0.013231864 0.021138078 -0.011578599 0.036427878 -0.006024764 -7.12885e-06
0.014994486 -0.02189499 -0.012593761 0.03584375 -0.019245282 -0.010658425 0.022982424 0.0042999024
-0.018072315 -0.0127219055 0.005095395 -0.01152001 -0.019320326 -0.016990636 0.022845723 -0.001602565
-0.0072414675 0.018817928 0.015293702 0.035334844 0.01775795 -0.013781568 -0.0221126 -0.019031858
0.01580928 -0.01833171 0.008952396 -0.005777534 -0.029953934 -0.0016764912 -0.0032960845 -0.017166015
0.0076302364 0.022036256 -0.023596637 0.007885931 -0.01123059 0.001764845 0.026206024 -0.0034782402
-0.032418247 -0.009271459 0.030680405 0.003830253 3.2068812e-05 0.030850522 -0.02911913 -0.0037546956
0.007876718 0.013588868 -0.010592939 -0.024552608 0.02566703 0.012587389 -0.017304175 -0.013037053
0.023092791 -0.01048274 0.0071107126 0.035801448 -0.0057758815 0.0049946797 0.005773706 0.013377268

_problem._r1._pos_embed f4 [1, 17, 128]
00000000: 3b57 9a3b a341 fdbc 3c47 673c a027 9bbb
00000010: a837 d1bb 8c45 27bb 7470 00bc 9733 cfbc
00000020: 6053 803c f550 8bbc 6f57 ccbc 098b dabb
00000030: 50c2 ab3b 6b57 5e3b 6ce2 44bc a16a a33c
00000040: 25e7 1b3b e0e3 933c 39c8 283d 5a10 3a3a
00000050: 34c7 f53b 61f5 cd3b 9f94 543d aec8 a33b
00000060: 9c6f 3c3c 4b19 b63c 4e4f 9cbc 7b6b 063d
00000070: 9e4c e43b c247 d1bc bee2 493c d257 9ebc
00000080: 8c00 e439 7c16 44bd 9070 6f3c cde8 d93c
00000090: 2ec6 84bc ce75 953c 14a6 43bc cc46 f03c
000000a0: 8e3d a33c 4554 033c bf24 bfbb 06b8 01bd
000000b0: c745 fc3b db24 723b fadf f13c f082 003c
000000c0: 55f2 d7bc 46c1 1a3d 6ce8 88bc ea23 993b
000000d0: 7a2f 60bb c3b6 e93b 37f0 c4bc 75ea 533d
000000e0: cf0c 9c3b d52d 12bd 76ca 583c c329 ad3c
000000f0: 2ab4 3dbc 6635 153d 626b c5bb 5b34 efb6
00000100: 6fab 753c 1f5d b3bc 1056 4ebc e5d0 123d
00000110: 48a8 9dbc ada0 2ebc a345 bc3c 32e6 8c3b
00000120: 640c 94bc 8a6f 50bc 45f7 a63b 6dbe 3cbc
00000130: a945 9ebc f22f 8bbc f426 bb3c 290d d2ba
00000140: d549 edbb 0e28 9a3c 6f92 7a3c 45bb 103d
00000150: 1f79 913c 16cc 61bc 7c25 b5bc b3e8 9bbc
00000160: 7782 813c 622c 96bc 12ad 123c 7851 bdbb
00000170: f461 f5bc b6bd dbba 1f03 58bb be9f 8cbc
00000180: 1007 fa3b 6185 b43c bc4d c1bc fe33 013c
00000190: 8200 38bc 5f52 e73a 04ae d63c 30f3 63bb
000001a0: ffc8 04bd 51e7 17bc 7955 fb3c fb04 7b3b
000001b0: a081 0638 3cba fc3c 3e8b eebc 5711 76bb
000001c0: 5a0d 013c d8a3 5e3c 028e 2dbc 8d22 c9bc
000001d0: aa43 d23c 563b 4e3c 7cc1 8dbc 5d99 55bc
000001e0: 182d bd3c ccbf 2bbc fb00 e93b 8aa4 123d
000001f0: 9b43 bdbb 69aa a33b 5b31 bd3b 542c 5b3c
00000200: d103 553d 5c8d a23a 71b6 f13b 6b20 873d
00000210: 3ca3 3b3d 8d77 fd3b 1c0a 2bbd 33c9 75bc
00000220: bd8a c7bc 82dc 303d 5a2b 693c 975f cf3c
00000230: 6d23 9db7 711a 03bb 0918 68bd 2148 f1ba
00000240: 7a1a c93b 6f95 073d 6b7a a53c 21a8 92bc
00000250: 00bc 833b 1aff 4e3d f819 213c 38fd bcbb
00000260: 753c 173d 56dc 273d ac50 f13c 6945 14bc
00000270: a2e3 113c 1b00 fdbc 903c bf3c 4df4 20bc
00000280: 2674 c43c 73e4 103c bb9a ab3c a8c7 0c3d
00000290: 66e1 56bc 5739 1e3d 4a28 6f3c 90ab 5b3d
000002a0: 10d2 abbc 1b80 0bbc bd4d da3c 907f c6bc
000002b0: 54f7 84bc 89e3 593c c215 a8bc 52c1 c33c
000002c0: bd2f 7abc 7889 1b3d eabe f3bc c989 04bd
000002d0: f0d6 aabb 4d36 da3a 94c2 3ebc 7600 4c3c
000002e0: 7890 e43c 24ef 2e3d ff6b 81bd 5164 013d
000002f0: 8eb6 2b3c ace6 24bb 9963 91bc e5ba b13c
00000300: 9212 94bc b115 9ebc 4545 663c 33d8 e0bc
00000310: 730d a83c f288 01bd 53bf 413c 4229 8e3c
00000320: 2526 d43a 6743 eebc 9ebe d3bc 64fe 3cbc
00000330: a283 163d 46ea 58bc d7b3 483c a8e6 98bc
00000340: 978c 25bd 3f5a 05bd 8c24 243d 925d 403d
00000350: f241 d9bb 2511 68bc 0538 63bc 56db 243c
00000360: 9451 fe3b 7d83 30bd b56b f33c e68f 863b
00000370: 668e bbbc a8c5 333d ef4a 96bc 529a d53c
00000380: 65dd 083c 0699 b03c f26d 42bd 70a8 fb3c
00000390: 5a82 22bd 1e24 e83c cd63 17bd 9a6e c83c
000003a0: b947 0dbc c959 e0bc 07ec f83c e397 2f3c
000003b0: 44b6 e9ba a304 893c ff58 c9ba f36d 5a3b
000003c0: bf5d c8bc 2393 433d 41ae 3e3c 5cbc 7dbb
000003d0: b947 1d3d b1cf 153c 6dab 20bb 840a 853c
000003e0: 642b 28bd 3d9e 3e3c 33e6 8bbc 04ca a3bc
000003f0: 3a35 2ebd b5a0 663c 1490 e93c c43b 08bd
0.0047101057 -0.030915087 0.014116105 -0.0047349483 -0.0063848086 -0.002552363 -0.007839311 -0.025293155
0.015664756 -0.017006377 -0.024944035 -0.0066694063 0.0052416697 0.0033926617 -0.012016874 0.019948306
0.0023788896 0.018052995 0.041206572 0.00070977735 0.0075005535 0.006285355 0.05189955 0.004998288
0.011501219 0.022228858 -0.019080784 0.032817345 0.0069671413 -0.025546912 0.012322126 -0.019328985
0.00043487956 -0.047873005 0.014614239 0.026600266 -0.01620778 0.01824465 -0.011941452 0.029330634
0.019926812 0.008015697 -0.005833238 -0.03166964 0.007698748 0.0036948237 0.029525746 0.007843718
-0.02636067 0.037781976 -0.01671239 0.0046734707 -0.0034207986 0.0071323826 -0.024040325 0.051737268
0.004762269 -0.03568824 0.013231864 0.021138078 -0.011578599 0.036427878 -0.006024764 -7.12885e-06
0.014994486 -0.02189499 -0.012593761 0.03584375 -0.019245282 -0.010658425 0.022982424 0.0042999024
-0.018072315 -0.0127219055 0.005095395 -0.01152001 -0.019320326 -0.016990636 0.022845723 -0.001602565
-0.0072414675 0.018817928 0.015293702 0.035334844 0.01775795 -0.013781568 -0.0221126 -0.019031858
0.01580928 -0.01833171 0.008952396 -0.005777534 -0.029953934 -0.0016764912 -0.0032960845 -0.017166015
0.0076302364 0.022036256 -0.023596637 0.007885931 -0.01123059 0.001764845 0.026206024 -0.0034782402
-0.032418247 -0.009271459 0.030680405 0.003830253 3.2068812e-05 0.030850522 -0.02911913 -0.0037546956
0.007876718 0.013588868 -0.010592939 -0.024552608 0.02566703 0.012587389 -0.017304175 -0.013037053
0.023092791 -0.01048274 0.0071107126 0.035801448 -0.0057758815 0.0049946797 0.005773706 0.013377268
0.052005593 0.0012401748 0.007376485 0.0659798 0.04580997 0.007735199 -0.041757688 -0.015001583
-0.024358148 0.043179043 0.014231527 0.025314135 -1.8732355e-05 -0.0020004774 -0.056663547 -0.0018408337
0.0061371895 0.033101495 0.020199975 -0.017902436 0.004020214 0.050536253 0.009832852 -0.0057674907
0.03692289 0.040981613 0.029457413 -0.009049752 0.00890437 -0.03088384 0.023344308 -0.009823871
0.023981165 0.008843529 0.020947805 0.034370095 -0.013115263 0.038628902 0.014597008 0.05363041
-0.020974189 -0.008514429 0.026648397 -0.024230748 -0.016231216 0.0132988775 -0.020518187 0.023895893
-0.015270171 0.037972897 -0.02975412 -0.032357965 -0.005213611 0.0016648263 -0.011643071 0.012451282
0.02790092 0.04270853 -0.06319427 0.03158981 0.010480536 -0.0025161905 -0.017747687 0.021695564
-0.018075261 -0.019297453 0.014054601 -0.027446842 0.020514226 -0.03162474 0.0118254 0.017353658
0.0016185684 -0.029084874 -0.02584773 -0.011535261 0.03674663 -0.013239449 0.012249908 -0.018664673
-0.04041728 -0.03255677 0.040073916 0.046964236 -0.0066301757 -0.014164244 -0.013868337 0.010062059
0.0077611897 -0.043094147 0.029714445 0.0041065095 -0.02289505 0.04388967 -0.018346278 0.026074562
0.008353566 0.021557342 -0.047468133 0.030719966 -0.039675094 0.028337535 -0.03696041 0.024466801
-0.008623057 -0.027386563 0.030385984 0.010717365 -0.0017830809 0.016725844 -0.0015361606 0.0033329695
-0.024458764 0.047747742 0.011638225 -0.0038717007 0.03839848 0.009143756 -0.002451624 0.016240366
-0.041057006 0.011634407 -0.017077541 -0.01999379 -0.04253123 0.0140764015 0.028511085 -0.033260122

_problem._r1._patch_embedding.0.weight f4 [128, 1, 7, 7]
00000000: 78bb 84bd 642d 0cbd 6b68 e13d 2af7 e33d
00000010: 846c 903c 8f5e b83c ea84 d2bd 7ac2 68bd
00000020: a537 13be 3cb5 803d 26db 053e ed93 073c
00000030: adb3 f63d 5299 203d aa8e 00be 52d3 19be
00000040: 14ed d93d 70fb 223e 8370 593c eb30 8bbd
00000050: acd4 1abe d32b d03d d72b 5d3d afa4 5a3e
00000060: 7e54 653e 65c6 803e 4c42 9b3c 5da2 223e
00000070: 8d4e 1dbe 7b28 053e 2a43 143d 0bf2 003e
00000080: 119b 5bbd 7edf ffbd b5c3 5e3d 0e56 9c3c
00000090: 5fe4 7abd 3d2c 173d 76a4 1b3d e9d8 fe3c
000000a0: beaa 08bd e29b cc3c 6999 353d bd8e 913d
000000b0: 399b 103d 0133 97bd a59c 2e3e c6f8 913c
000000c0: 771f 503d 62a9 733c 9b60 14be 6d88 e63d
000000d0: 8e14 91bc 72fb 9bbc eacb 12be 24f2 1dbe
000000e0: 4a4e 613e 4eac 723e 1ab8 6b3e a292 303d
000000f0: fdf6 4cbd afee e53c edf9 fb3d 15c1 813e
00000100: 11ca 483e 1fd1 113e 6989 febc 103c 36bb
00000110: 5bd4 513e 0afb 493e f759 a43d 9eae 82bd
00000120: 7d20 fd3d 534e bdbc 6aee 04bd 6c25 603d
00000130: f506 5cbc d29f ad3b cf4f cbbd 5451 3bbd
00000140: 3e9a 85bd 7c4a 5dbe 0e62 03be ed6d b8bc
00000150: f7b8 b33d 5a17 e0bd 5086 68bd 5489 2bbd
00000160: 53e2 05be 3116 32be 1c82 9d3d 4393 f53b
00000170: 71fc cbbc a7b7 02be 7f7e 083d b64f 07bd
00000180: 97d0 d3bc ee9e 643e 9f3b 0abe 1a6f 5cbd
00000190: 0063 3dbe 8fd9 4dbd 655d d4bd 2327 03bc
000001a0: ce2a 5cbe 19ab 293d 4507 073e f203 7a3d
000001b0: 197e bb3b 4058 c23d bb65 003e 68f8 a139
000001c0: e1d2 363e 2745 6fbd 754f 26bd d619 e53d
000001d0: 41bf 75bb cb9a 073e 8cfa ee3d 56df 8a3d
000001e0: 9467 123e 0b8f babc 40d6 fd3d 540b 0abd
000001f0: beb1 c03d 64d0 873c 93a2 34bc cf13 8cbd
00000200: bce4 df3d 9b31 30be 5260 4d3d 8dda 8dbd
00000210: cfda 55bd 12f5 4e3d edd5 28be b134 683d
00000220: 33cc fdbd aa62 48bd 2c5e efbc bf22 0e3e
00000230: ec9d 0ebe 7315 e13c 4a04 31bd 3b66 02be
00000240: 517d 56bc 64ac f8bd 9f8f 0e3e adbe 03bd
00000250: e2eb debd 8af1 d33d 1fcb d13d 7e27 813d
00000260: cd26 a0bd c68c 2e3d 0e53 623b 4033 ce3d
00000270: a0a0 aabc 8f5b 3e3c 269e f7bd 941b fcbc
00000280: 9d25 b03d b04e 5e3d 3fa7 f93c acc8 683c
00000290: 0619 e83c 92db 2fbd 6f81 d73b 57d7 9cbd
000002a0: 10a5 123e ef3d 343e 808b 643e af93 523e
000002b0: ac94 273e 1a92 b33d 984a 4dbc 0807 a93d
000002c0: ad0f 423d 86ae 283e 8df2 42bb 4ea5 0c3d
000002d0: d6c6 193e 64a3 1b3e 98fb 4e3e 4a5a 193e
000002e0: 0567 0c3e db6f 343e 4b9c dd3d 3f47 c03d
000002f0: bd9f 253e 8f94 183e 0638 2bbd bda2 c23d
00000300: f7b3 ff3c a742 cb3c afd8 893d 3d87 eebb
00000310: fbef be3d 267d bf3d d106 1fbe 477d da3d
00000320: ec69 84bd 4afd b3bd 1962 7ebe 86ab 6ebc
00000330: f199 0d3b 3504 cbbd 7347 b53d 7555 653d
00000340: 64eb 343d 8351 8b3d 0f08 b93d e9fb 033e
00000350: f906 363e 50bc cabd 5b62 1b3d feb9 123e
00000360: 745c 093e b11e 903d f530 203c 3124 2bbc
00000370: 74ab 94bd 7788 2fba e78c b93c 84c2 073b
00000380: 4a14 30be cb3a 9c3d 252b 0abe a4c0 3fbe
00000390: b39a b6ba 6cc7 f63c 9e34 e7bc 1fd3 a23d
000003a0: ca88 b43d 2edf 5a3e 940e 2d3e e759 f93d
000003b0: c9af d53d 818d 60bd 0f77 153e 251e 993b
000003c0: a458 b8bd 85b5 ecbd 9775 033e c54d 4e3c
000003d0: 09c2 1dbe ddd1 593d 5d6c dcbd 3043 343d
000003e0: b3e1 dd3d efc6 efbd a51d d0bd 7639 37be
000003f0: e281 dc3d 66a1 963d a578 8abd e9c1 8bbd
-0.06481069 -0.034222975 0.11006244 0.11131127 0.01762987 0.022506027 -0.102792576 -0.056826092
-0.14376695 0.06284568 0.1307188 0.008275014 0.12045989 0.039208718 -0.12554422 -0.15022019
0.10640922 0.15916228 0.013271454 -0.0679644 -0.1512019 0.10164609 0.053996887 0.21351884
0.22395512 0.25151363 0.018952511 0.15882249 -0.15361996 0.13003723 0.036196865 0.12592332
-0.05361468 -0.124937996 0.05438586 0.019084003 -0.061252948 0.036907423 0.03799864 0.03110929
-0.033365957 0.024976674 0.044335756 0.07107303 0.03530428 -0.07382775 0.17051943 0.01781882
0.050811257 0.014871927 -0.14489977 0.1125649 -0.017709997 -0.019040797 -0.143356 -0.154244
0.22002521 0.23698542 0.23019448 0.04310859 -0.050040234 0.028067915 0.12303529 0.25342622
0.19608332 0.1423993 -0.031071382 -0.0027806796 0.20491163 0.1972467 0.08024972 -0.06380962
0.12359712 -0.023108637 -0.032453932 0.05472319 -0.013429393 0.005298593 -0.09927332 -0.045731857
-0.0652356 -0.21610445 -0.12830374 -0.022513354 0.087755136 -0.10941954 -0.056768715 -0.041879013
-0.13074617 -0.17391278 0.07690832 0.0074943616 -0.024900647 -0.1276537 0.03332376 -0.033035003
-0.0258563 0.22326252 -0.13499306 -0.053816892 -0.18494797 -0.05025631 -0.10369376 -0.008004936
-0.21500704 0.041422937 0.13186367 0.06103892 0.005721819 0.094894886 0.12538807 0.0003089339
0.17853881 -0.05841556 -0.04060312 0.111865684 -0.003749803 0.13242643 0.11668882 0.06780879
0.14297324 -0.022773286 0.123943806 -0.03370221 0.09408902 0.01657886 -0.011025089 -0.06839716
0.109322995 -0.17206423 0.050140686 -0.06926451 -0.052210625 0.050526686 -0.16487856 0.056690875
-0.123924635 -0.04892222 -0.02921971 0.13880442 -0.1392743 0.027476048 -0.04321698 -0.1273431
-0.013091401 -0.12142256 0.13921975 -0.032164264 -0.10884835 0.10348804 0.102438204 0.06306361
-0.07819901 0.04261472 0.0034534368 0.10068369 -0.020828545 0.011618509 -0.12090711 -0.030774869
0.08600924 0.05427426 0.030475257 0.014208 0.028332245 -0.042934008 0.006576709 -0.0765826
0.14320779 0.17601751 0.2231884 0.2056415 0.16365308 0.08768101 -0.012529992 0.08253294
0.04737823 0.16472825 -0.0029746622 0.034337334 0.15017256 0.15199047 0.20213163 0.14975849
0.13711174 0.17620794 0.10820826 0.09388589 0.16174217 0.1490042 -0.041801475 0.09503696
0.031213744 0.024812056 0.06730782 -0.0072793053 0.093231164 0.09350042 -0.15529944 0.10668426
-0.064655155 -0.087885454 -0.24842109 -0.014567262 0.0021606649 -0.09912912 0.088515185 0.0559897
0.0441698 0.068026565 0.0903474 0.12889065 0.17776097 -0.09899199 0.037935596 0.14328763
0.13414174 0.07037104 0.009777297 -0.01044564 -0.072592646 -0.0006696055 0.022650195 0.0020715306
-0.1719524 0.07628401 -0.13493021 -0.1872583 -0.0013931602 0.030124389 -0.028223332 0.079504244
0.08815153 0.21374199 0.16900092 0.12175351 0.10433919 -0.05482245 0.14596198 0.004672783
-0.09001282 -0.115580596 0.12837826 0.012591784 -0.1540605 0.053178657 -0.10762856 0.044009387
0.10834064 -0.117078654 -0.10161904 -0.17893013 0.10766961 0.07355003 -0.06761292 -0.06824095

_problem._r1._patch_embedding.0.bias f4 [128]
00000000: 9c53 9e3d bd9f f53d c21c a3bc c1c3 e83e
00000010: 27a3 9dbc 9709 f6bd c811 dfbd 71d8 b1bd
00000020: 3243 74be 7a58 823e 4a94 8f3d eedc 943e
00000030: 3f31 6d3d 065a f4bd e77d fcbd fcfe d0bc
00000040: 656d b4bd 1f8c d93e 4226 573d dfef 16be
00000050: 7b65 e93d 7cb2 583e c923 333e b373 e23b
00000060: 21df f43d dfc5 a03e d983 87bb 06ff 3ebe
00000070: 61d0 d3bd 4197 03be 69bd 3abd d332 1bbe
00000080: ce40 6b3e 65a2 8dbd 21a0 c93d 3235 b33d
00000090: 2fb1 383d 6933 2e3e d274 9c3e 633a 9c3e
000000a0: d119 3cbe 0923 4cbe d875 093e 1774 a1be
000000b0: d1b0 52be 78fc 893e 1012 aebd 8b04 483e
000000c0: 005f ddbb 4ff6 4c3e 03d8 c4ba a8ef 9fbe
000000d0: cfb0 453e aa12 1d3d 3c01 003e b859 eb3d
000000e0: 42d6 b5bd c0f2 883d d494 89be 9c14 753d
000000f0: 7907 89bd 900d 1b3b be02 babd 9502 8f3e
00000100: 9ae0 8d3c dd12 1d3e 052e 643e 7427 2ebe
00000110: e8f3 3a3e 0348 90be a85e 68bd 96d1 b33d
00000120: 7fad a8bd e186 6abd 8f3e 8b3c 6434 50be
00000130: 8e76 8b3d 4096 b0bc 5633 9cbd 28dc 7fbd
00000140: dd14 56be a142 41bc c53b 1e3e c2b4 583e
00000150: d1f4 4c3d f1aa 173e 9917 5fbd 6925 7e3e
00000160: d406 20be 3dbc 34be 6349 db3d 87da 0ebc
00000170: 5231 b9be 7316 843e 6e3d 84bd ade5 393e
00000180: f31c a73c 3dae 7b3d 0133 3abe a574 573e
00000190: d50a 54be a6b4 843e 75d6 7ebe 1ae2 293b
000001a0: f990 acba fa05 84be b61a 2b3d 0d5f b43c
000001b0: 164d b73d e7a0 093e 78df dd3c b79d b23d
000001c0: 230a 96bc 538a 2d3e 3156 ecbd 3f43 76bd
000001d0: bced 993e 1a9b c73d 5426 d13d 055e 22bd
000001e0: 562b 21be 0765 a6bd cc5c 37be 56fe 4dbe
000001f0: 762a b4be 5820 683c d92f de3d 7dee 41bd
0.07730791 0.11993358 -0.019911174 0.45461848 -0.019242836 -0.12013548 -0.108920634 -0.08683861
-0.23853758 0.25458127 0.07010706 0.29074806 0.057908293 -0.11931233 -0.123287015 -0.025512211
-0.08809928 0.42489716 0.05252672 -0.14739941 0.11396309 0.21161836 0.1749412 0.006910765
0.11956621 0.31400964 -0.0041355905 -0.18651971 -0.103424795 -0.12850668 -0.04559079 -0.15156107
0.2297394 -0.0691574 0.09844995 0.087503806 0.04509085 0.17011799 0.30557877 0.30513296
-0.18369223 -0.1993524 0.1342386 -0.31533882 -0.20575263 0.2695043 -0.08499539 0.19532983
-0.0067557096 0.20015834 -0.001501799 -0.3123753 0.19305728 0.038347878 0.12500471 0.11491722
-0.08878757 0.06686926 -0.2687136 0.059834108 -0.066908784 0.0023659207 -0.09082554 0.27931657
0.017319012 0.15339227 0.2228318 -0.17007238 0.18257105 -0.2817994 -0.056730896 0.0878021
-0.08236217 -0.057257537 0.016997604 -0.20332485 0.06809722 -0.02155602 -0.07626979 -0.062465817
-0.20906396 -0.011795671 0.15452488 0.21162704 0.050038163 0.14811303 -0.054465864 0.24818958
-0.15627605 -0.17649932 0.10707357 -0.008719093 -0.3617044 0.25798377 -0.06457029 0.1815402
0.020399546 0.061445463 -0.18183519 0.2104059 -0.20707257 0.25919074 -0.24886496 0.002592212
-0.0013165764 -0.2578581 0.04177352 0.02201798 0.0895025 0.13440286 0.027084097 0.08721488
-0.01831538 0.16947298 -0.11539877 -0.060122725 0.3006419 0.0974638 0.10212389 -0.039640445
-0.15739188 -0.08124738 -0.17906493 -0.20116553 -0.35188645 0.014167868 0.1084897 -0.04734658

_problem._r1._attn.in_proj_weight f4 [384, 128]
00000000: f6cd 9f3c 07d8 473d f011 73bc db69 3b3c
00000010: 60fb 85bd df27 babd 9a2f 15bd 380c 86bd
00000020: db7b b1bd 2ed7 a0bd 37b1 b03c 3c84 00bd
00000030: e900 723d a72e e6bc e0ba 003b ff47 a3bd
00000040: f462 d7bc 4db4 6e3d 4dc1 983a 16c9 a63c
00000050: 72ce 6c3d f783 e73b 20d1 81bd aed7 92bd
00000060: 5b17 5c3d 2793 05bc ac30 f1bc f611 023c
00000070: 0720 90bc ff83 c03d 872f 89bd d0a3 bfbd
00000080: 30c6 37bc 62fd f1bc 065d 493c e573 2fbd
00000090: fdf1 cdbd 8653 d43d 36f2 b2bd 2358 31bb
000000a0: e415 363d 7365 7c3d 850a d6bd 65f1 3a3d
000000b0: d06c 94bd 5354 bdbd c4e4 8ebd e603 51bd
000000c0: eca6 d6bd ad26 b2ba 1dbf b93d bee8 91bd
000000d0: 93ce aa3d 0aef b1bc 671c b5bd d743 b1bd
000000e0: ee31 01bd 6012 aabc 4142 8ebd a9c9 36bd
000000f0: c8d5 c03d 1577 8ebd d7d5 8d3d 1f28 383d
00000100: 8d13 893d 03b1 c1bc 47cf d23d 04bf d33b
00000110: b02e 79bc c615 a7bd 00f2 01bd 21e4 d0bd
00000120: ba0b 00bd a7cd 57bd b80f 9fbd 2a7c d23d
00000130: c782 52bb 0fb0 d03c 06af febc 934b 8f3d
00000140: 485c 9e3c cec9 8a3d 0eab 2dbd 1d03 e9bc
00000150: 2090 8abc 31da 2dbd 44cf 75bd c3c7 2bbd
00000160: 7f12 8d3d b0d0 29bb f10c da3d a42d 8dba
00000170: c048 e03d 216f 8f3d 615d d8bd ddd7 a4bd
00000180: 7d26 34bd 5bff babd a42b a2bd 57bb bb3c
00000190: 3621 803d d3ce 3b3d 872d 85bd 1ac9 d2bc
000001a0: 1e06 543d 7c1c 153d 4185 0e3d 0bcb 7bbd
000001b0: ed39 5a3d 96ed e03c bf30 97bd 1da9 5abd
000001c0: 6a17 073c 5022 a2bd e80c 483d 54c0 cebd
000001d0: 6754 973d 0e69 893c a01e 3cbd 4692 db3c
000001e0: 7b11 503d 8c9a 2ebd 9830 bdbd bf21 87bd
000001f0: d3c0 91bd 159b 423d 6b05 10bd 50e7 c63d
00000200: 38f7 903d 3de0 933a f125 15bd 0977 42bd
00000210: cb0e d0bc cc8f 0bbd 2a16 b63d f5c5 d3bd
00000220: 8d83 afbd cc6c cebd 063e 253c a7cb 7b3d
00000230: 0cb3 573d 27af 8c3d 48c9 c73d e21d b9bd
00000240: 3803 a53d e761 afbd b3f4 4dbd ab46 cbbd
00000250: e552 823c 1309 9d3d 5396 3e3c 59ad d03a
00000260: 18c4 a5bc 0f81 88bd cb24 c43d af61 cf3d
00000270: 4371 b83d 53fc b93d 5431 0abd 411c 293d
00000280: dc2e f338 006a 843d fe7d bfbd bb4e e93c
00000290: eaaa dd3d c46c 3cbc 0470 78bc 9166 0a3c
000002a0: 3c07 1cbd b4b6 a83b 492e 5fbc 5a54 763c
000002b0: b199 243c 266a fbbc 1cd9 b73d 1f17 97bd
000002c0: 412b 053d 3e04 ccbd 87c1 71bd 62c9 48bc
000002d0: e103 d3bd 378e 6c3d 536d 543d c117 363d
000002e0: ece8 aabc 6d2b 92b8 7fa9 9b3d d988 d8bd
000002f0: 503a cc3c 9a5c 8cbd b8dc b43d 4edd 2abd
00000300: 694c b1bd 2d02 a93c db82 a0bd 07dc 8ebd
00000310: 6792 79bd bed1 d83b cf41 11bd be67 933d
00000320: 400a 943d a746 6d3d fed4 743d 7641 d43d
00000330: e37a 633d 6e12 c83d e6a8 633d 831a ae3b
00000340: dd40 c53c 18dc 183d 1ec3 de3d de47 1d3d
00000350: ee8d 44bd f9c7 9abd ffbe 7f3c ed70 f5bc
00000360: b993 ab3d f14d 933d e738 c6bd d462 adbd
00000370: 89b7 cf3d 17aa c3bd ee1e 323d 43cd 3d3c
00000380: 81c5 d23c fab3 bcbd d095 363d 66c9 cc3c
00000390: 5285 2ebd 5d23 cbbd f18b 123d 4946 873d
000003a0: 5b05 7dbd a100 8a3c 6cc7 8d3d 040f 44bd
000003b0: b68a 0d3d 7215 86bc 1218 c6bd d1a4 f0bc
000003c0: aca5 bb3d b657 adbd 2ef0 4e3d fbf7 82bd
000003d0: be96 2c3d 6220 b33d 84b3 55bd ee6b 84bd
000003e0: 997d 19bd c425 843d 75ea 2f3d 53ce 893c
000003f0: eecf f2bc 4bca c73d e97e c7bd be66 56bc
0.01950739 0.048790004 -0.01483582 0.011438812 -0.065420866 -0.09089636 -0.03642235 -0.06545299
-0.08666202 -0.07853542 0.021568878 -0.03137611 0.0590829 -0.028098417 0.0019642636 -0.079727165
-0.026292302 0.058277417 0.0011654288 0.020359557 0.05781407 0.007065292 -0.063387156 -0.07170044
0.05373321 -0.00815276 -0.029442154 0.0079388525 -0.017593397 0.09400176 -0.06698518 -0.09357417
-0.011216685 -0.029539768 0.012290245 -0.042835135 -0.10055921 0.10367493 -0.08737604 -0.002706059
0.04445447 0.061620187 -0.10451225 0.045640368 -0.07247317 -0.09244599 -0.06977227 -0.05102911
-0.104810566 -0.0013591849 0.09069655 -0.0712447 0.08340182 -0.021720428 -0.08843308 -0.086555175
-0.031541757 -0.020760715 -0.06946231 -0.04462591 0.094157755 -0.06956307 0.06925552 0.044960137
0.06693182 -0.023643976 0.10293441 0.00646198 -0.015208885 -0.0815845 -0.03172493 -0.10199762
-0.031261183 -0.05268636 -0.0776667 0.10277589 -0.0032121406 0.025474576 -0.031089317 0.069968365
0.019331113 0.067767724 -0.04239946 -0.028443867 -0.016914427 -0.04244441 -0.060012117 -0.041938554
0.068882935 -0.002591174 0.106469996 -0.0010771048 0.10951376 0.07003618 -0.105646856 -0.08048985
-0.043982018 -0.091307364 -0.0791848 0.022916479 0.062563345 0.04585154 -0.06502824 -0.025730658
0.051763646 0.036404118 0.03479505 -0.061472934 0.0532779 0.02745704 -0.073823445 -0.053383935
0.008245328 -0.07916701 0.048840433 -0.100952774 0.07389145 0.016773727 -0.045927644 0.026803147
0.05079792 -0.042627856 -0.09237784 -0.065982334 -0.071168564 0.04751118 -0.035161417 0.09712088
0.07078403 0.0011282038 -0.036413137 -0.047476802 -0.025397679 -0.034072682 0.08890946 -0.10340492
-0.08570013 -0.10079345 0.010085588 0.061473515 0.052660987 0.06869345 0.09755188 -0.09038903
0.080572546 -0.08563595 -0.05028219 -0.09925588 0.015908668 0.076677464 0.01163252 0.0015920802
-0.020235106 -0.06665241 0.0957733 0.101260535 0.09005978 0.0908133 -0.03373845 0.04128671
0.00011595871 0.064655304 -0.09350203 0.028479924 0.10823615 -0.011500541 -0.015163425 0.008447305
-0.038092837 0.005148733 -0.013621875 0.015034759 0.0100464085 -0.030690264 0.08976957 -0.07377457
0.032511953 -0.09961747 -0.059022453 -0.012255045 -0.10303474 0.057752814 0.051862072 0.044456247
-0.020863019 -6.969911e-05 0.07600688 -0.105729766 0.02493015 -0.068536 0.08831161 -0.04171496
-0.08657152 0.02063092 -0.07837459 -0.06975561 -0.060930636 0.0066168 -0.03546315 0.071975216
0.072285175 0.057928707 0.059773438 0.10364048 0.055537116 0.0976914 0.055580996 0.005313219
0.02407878 0.037319273 0.108770594 0.038398616 -0.047986917 -0.07557673 0.015609502 -0.029961074
0.08377785 0.071926005 -0.09678822 -0.084661156 0.101424284 -0.095539264 0.043486528 0.011584583
0.025728943 -0.09214015 0.044576466 0.024998378 -0.042607613 -0.099188544 0.03577799 0.06605203
-0.061772685 0.016846003 0.06922802 -0.047865883 0.034556113 -0.016367648 -0.0967256 -0.029375466
0.09162459 -0.08463995 0.050522022 -0.06394955 0.042135946 0.08746411 -0.052173153 -0.064658985
-0.037473295 0.06452516 0.042948205 0.016822016 -0.029640164 0.09755381 -0.09741003 -0.013086019

_problem._r1._attn.in_proj_bias f4 [384]
00000000: 1ce6 c23d ae03 5e3d 2427 3c3e 4c34 533d
00000010: d92b 0dbe 6e80 67bb bf3c dbbc eb88 b2bd
00000020: caac 033d 4321 3cbc 0e57 ee3c 2bb7 983a
00000030: 09a5 32bd 8422 3d3e 7be4 48bb d79b 4e3d
00000040: c9ea 0b3d ee26 b23c 1792 52bd f57b c03d
00000050: 5ccc 1cbc 2dbf 95bd 9e7e ec3d e041 6f3c
00000060: bf84 0f3d 9a2a febc 9102 06bd 2a6c d33d
00000070: 93aa 203e 62a7 4c3d 58df 823d 4762 bcbd
00000080: 6cb8 97bc b200 2dbd f534 9cba ec7f 6dbd
00000090: 1a8b 483c 1003 09bd 9164 8cbd aeb4 00bd
000000a0: 3884 2fbc 68c0 cdbd d61d 0bbe f170 433d
000000b0: 7752 8fbd d530 a0bd 8a0d c53d 0536 f5bd
000000c0: 2034 97bd 9da0 4b3e bdb5 d9bd 852f 07be
000000d0: 947b 1e3e a132 c4bd 097d afbc ff52 bd3d
000000e0: e380 5ebd 78e1 96bd a67f ebba d6d4 4dbb
000000f0: 49c5 a33d 9054 223a 8101 333d 266a c33d
00000100: 32f9 c33d 6b4a 14bd 9b05 16bd 8b48 553c
00000110: 5fcf 74bd 463b 1d3d b6cd e53c c844 d93d
00000120: 08b8 f1bc f69c f73d 931e c63d fcf7 a03c
00000130: a577 a33d cf46 153d ef14 3bbd 6263 2c3d
00000140: 1031 74bc 67bf 9bbd 67b4 103d 0d11 293d
00000150: c815 1d3a e0ff 6d3d 8bee 8ebd 8209 16bd
00000160: b20e 75bc d55b b03d 8f39 93bc 9400 803d
00000170: bb01 d6bd 1e97 a0bd e128 e8bc 6357 82bd
00000180: 7a64 85bc 2274 53bc 5bda 02be 8681 20bb
00000190: 3344 673d fcc6 513e 1a78 69bd fd2b afbc
000001a0: c44d 9d3d 323f b03a 58e6 3fbd a8f4 403d
000001b0: 44f7 ca3b 0b9f 423d b526 2c3d 4708 c4bd
000001c0: d2c4 b33d e7de edbd 6a5c 9dbc d3a7 13be
000001d0: 18d0 3b3e f9bf db3c 37df 183d a7c2 d73a
000001e0: 1821 03be 3cf7 6dbd 9b56 073d e123 f73d
000001f0: 352a 22be 6176 663c 0b08 cdbd 330a e83c
00000200: 8fe7 5ab0 7a32 342f 8da7 f230 12f9 0031
00000210: 46ab d7af cffd 55b0 22e5 f4ae 65bb a230
00000220: f46f 782d 43f6 afaf 2925 3e2e 26b8 702f
00000230: 03a1 99af 626c 8630 c61b 2daf a55a 11ae
00000240: d569 b52f 9032 8f2e 7b11 85b0 bceb 7db0
00000250: 96fd 8eaf 450d 88b0 c8e4 e32f 2aa2 9aaf
00000260: 96e4 8fae f0e0 ab2d 09f6 af2e 2203 3731
00000270: 53cc a530 2dff 712f dff7 7630 6f43 0cb1
00000280: 5379 29ae 764b 812f 6de4 162f 596b f72f
00000290: 755b 2430 4c49 10af 3a89 67ad 7189 1e2e
000002a0: 303d e42d 068f 9cb0 d893 aeb0 fde8 832f
000002b0: acf0 432e fe37 1ab0 0eee 1630 0cad 5fb0
000002c0: 4100 cfaf f5ab 0131 2f95 462f 3288 ea30
000002d0: dfeb db30 cacf 50b0 d725 b72e e945 afaf
000002e0: 6c11 5e30 7946 0730 6e12 a2ae 8678 5caf
000002f0: 4ffb a630 c9eb 94af 9686 6eaf 8daa 95af
00000300: 4b70 2d30 2522 40b0 c4af 09b0 e194 fd2e
00000310: 6ae4 03b0 0364 ddad fd14 0830 fd72 5031
00000320: 6dd0 78b0 d50e 142e 3d61 8e2f ed38 c4af
00000330: 2bdb 2faf 5aa1 a0ae ca56 46b0 527f 1e30
00000340: 0b03 312f 02b7 72b0 20d7 1431 14d1 0f30
00000350: 52fe 25af 6d10 c430 f07b dbb0 63f9 4daf
00000360: bf56 3d2e 7756 b72f db19 ffaf 9219 6f2f
00000370: 1f2b dbb0 7f50 b6ae 1acd 6fb0 518e bfaf
00000380: ac2d af2d 219b f72f c3b6 aeae 4cd2 7eae
00000390: 9e54 ce30 e1b6 f4b0 fe0f 5fb0 0e23 922f
000003a0: 70fb fc30 d53f be2f 5f1a 4630 8df3 e82f
000003b0: 5c77 2caf c3d7 942e fc43 5e2d 7146 dc30
000003c0: ad74 822f 7bee 4231 8a64 fd2f 800a 36b1
000003d0: cfe6 3231 6504 832f 66b8 5f2f 1ff1 05af
000003e0: d50c 6630 4fb2 e6af a1c2 912d c96c 1b2f
000003f0: a969 f8b0 2ee3 542f e250 a1b0 522a 4d2f
0.09516546 0.054202728 0.18374306 0.051563546 -0.13786258 -0.0035324353 -0.026762364 -0.08717521
0.032147206 -0.01148254 0.029094245 0.0011651268 -0.04361442 0.18470198 -0.0030653763 0.05044159
0.034159455 0.021747079 -0.051408853 0.09398643 -0.009570207 -0.073118545 0.11547588 0.014603108
0.035038706 -0.031026173 -0.03271729 0.10323365 0.15690069 0.049964316 0.06390256 -0.091984324
-0.018520556 -0.04223699 -0.0011917638 -0.057983324 0.012240196 -0.033450186 -0.06855119 -0.03142231
-0.010712676 -0.10046464 -0.135856 0.04771513 -0.06998151 -0.07821814 0.09621723 -0.11973194
-0.07382989 0.19885488 -0.10630367 -0.13201721 0.15476829 -0.09579969 -0.021421926 0.09244346
-0.054322135 -0.073672235 -0.0017967119 -0.0031407378 0.079966135 0.00061924104 0.043702606 0.095417306
0.095690146 -0.036203783 -0.03662644 0.013017784 -0.059768077 0.038386606 0.028052192 0.10608822
-0.029506698 0.12090485 0.096738 0.019649498 0.07981805 0.03644448 -0.04567426 0.042086966
-0.014904276 -0.076048665 0.035328295 0.041276027 0.00059923204 0.05810535 -0.06979092 -0.03663016
-0.014957117 0.086112656 -0.017971782 0.0625011 -0.10449549 -0.07841323 -0.028339805 -0.06364324
-0.016283263 -0.012906106 -0.12778609 -0.0024491264 0.056461524 0.20486063 -0.056999303 -0.02138328
0.07680848 0.0013446568 -0.046850532 0.047108322 0.006194027 0.047514956 0.0420291 -0.09571891
0.08777775 -0.11614781 -0.019209106 -0.14419489 0.183411 0.026824938 0.03732225 0.0016461209
-0.12805593 -0.05809711 0.033041578 0.1206739 -0.15836413 0.01406631 -0.100113 0.028325176
-7.9637e-10 1.6388838e-10 1.7655438e-09 1.8768032e-09 -3.922997e-10 -7.784963e-10 -1.11365375e-10 1.1840312e-09
1.41220265e-11 -3.2007294e-10 4.3234003e-11 2.1893296e-10 -2.7944944e-10 9.780587e-10 -1.5744125e-10 -3.304969e-11
3.2998906e-10 6.511869e-11 -9.681992e-10 -9.237586e-10 -2.6009833e-10 -9.899074e-10 4.1453618e-10 -2.812766e-10
-6.543492e-11 1.9540342e-11 8.001783e-11 2.6631786e-09 1.2063402e-09 2.2009479e-10 8.9846525e-10 -2.0411013e-09
-3.853391e-11 2.3518582e-10 1.3723574e-10 4.5005313e-10 5.979282e-10 -1.3122764e-10 -1.31613e-11 3.6047113e-11
2.5947772e-11 -1.1391144e-09 -1.2702186e-09 2.399431e-10 4.4551626e-11 -5.6104443e-10 5.490798e-10 -8.137284e-10
-3.765326e-10 1.8869717e-09 1.8060996e-10 1.706445e-09 1.6001386e-09 -7.5965245e-10 8.328598e-11 -3.188199e-10
8.078789e-10 4.921286e-10 -7.370181e-11 -2.0051702e-10 1.2149516e-09 -2.7088579e-10 -2.1693788e-10 -2.7224126e-10
6.309661e-10 -6.9897715e-10 -5.009009e-10 1.1531554e-10 -4.798212e-10 -2.5169205e-11 4.950634e-10 3.0333347e-09
-9.0518065e-10 3.3664477e-11 2.5898741e-10 -3.569264e-10 -1.5994021e-10 -7.3046194e-11 -7.2155315e-10 5.7661e-10
1.6099137e-10 -8.8299157e-10 2.165912e-09 5.2320215e-10 -1.5097015e-10 1.4265545e-09 -1.5969572e-09 -1.8733241e-10
4.305067e-11 3.3348943e-10 -4.64026e-10 2.1746008e-10 -1.5946603e-09 -8.290701e-11 -8.723916e-10 -3.484382e-10
1.9915479e-11 4.5039264e-10 -7.945069e-11 -5.7939695e-11 1.5012522e-09 -1.7805314e-09 -8.1149654e-10 2.6582153e-10
1.8406876e-09 3.4606154e-10 7.2069456e-10 4.2373607e-10 -1.5685714e-10 6.768588e-11 1.26343346e-11 1.6027127e-09
2.3729765e-10 2.8366276e-09 4.609187e-10 -2.6490454e-09 2.6033609e-09 2.3831884e-10 2.0347243e-10 -1.2181943e-10
8.369175e-10 -4.1963452e-10 1.6571024e-11 1.4135816e-10 -1.8074405e-09 1.9361998e-10 -1.173728e-09 1.8659677e-10

_problem._r1._attn.out_proj.weight f4 [128, 128]
00000000: 4182 893d 30c7 68bd 267e a43d 4e91 b23a
00000010: 9491 a53d 232a 83bd 2269 e5bc 266c 903d
00000020: 88a2 a2bd 0f22 c5bd 7ddf 3d3b eaff d53d
00000030: b1d4 9b3d a6b7 a43d 02fc 4239 52f9 b038
00000040: d604 1abd bd77 c03c 320d 923d cd32 a9bd
00000050: 2eb6 943d 7dc7 81bd 4ab9 94bd 2227 723d
00000060: d07d de3d b6b4 763d b092 603d 7851 973d
00000070: 86ec 0e3d f382 8dbc 98a8 943b d811 03bc
00000080: 1d5e 1c3d 1671 c53d ed93 d8bc 0a5e adbc
00000090: 4dc1 89bd 127d 693d dee9 1d3d 28f7 74bd
000000a0: 4cf0 653d 51f0 ffbc 02a8 853d a451 133c
000000b0: ae59 45bb 8ed6 b0bd 7930 79bb f544 9d3d
000000c0: 3cd1 c83d 6240 c13d e055 623d bb5f 863d
000000d0: e0f9 283c bcf3 7c3d 4429 04bc e8c9 c93d
000000e0: 980c 843d fdb5 a23d 41ee 403d 2896 78bd
000000f0: e860 80bd 874b 4a3d 3694 c7bd ac6d 2cbd
00000100: 6f16 c63c a63e 863d 5624 27bd d49a 773c
00000110: 755c 2abc 59f5 18bd 612e 45bd d33f 833d
00000120: f8cb e83d 3c83 913d 26f1 123b 4caf e33c
00000130: 10e6 a7bc f741 9cbd 0b03 97bd 519d 9dbd
00000140: bd43 63bd a5bc 1fbd 6a4f 593b c639 0cbe
00000150: 2ae6 e0bd 2fcd ac3c ddfe 743d 994b e037
00000160: c692 04bc 2a41 d9bd 3fa7 5abd ae0e 903c
00000170: 05c8 90bd 7bd3 2ebd c958 7ebd 37be 55bd
00000180: a56e 923b bc14 b2bd 483c 23b8 96f6 c03d
00000190: ed05 4f3c 1ee7 b53d 8501 2a3d c55d d13d
000001a0: 3fd2 4ebb 6669 d0bc 434a 07bd 2628 433b
000001b0: fbd1 80bd 2a46 f0ba f763 81bd 7aa2 c83c
000001c0: 74b8 c7bc 7312 5fbd 8a1d 85bd aec6 8fbd
000001d0: 9366 96bd df4b 733d 890a 29bd 77c9 1abd
000001e0: c295 97bd 43f2 603d f9f7 d83c 87e2 bdbc
000001f0: d6f8 3bbd b702 0d3c 970a 8e3d 9af7 bfbd
00000200: faa3 42bc 44b6 0ebd d9e9 8a3b c88e 203c
00000210: e793 67bd 1149 84bd 7b41 93bd 11c9 7ebc
00000220: a21f cebd 9e88 b33d 7ca8 ee3b a109 873d
00000230: 4f07 ccbd cf99 1dbc 2896 793d 6044 2d3d
00000240: f364 8dbd a86d e73c 2b8d c6bd d795 2abc
00000250: e476 cbbd eafa 873d e2f8 623d ece9 fc3c
00000260: 7451 bfbc 28da e5bd 6a68 bf3d 30bc 383d
00000270: 81be 963d 8f1d e3bd 104d 393c 330e 25bd
00000280: e1f5 44bd be3d 233d be1b aebd 0428 153d
00000290: 22c9 883d 4e44 64bd dec0 c33d 8353 a13c
000002a0: 7016 7d3d a96d f9bb 12c6 103d af64 2e3d
000002b0: 6378 6e3d 1668 633d 0299 273d c815 84bd
000002c0: fccd 58bb 1d74 463d 21af 5b3c 58d3 4f3c
000002d0: a650 a8bd d7c8 0a3d e17a 38bc 59c8 063d
000002e0: eb9a b03d 2e0f f4bd 18a6 de3d 566c b6bd
000002f0: 3659 a53c 4e06 7ebd ff92 9d3d 2890 a33d
00000300: 4f82 c3bd 35ce 803c 459c 63bd c889 0bbd
00000310: b5a6 54bd 6435 1b3d b28e f53c 878c 81bb
00000320: 236b f23d a5fd c53d 05b8 eabd 46a3 f3bc
00000330: 24ee 6abd b90d 50bd 1871 d9bd e41c 00be
00000340: 745f 9b3c 023d 963d 35d4 453d a6bd cebd
00000350: ede6 9f3d d2e9 80bd c83b db3d 7132 b9bc
00000360: 674f 0abd 82b3 adbc ef14 6dbd b5a8 083d
00000370: c954 56bc 31d2 4a3d 228d c6bd 244c 4c3c
00000380: e2e6 f23a d4cd 633d 9374 8dbd f25f 3ebd
00000390: b1c6 0fbd a6a9 3bbd b516 d4bd 5cb7 473d
000003a0: 3c94 11bd daf3 d6bd ed9e 0bbd 868f 013d
000003b0: 4b49 1cbd 1548 5abd 9971 5e3d 9b8b b2bd
000003c0: 9c9c 573d 90e0 943c cbfd bfbc 223b c0bc
000003d0: 687a 88bd 8b2d 9b3d 7901 c23c 5d8c b73d
000003e0: d8eb b33d 83eb e33c fe6f 273d cfae 3fbc
000003f0: 0032 9b3d 3e55 0abe 9004 813d e25b 8abd
0.06714297 -0.056830585 0.080318734 0.0013623626 0.080844074 -0.06404521 -0.028004233 0.07051878
-0.079411566 -0.09625637 0.002897232 0.10449202 0.07608927 0.08042841 0.00018595162 8.4387735e-05
-0.03760227 0.023494596 0.07131423 -0.082616426 0.072613105 -0.063368775 -0.072619036 0.05911935
0.108638406 0.060230933 0.054827392 0.07388586 0.034893535 -0.017274356 0.0045366995 -0.00799986
0.03817569 0.0964071 -0.026437724 -0.021163005 -0.06726322 0.057004042 0.03855311 -0.05980602
0.056137368 -0.031242521 0.065261856 0.008991633 -0.0030113268 -0.08634673 -0.0038023277 0.07679168
0.09805533 0.09436108 0.055257678 0.06561228 0.010313481 0.06175588 -0.008066479 0.09852964
0.064477146 0.07944868 0.047102217 -0.060690075 -0.062684834 0.049388435 -0.09745066 -0.04209678
0.024180619 0.06554918 -0.040806137 0.0151125975 -0.01039802 -0.037343357 -0.048139933 0.06408658
0.11367029 0.07105109 0.0022421568 0.027793549 -0.020495445 -0.07629769 -0.07373627 -0.07696021
-0.055484522 -0.038998265 0.0033158907 -0.13693914 -0.109814 0.021093933 0.05981337 2.6738084e-05
-0.008091634 -0.10608132 -0.053382155 0.017585125 -0.07069401 -0.042682152 -0.06209639 -0.052183356
0.0044687563 -0.08695361 -3.891837e-05 0.094220325 0.01263569 0.08881973 0.041505355 0.10222963
-0.0031558422 -0.025440883 -0.033029806 0.002977857 -0.062900506 -0.0018331457 -0.06317895 0.024491537
-0.024379946 -0.054460954 -0.06499775 -0.07020317 -0.07343783 0.05939853 -0.041269813 -0.037789788
-0.07401611 0.05491854 0.02648543 -0.023179306 -0.045891605 0.008606604 0.069356136 -0.09373398
-0.011879915 -0.03484179 0.0042393026 0.009799667 -0.056537535 -0.06459249 -0.07190224 -0.015550868
-0.10064627 0.08766292 0.0072832685 0.065936334 -0.099623315 -0.00961919 0.060934216 0.042301536
-0.0690402 0.02825053 -0.096948944 -0.010411701 -0.09934786 0.06639655 0.055413134 0.030873261
-0.02335427 -0.11223251 0.09346087 0.045101345 0.073605545 -0.11089622 0.011309877 -0.040296745
-0.04808605 0.039853804 -0.08501385 0.036415115 0.06678988 -0.055729203 0.09558271 0.019693142
0.061788976 -0.0076119495 0.035345145 0.042576488 0.05822028 0.055519186 0.040917404 -0.06449467
-0.003308176 0.048450578 0.013408453 0.012684666 -0.082185075 0.033882942 -0.011259765 0.03290591
0.08623298 -0.11916958 0.108715236 -0.08907382 0.02018414 -0.06201773 0.07694053 0.0798648
-0.09546339 0.015723327 -0.055568952 -0.034066945 -0.051916797 0.037892714 0.029975269 -0.0039535197
0.11836841 0.096675195 -0.1146088 -0.02974094 -0.057356015 -0.050794337 -0.10617274 -0.12511021
0.018966414 0.07335855 0.04829808 -0.10094766 0.078077175 -0.06294598 0.10704762 -0.02260706
-0.03376713 -0.02120376 -0.057881292 0.033364017 -0.013081738 0.04951686 -0.09694888 0.012469325
0.0018531943 0.055616215 -0.069070004 -0.04647822 -0.035101596 -0.045816086 -0.103558935 0.04875885
-0.035541758 -0.1049573 -0.03408711 0.031631015 -0.038155835 -0.0532914 0.054307554 -0.08718034
0.05263959 0.018173486 -0.023436448 -0.023465697 -0.06663972 0.07577046 0.023682343 0.08962319
0.08785218 0.027822262 0.04087829 -0.011699392 0.07577896 -0.1350908 0.06299698 -0.067558065

_problem._r1._attn.out_proj.bias f4 [128]
00000000: e61b 9e3d 950a 503d 42e6 d0b9 5c31 233e
00000010: 593f 943c a1ae a9bc b033 1d3e 44c8 5e3c
00000020: acb3 d73c a86e 083d 04f6 db3d 26e3 0fbc
00000030: ebd3 9b38 9a2c 013a 86d4 93bd 85b2 5a3e
00000040: 3a79 7cbd f3cd a0b9 4e6c f93d c3b6 6ebd
00000050: 4751 cbbd f709 053e e948 c13c 82aa 85bd
00000060: 9eee 83bd 35b2 203e b23b d83d 2567 f03b
00000070: 42bf 883c ae2a b83c f20f e33d 8424 d13d
00000080: 72f8 e8bc 5615 af3c 5c56 81bd cf01 9b3c
00000090: 3566 28bd 22e8 91bd d759 ad3b 1c08 0a3d
000000a0: 1111 4d3d 9e6c 123e d2bd a4bd 9c39 47bd
000000b0: da3c 39bd 7153 00bd a73a f03c 1108 3a3c
000000c0: 353c c63d b5d8 0dbe 9421 10bd f2ea 6ebd
000000d0: c0e0 18bd 1baf afba 0f1b 553d 59b4 ec3d
000000e0: dbeb 943d 9e7c 093d 525a 823d 1b48 b73c
000000f0: a5e6 2b3d 014b 00be c462 bbbb f314 60bd
00000100: d0c8 56bd c7cf 6a3c 940b 0a3c 5baa adbd
00000110: 9248 153c 1e39 5f3d 20b4 04be 3439 06bc
00000120: 1d20 fe3d 96b8 0c3d 8d14 94bd 114a 97bd
00000130: aff3 ae3d fb10 cfbc 4717 863d a26f 0bbd
00000140: bcde 3ebd 81a3 babc 9493 a4bc 8b1e 17be
00000150: d605 cc3d e32c 3e3c 90af d83d 18b6 13bd
00000160: 42f5 19bd 0e59 433a ea82 743c bf4a 04bd
00000170: f1f4 d83b 6db4 9fbd 785c 52bc c16a f7bc
00000180: a058 893d dc7e 683c 0fa7 c63d d1f2 37bd
00000190: 3b36 b6bd e568 f13d 4c45 1bbd 490a 06bd
000001a0: 3aa1 4d3d 0704 0ebd 9574 ab3c 1205 0e3e
000001b0: f931 ea3d f888 e8bc f795 46bd db2d 2ebd
000001c0: c5b7 13bc 291d 89bd 9f77 d2bc e909 5ebd
000001d0: 48bd 03bd 2eb0 1fbc 1a79 1cbc 635f 703c
000001e0: d553 43bb 72be 09be 425d 163e 7ff9 2e3d
000001f0: 5761 903d cd15 5b3d f415 383d cdf1 d43d
0.07720165 0.05079134 -0.00039844407 0.15936798 0.018096613 -0.020713152 0.15351748 0.013597552
0.026330791 0.033308655 0.10740283 -0.008782184 7.430449e-05 0.00049276056 -0.0721827 0.21357162
-0.06163905 -0.00030671022 0.121788606 -0.058279764 -0.09927612 0.12992083 0.023594337 -0.065266624
-0.06441997 0.1569298 0.10558261 0.0073365145 0.016692761 0.022481289 0.11087026 0.10212043
-0.02843878 0.021372478 -0.063153 0.01892176 -0.041113097 -0.07124354 0.0052902508 0.03369914
0.050065104 0.14299247 -0.08044018 -0.048638925 -0.04522405 -0.031329576 0.029324843 0.011354462
0.09679452 -0.13852198 -0.035188273 -0.05832953 -0.037323713 -0.0013403626 0.05202776 0.11557836
0.07271548 0.03356611 0.063648835 0.02237325 0.041968007 -0.12528612 -0.005718561 -0.05470748
-0.052437603 0.014331765 0.008425612 -0.08479758 0.00911154 0.05449783 -0.12959337 -0.008192349
0.12408469 0.034355722 -0.07230482 -0.07387174 0.08542573 -0.025276652 0.065474086 -0.03404201
-0.046599135 -0.022783043 -0.020089902 -0.14757745 0.099620506 0.0116073815 0.10580361 -0.03606233
-0.03758741 0.000745193 0.0149237905 -0.032297846 0.006620996 -0.07798085 -0.012839429 -0.030202271
0.06706357 0.014190402 0.09699833 -0.044909302 -0.088970624 0.11787585 -0.037907884 -0.032724652
0.050202586 -0.03467181 0.020929614 0.13869122 0.11435313 -0.028385624 -0.04848286 -0.0425242
-0.009015982 -0.06695015 -0.025691805 -0.05420867 -0.032162935 -0.009746594 -0.009550357 0.0146711795
-0.0029804606 -0.13451555 0.14684013 0.042718407 0.07049816 0.053487588 0.04494281 0.10397682

_problem._en._memory._patterns f4 [128, 128]
00000000: 7824 00be e2a4 73bd bc1b 74bd cd04 b53d
00000010: c07e e53d ebe1 c93c c95b 9fbd 42ba e6bd
00000020: 9447 1bbd be22 9abd f7f1 223d a018 2ebe
00000030: f635 cc3c da46 40bd 9169 bdbc 7d10 a03b
00000040: bd8f e4bd 7b35 163d 7bab 1f3e 43e3 35be
00000050: 65dc b23d b7cb 31be 70c5 a2bb 12da 1c3e
00000060: 0524 cb3d 83aa cabd 2521 ba3d 57b4 0f3d
00000070: 2d9b 113c 8030 a63d 988d 22bd 831f d83d
00000080: c627 1cbd b99d c83d 35e5 81bc 1b1d 22bd
00000090: fb19 583d f291 75bd d05e 223e 855b e03c
000000a0: 3385 3d3c 76e0 3a3d bdff 3dbd 9105 dc3d
000000b0: d84f 71bd 5960 313d 591a 91bd d578 d2bd
000000c0: 10f9 503d 948f 99bc 4e0d 00bd 887b 68bc
000000d0: aa29 813d 0ebc 85be b9c6 0e3e fddb 00be
000000e0: a6f3 aebc 8932 3dbd e4ed 3b3c f214 7a3d
000000f0: 74ac d9bd a380 283d 3a81 b0bd e38c c0bd
00000100: 5f0d 2abd 7b96 19be 522a 833c e419 653d
00000110: 22b1 073d 74c7 64bd e3c0 a53c f7d9 d2bb
00000120: f90e 3bbd a06e 833b 3cf9 243e 2356 7f3d
00000130: 6548 8a3d da54 8abd 4c2d a4bd cd5d 123e
00000140: d6f7 c63d 339d ddbd 9394 02bd 7a4a 36be
00000150: 6b27 cb3d bf3c fc3d a2da 4bbe 50ad c03d
00000160: da41 cd3c 282b 58bd c987 8bbc 2eb0 e83d
00000170: d5df 7cbd 3f73 07be 1470 0d3e 99d0 e6bc
00000180: b107 21bd 8e1b 9dbb e57e 883d 4561 0c3d
00000190: 4e09 c63d dcbb 9cbc 943b 08bd 93c5 f93c
000001a0: 2be9 db3b fd79 463e a4a8 a0bd 6eab 8a3d
000001b0: 5b0d 513b d26d 703d 5bcd 0a3d 5c45 5dbd
000001c0: 2264 78bd ea7e 38be 17bd 813d 0db5 adbd
000001d0: 62b8 78bd 6a73 cfbc e724 92bd c399 38bd
000001e0: a456 473c 581e 6cbd a5b2 233d 2005 1e3d
000001f0: b0d2 f8bd a053 0cbe 2903 283c b849 b9bd
00000200: 3fa2 65bd 5a32 a3bd 8f81 95bd aa07 0ebe
00000210: 51b2 0abc 49d6 a23d 209d 07bc 2cad d9bd
00000220: c386 323d d351 a3bd fc61 ad3c 1f98 b53d
00000230: 9806 67bd 9249 333d a51e a03d f49d d9bd
00000240: 1795 2fbc 732b ae3d 96d3 d539 0240 5b3d
00000250: 4f6a 803d dd85 633d 2c20 10be 510e 313d
00000260: f6e4 7f3d 4fee de3c 3870 15bd c35c a7bd
00000270: a658 893d d1c3 b1bd a739 723e 0af0 bd3c
00000280: 4218 703d 6004 b5bc 6668 a73d 6aa1 1abc
00000290: ee71 013e d573 863d 2116 2b3d 2817 7ebb
000002a0: 433d 543c 38f5 26be e011 633c 57f8 5d3e
000002b0: 9dae cabd 2440 ba3d f024 b4bd ce76 0c3c
000002c0: 4316 fcbc 9610 08bb 3e4d c4bd 0f6f 843d
000002d0: 92a8 febc cd85 663d d2aa 46be 1149 69bc
000002e0: 566b e4bd 308b e4bd 840a 23bd de4b d6bc
000002f0: 21d1 e0bc b781 373c b583 9f3d 6f2d a73d
00000300: 6172 f73d f196 01bd fd9d 66bc 8fdc f43c
00000310: a353 f8bd 6109 dd3c 677b 9e3d 55b3 80bc
00000320: cc9f 3ebe 46e9 e83c 01f6 1cbc 592c d63d
00000330: f95e 173e 2177 363d aca6 3cbd 40f2 273d
00000340: b565 a33c 25d8 ac3d cdc8 3a3c 9f58 c33d
00000350: 656b c2bd 4262 24bd a41a 10be d87f 0ebc
00000360: d458 81bd 63c1 73bd 28d2 61be 0015 843d
00000370: b0be 7cb8 5eb2 083a 4efe 49bb 5228 3abd
00000380: ee0c 5c3d 183a 6dbe a673 ac3d 2ca2 bc3c
00000390: 7184 303e b0a5 fdbd db48 7d3c c06f 1bbd
000003a0: ff34 e3bc afb6 d33d 7eb4 b23d fa60 81bc
000003b0: c199 90bd 63a1 ba3d baba f9bc 2f20 1b3d
000003c0: 7674 153d e093 7b3d d00b 9f3d 4689 913d
000003d0: d234 06be d7ee e13d 1b90 3bbd 261c bebd
000003e0: bc50 333d 0e27 72bd a4f6 d03d de6c 1cbd
000003f0: dd8f fa3d 50c5 d73d 1055 f63d 3d85 62bd
-0.12513912 -0.059483416 -0.059596762 0.08838806 0.11205816 0.024643859 -0.077811785 -0.112659946
-0.03791006 -0.07526158 0.039781537 -0.17001581 0.024928074 -0.04694257 -0.023121627 0.004884778
-0.111602284 0.036672097 0.15592758 -0.17762475 0.08733443 -0.17362867 -0.004967384 0.15317562
0.099189796 -0.09895804 0.09088353 0.035084095 0.008887094 0.081147194 -0.039685816 0.105528854
-0.03812387 0.09795708 -0.015856365 -0.03957854 0.052759152 -0.059953637 0.1585648 0.02738739
0.011567402 0.04562422 -0.04638647 0.10743249 -0.058914036 0.043304775 -0.070851035 -0.10276953
0.051018775 -0.018745221 -0.03126269 -0.014189608 0.06306775 -0.26120037 0.13942994 -0.12583919
-0.021356415 -0.046190772 0.011470292 0.06105513 -0.10628596 0.041138303 -0.08618398 -0.09401872
-0.041516658 -0.1499881 0.01601139 0.055932894 0.03312791 -0.055854276 0.020233577 -0.006434675
-0.045668576 0.0040109903 0.161107 0.062338006 0.067520894 -0.067544654 -0.08016452 0.14293595
0.0971524 -0.10820999 -0.031879973 -0.17801848 0.09919628 0.12316274 -0.1990762 0.09408057
0.025055815 -0.052775532 -0.01703252 0.113617286 -0.0617369 -0.13227557 0.13812286 -0.028175639
-0.039313976 -0.0047945445 0.06664828 0.03427245 0.096697435 -0.019132547 -0.033259943 0.030489719
0.0067111454 0.19382472 -0.07844666 0.06770979 0.003189883 0.058698483 0.03388725 -0.054021224
-0.06064237 -0.18017164 0.06334894 -0.08481798 -0.060722716 -0.025323588 -0.07135945 -0.045068514
0.012166653 -0.057646126 0.03996529 0.038579106 -0.121495605 -0.13703775 0.01025466 -0.09047264
-0.056062933 -0.07968588 -0.07300102 -0.13870111 -0.0084653655 0.07951028 -0.008277208 -0.10628733
0.04358555 -0.07974591 0.021164887 0.088669054 -0.056402773 0.043771334 0.07818345 -0.1062583
-0.010716698 0.08504381 0.0004078417 0.05352784 0.06270277 0.055547584 -0.14074773 0.043226544
0.062474214 0.027213244 -0.036483973 -0.0817199 0.067063615 -0.08679927 0.23654805 0.023185749
0.058616884 -0.022096813 0.08174209 -0.009437898 0.12641117 0.06565062 0.04176915 -0.0038771126
0.012954059 -0.16304481 0.013859242 0.21676765 -0.09896586 0.09094265 -0.08796108 0.008573247
-0.030772334 -0.002076184 -0.09585045 0.06466495 -0.03108624 0.056279946 -0.194011 -0.014238612
-0.11153285 -0.111593604 -0.03980495 -0.026159223 -0.02744347 0.01120036 0.07788793 0.08162963
0.12082363 -0.03163809 -0.014075753 0.029890327 -0.121253274 0.026982011 0.07738381 -0.015710512
-0.18615645 0.028431546 -0.009580136 0.104576774 0.14782323 0.044547204 -0.04605739 0.041002512
0.019945959 0.08439664 0.011400414 0.095383875 -0.0949314 -0.04013277 -0.14072663 -0.0086974725
-0.06315771 -0.0595106 -0.22052824 0.06449318 -6.0259074e-05 0.0005214567 -0.0030821743 -0.04544861
0.05372327 -0.23166692 0.08420496 0.023026548 0.17238022 -0.12385118 0.015459265 -0.03794837
-0.027735231 0.103375785 0.087258324 -0.015793312 -0.07060576 0.09112813 -0.030484546 0.03787249
0.03648802 0.06142032 0.07765925 0.07106261 -0.13106087 0.11031883 -0.045791727 -0.09282713
0.043778166 -0.059119277 0.10203293 -0.03818976 0.12234471 0.10535681 0.12027943 -0.055302847
