experiment/digit_classifier/version_2/checkpoints/best.ckpt (torch, 446119 bytes, 16 tensors)

_problem._r1._cls_token f4 [1, 1, 128]
0.0038851066 -0.005377398 0.004130953 -0.010218573 -0.0062836017 0.0022585157 0.0067953784 -0.0100402245
-0.0030928706 0.0008589511 0.008543121 -0.0036045301 -0.0061602825 0.0005263056 0.0057854373 -0.01158687
-0.0011548428 -0.007452032 -0.0032089471 0.0068522976 -0.008515484 0.0021463113 -0.0051411525 0.0022131023
0.0011104632 -0.0093094325 0.014316711 -0.0026903755 0.0032921913 -0.00039113784 0.0047684447 -0.0033113784
-0.005527841 0.0038586585 -0.0030424818 -0.003791823 -0.0019281118 -0.009754882 -0.008547733 0.0012985653
0.0077421237 0.0036488713 -0.0042674234 -1.4528461e-05 -0.0043957876 0.004570417 -0.004638909 0.0006223942
0.006713441 0.0043454696 0.0002273843 0.00049800926 -0.0074353674 -0.003993446 0.0007123574 -0.0060439482
0.008794849 -0.0064957766 -0.004982616 0.004104163 0.0008564188 0.0006524865 0.005435313 -0.0076455697
-0.011430665 -0.0052191564 -0.0105604045 0.0018859914 0.006117647 0.014439965 0.0022462467 -0.005037125
-0.000116800315 0.0034673072 -0.004502429 0.008534026 0.0024168852 0.0053989645 -0.0010661044 -0.007431516
0.0030370022 0.0009331996 -0.0083396435 0.0010258215 -0.011962281 -0.00046577211 -0.0015548097 -0.00706075
0.004559405 -0.0048231874 -0.0031624157 -0.0019058234 0.011432963 -0.008877466 0.00018105884 0.009883069
-0.005026871 -0.0074159913 -0.00075186806 0.008000542 0.00046795316 0.0032792806 0.0041334876 -0.0007047696
0.0045974674 0.0003623132 0.0023010662 -0.0054866155 0.008194718 -0.0009203917 0.0031821532 -0.0070952447
0.006754236 -0.005759129 0.003052944 0.0022959628 -0.003928908 0.002895899 -0.0030298557 0.0044054976
0.005687696 0.004811043 0.0094881095 -0.007484639 0.0035099 -0.0005388914 -0.0035530748 -0.0011921424
00000000: 469d 7e3b e234 b0bb f25c 873b cd6b 27bc
00000010: ace6 cdbb 9b03 143b c4ab de3b c17f 24bc
00000020: c2b1 4abb 3c2b 613a 72f8 0b3c fb39 6cbb
00000030: 32dc c9bb c5f7 093a c493 bd3b dbd6 3dbc
00000040: 185e 97ba 2d30 f4bb 334d 52bb 3d89 e03b
00000050: 8784 0bbc 21a9 0c3b 1d77 a8bb b209 113b
00000060: f68c 913a 9786 18bc a390 6a3c 0351 30bb
00000070: cec1 573b a211 cdb9 9d40 9c3b b603 59bb
00000080: e422 b5bb 8ce1 7c3b 6064 47bb 3c80 78bb
00000090: b2b8 fcba f1d2 1fbc ca0b 0cbc 9f34 aa3a
000000a0: a4b1 fd3b e721 6f3b bed5 8bbb 44bf 73b7
000000b0: 8a0a 90bb 70c3 953b fd01 98bb 2b28 233a
000000c0: 6dfc db3b 7164 8e3b 026e 6e39 d68c 023a
000000d0: 62a4 f3bb 74db 82bb 7fbd 3a3a 500c c6bb
000000e0: 4518 103c 86da d4bb 3645 a3bb 377c 863b
000000f0: 4b81 603a a10b 2b3a b61a b23b b087 fabb
00000100: af47 3bbc 7505 abbb 8c05 2dbc 5f33 f73a
00000110: 8b76 c83b 9a95 6c3c c435 133b 780e a5bb
00000120: b1f2 f4b8 c33b 633b 1d89 93bb 4dd2 0b3c
00000130: 9b64 1e3b cce9 b03b 87bc 8bba 1384 f3bb
00000140: 7108 473b f7a1 743a 00a3 08bc dc74 863a
00000150: 71fd 43bc e032 f4b9 c2ca cbba dd5d e7bb
00000160: 1067 953b d40b 9ebb 8840 4fbb d2cc f9ba
00000170: 5351 3b3c cb72 11bc 9dda 3d39 99ec 213c
00000180: 73b8 a4bb d801 f3bb 0319 45ba b514 033c
00000190: 9c57 f539 33e9 563b 3572 873b 4ac0 38ba
000001a0: 5aa6 963b dbf4 bd39 7ccd 163b 11c9 b3bb
000001b0: 2343 063c 7146 71ba ac8b 503b 3a7f e8bb
000001c0: a352 dd3b 13b7 bcbb e713 483b dd77 163b
000001d0: 12be 80bb 1fc9 3d3b 8b90 46bb fe5b 903b
000001e0: da5f ba3b f4a5 9d3b 0474 1b3c b441 f5bb
000001f0: 5a06 663b 6444 0dba b4da 68bb a941 9cba

_problem._r1._pos_embed f4 [1, 17, 128]
0.0038851066 -0.005377398 0.004130953 -0.010218573 -0.0062836017 0.0022585157 0.0067953784 -0.0100402245
-0.0030928706 0.0008589511 0.008543121 -0.0036045301 -0.0061602825 0.0005263056 0.0057854373 -0.01158687
-0.0011548428 -0.007452032 -0.0032089471 0.0068522976 -0.008515484 0.0021463113 -0.0051411525 0.0022131023
0.0011104632 -0.0093094325 0.014316711 -0.0026903755 0.0032921913 -0.00039113784 0.0047684447 -0.0033113784
-0.005527841 0.0038586585 -0.0030424818 -0.003791823 -0.0019281118 -0.009754882 -0.008547733 0.0012985653
0.0077421237 0.0036488713 -0.0042674234 -1.4528461e-05 -0.0043957876 0.004570417 -0.004638909 0.0006223942
0.006713441 0.0043454696 0.0002273843 0.00049800926 -0.0074353674 -0.003993446 0.0007123574 -0.0060439482
0.008794849 -0.0064957766 -0.004982616 0.004104163 0.0008564188 0.0006524865 0.005435313 -0.0076455697
-0.011430665 -0.0052191564 -0.0105604045 0.0018859914 0.006117647 0.014439965 0.0022462467 -0.005037125
-0.000116800315 0.0034673072 -0.004502429 0.008534026 0.0024168852 0.0053989645 -0.0010661044 -0.007431516
0.0030370022 0.0009331996 -0.0083396435 0.0010258215 -0.011962281 -0.00046577211 -0.0015548097 -0.00706075
0.004559405 -0.0048231874 -0.0031624157 -0.0019058234 0.011432963 -0.008877466 0.00018105884 0.009883069
-0.005026871 -0.0074159913 -0.00075186806 0.008000542 0.00046795316 0.0032792806 0.0041334876 -0.0007047696
0.0045974674 0.0003623132 0.0023010662 -0.0054866155 0.008194718 -0.0009203917 0.0031821532 -0.0070952447
0.006754236 -0.005759129 0.003052944 0.0022959628 -0.003928908 0.002895899 -0.0030298557 0.0044054976
0.005687696 0.004811043 0.0094881095 -0.007484639 0.0035099 -0.0005388914 -0.0035530748 -0.0011921424
0.27922678 -0.08816159 0.044296756 0.24044271 0.2790893 0.14777765 -0.17084031 -0.053284798
-0.102551036 0.17571473 0.1475705 0.018565936 -0.045958027 -0.10473488 -0.2356514 -0.026441453
0.012114321 0.045543652 0.17599832 -0.08537594 -0.11760949 0.29044792 0.046587516 0.075281665
0.20464733 0.09880436 0.20823114 -0.045354534 0.013573508 -0.0967499 0.13082224 -0.02823323
0.05588215 0.12061915 0.10396987 0.19806959 -0.06428577 0.102477126 -0.055597402 0.24440923
-0.00028035676 -0.006555669 0.08435537 -0.039396282 -0.057212 0.046410467 -0.13873497 0.035859477
-0.03141092 0.18012047 -0.10380824 -0.09360758 -0.17057297 0.026357519 -0.009876727 -0.033701897
0.21948664 0.18271288 -0.28846902 0.19995965 0.07393086 -0.06552824 -0.011330107 0.07432237
-0.11616002 -0.09837196 -0.0135517055 -0.102737375 0.10156184 -0.110956915 0.103974216 0.07367045
-0.031084355 -0.13851193 -0.14489971 0.027151847 0.20578766 -0.07679741 0.082115695 -0.099211626
-0.19522384 -0.16828449 0.05484559 0.29093662 -0.062036872 -0.12455424 -0.06393544 0.037498068
0.04844327 -0.24739447 0.14160918 -0.009741948 0.0051220893 0.20575802 -0.13781276 0.12743272
-0.016541235 0.056345303 -0.22566798 0.14778373 -0.20403711 0.17357509 -0.1160284 0.07037753
-0.03838531 -0.1476442 0.1704537 0.053829033 -0.03920869 0.06894353 -0.015176228 0.0027315298
-0.1447621 0.15700524 0.11677218 0.10314305 0.07305447 0.07102853 0.007604906 0.1424748
-0.20753883 -0.035370786 -0.067898855 -0.033827096 -0.15874763 0.07942497 0.04582273 -0.1540066
00000000: 469d 7e3b e234 b0bb f25c 873b cd6b 27bc
00000010: ace6 cdbb 9b03 143b c4ab de3b c17f 24bc
00000020: c2b1 4abb 3c2b 613a 72f8 0b3c fb39 6cbb
00000030: 32dc c9bb c5f7 093a c493 bd3b dbd6 3dbc
00000040: 185e 97ba 2d30 f4bb 334d 52bb 3d89 e03b
00000050: 8784 0bbc 21a9 0c3b 1d77 a8bb b209 113b
00000060: f68c 913a 9786 18bc a390 6a3c 0351 30bb
00000070: cec1 573b a211 cdb9 9d40 9c3b b603 59bb
00000080: e422 b5bb 8ce1 7c3b 6064 47bb 3c80 78bb
00000090: b2b8 fcba f1d2 1fbc ca0b 0cbc 9f34 aa3a
000000a0: a4b1 fd3b e721 6f3b bed5 8bbb 44bf 73b7
000000b0: 8a0a 90bb 70c3 953b fd01 98bb 2b28 233a
000000c0: 6dfc db3b 7164 8e3b 026e 6e39 d68c 023a
000000d0: 62a4 f3bb 74db 82bb 7fbd 3a3a 500c c6bb
000000e0: 4518 103c 86da d4bb 3645 a3bb 377c 863b
000000f0: 4b81 603a a10b 2b3a b61a b23b b087 fabb
00000100: af47 3bbc 7505 abbb 8c05 2dbc 5f33 f73a
00000110: 8b76 c83b 9a95 6c3c c435 133b 780e a5bb
00000120: b1f2 f4b8 c33b 633b 1d89 93bb 4dd2 0b3c
00000130: 9b64 1e3b cce9 b03b 87bc 8bba 1384 f3bb
00000140: 7108 473b f7a1 743a 00a3 08bc dc74 863a
00000150: 71fd 43bc e032 f4b9 c2ca cbba dd5d e7bb
00000160: 1067 953b d40b 9ebb 8840 4fbb d2cc f9ba
00000170: 5351 3b3c cb72 11bc 9dda 3d39 99ec 213c
00000180: 73b8 a4bb d801 f3bb 0319 45ba b514 033c
00000190: 9c57 f539 33e9 563b 3572 873b 4ac0 38ba
000001a0: 5aa6 963b dbf4 bd39 7ccd 163b 11c9 b3bb
000001b0: 2343 063c 7146 71ba ac8b 503b 3a7f e8bb
000001c0: a352 dd3b 13b7 bcbb e713 483b dd77 163b
000001d0: 12be 80bb 1fc9 3d3b 8b90 46bb fe5b 903b
000001e0: da5f ba3b f4a5 9d3b 0474 1b3c b441 f5bb
000001f0: 5a06 663b 6444 0dba b4da 68bb a941 9cba
00000200: d0f6 8e3e 108e b4bd 8470 353d 9d36 763e
00000210: cbe4 8e3e 0653 173e c3f0 2ebe 2941 5abd
00000220: 4706 d2bd 90ee 333e b91c 173e 9717 983c
00000230: 7c3e 3cbd 3e7f d6bd 9a4e 71be bf9b d8bc
00000240: 257b 463c fb8b 3a3d e738 343e 95d9 aebd
00000250: 3fdd f0bd 97b5 943e 8dd2 3e3d 462d 9a3d
00000260: 128f 513e f159 ca3d 8b3a 553e adc5 39bd
00000270: 6b63 5e3c d024 c6bd 44f6 053e 6049 e7bc
00000280: aee4 643d 2c07 f73d 28ee d43d c1d2 4a3e
00000290: 42a8 83bd 87df d13d 1aba 63bd 6a46 7a3e
000002a0: d9fc 92b9 f0d0 d6bb 82c2 ac3d ff5d 21bd
000002b0: 2157 6abd e718 3e3d 8a10 0ebe 63e1 123d
000002c0: bda8 00bd 8071 383e 6a99 d4bd 55b5 bfbd
000002d0: aeaa 2ebe b9eb d73c ffd1 21bc 000b 0abd
000002e0: 1bc1 603e 1619 3b3e 36b2 93be 39c2 4c3e
000002f0: 1069 973d ab33 86bd eaa1 39bc 5436 983d
00000300: 4ee5 edbd 3d77 c9bd f907 5ebc f967 d2bd
00000310: a7ff cf3d 613d e3bd 6ff0 d43d 88e0 963d
00000320: 9ea4 febc 12d6 0dbe 9760 14be 8d6d de3c
00000330: 00ba 523e f647 9dbd 462c a83d 772f cbbd
00000340: c2e8 47be c552 2cbe c5a5 603d a5f5 943e
00000350: 601a 7ebd 4b16 ffbd 95f0 82bd 9397 193d
00000360: 736c 463d fa54 7dbe ff01 113e b19c 1fbc
00000370: 33d7 a73b 3bb2 523e ca1e 0dbe b97d 023e
00000380: 7c81 87bc 55ca 663d 8215 67be 9e54 173e
00000390: 1bef 50be abbd 313e 4ca0 edbd 1822 903d
000003a0: ea39 1dbd 0b30 17be 6a8b 2e3e d57b 5c3d
000003b0: 4b99 20bd 4432 8d3d b7a5 78bc 7703 333b
000003c0: 843c 14be fbc5 203e 4126 ef3d aa3c d33d
000003d0: 959d 953d 6877 913d 9332 f93b eae4 113e
000003e0: 0f85 54be f5e0 10bd 8e0e 8bbd 488e 0abd
000003f0: bd8e 22be 8fa9 a23d 9db0 3b3d e8b3 1dbe

_problem._r1._patch_embedding.0.weight f4 [128, 1, 7, 7]
-0.105770186 -0.027462216 0.017953653 -0.013271178 -0.039001293 0.0067765354 0.062594324 -0.06723869
-0.09698774 0.015691498 0.07051522 0.006685224 0.07404872 0.09441431 -0.1693632 -0.16855037
0.013461542 0.017922234 -0.041375667 -0.04433898 -0.13457197 0.105408005 -0.008789723 0.2169137
0.14517821 0.21581632 0.019353762 0.06251189 0.02941577 0.22688784 0.123451754 0.22436163
0.038265146 -0.031266 0.11459183 0.0742669 -0.11841709 -0.071437664 -0.08753435 -0.117841616
-0.077231616 0.027949143 0.049766306 0.104791515 0.023716472 -0.10973387 0.1486424 -0.026729489
0.040651623 0.16184151 -0.21580902 0.13639976 -0.050627213 -0.04110606 -0.17506613 -0.6096082
0.18748884 0.119606555 0.1659013 0.0067435545 -0.09340226 0.038201924 0.015438721 0.27110332
0.015806174 0.0030638366 -0.12708905 -0.1920382 -0.117021136 -0.017109482 0.17679025 0.008474401
0.08413638 0.05756446 -0.034615885 -0.043975733 0.018709691 -0.122462906 -0.27248794 -0.122763425
0.04715629 -0.07678173 -0.02344882 -0.039388973 0.09448208 0.0038253036 0.14001782 0.2393483
0.20159104 -0.01302031 0.036722474 -0.014087255 -0.028388616 -0.115482174 0.08935442 0.040207196
0.0464913 0.082442395 -0.13916631 0.010018634 -0.15069416 -0.050769914 -0.12730181 -0.015090298
-0.172869 0.024113944 0.14683062 0.0708373 0.0037013232 0.051885597 0.09523909 0.049389593
0.18012969 -0.08001991 -0.063398495 0.0057573537 -0.17623843 0.014325368 0.08908708 0.067723796
0.14448386 -0.025664425 0.0740189 -0.09844965 0.08700758 0.03900897 -0.07033681 -0.07924823
0.12117717 -0.12736309 0.10425352 -0.007888836 0.033876326 -0.017954752 -0.16946186 0.06672903
-0.08848361 0.011622283 -0.03698086 0.14018413 -0.13521792 0.035570975 -0.0054974207 -0.063516825
0.025104307 -0.13174129 0.12289392 0.018703086 -0.17482878 0.017563913 0.016633209 0.028362367
-0.1666824 -0.011978328 0.004262735 0.13732114 -0.021401897 -0.028823296 -0.048574097 -0.022692587
0.12961106 0.02056293 -0.009030412 -0.09192558 -0.0776604 -0.08567494 -0.13556777 -0.12026257
0.12540211 0.2013665 0.31247538 0.25065702 0.20276913 -0.005769687 -0.074534595 0.04177927
-0.11355684 0.1289577 0.04896636 0.086117856 0.14476143 0.14350331 0.47488394 0.18542783
0.23782057 0.22251952 0.058521323 0.04581082 0.108901285 0.08900983 -0.04878409 0.030881852
-0.018544437 -0.055527184 0.026894087 0.035692673 0.021386564 0.02686502 -0.15748265 0.07567611
-0.14505921 -0.120564125 -0.1533088 0.028247362 -0.015178011 -0.042939376 0.07343414 0.034407057
0.058200587 0.12054032 0.11927994 0.11656911 0.2130309 -0.08756295 -0.03089948 0.10928716
0.12533836 0.11307405 -0.11240112 -0.07606912 -0.17501792 -0.064065784 -0.060121063 -0.045623425
-0.16120976 0.004616074 -0.22875395 -0.27088803 -0.043032497 -0.020498907 -0.14437155 0.2111699
0.16581276 0.30369723 0.22596888 0.17256291 0.06374232 -0.09620484 0.1123065 -0.112274624
-0.17832956 -0.12220352 0.017549455 0.00942488 -0.15665627 -0.088691086 -0.23114547 0.025607979
0.097771846 -0.18717115 -0.14630082 -0.1984315 0.23582275 0.14521617 0.11309679 0.07816608
00000000: 0a9e d8bd 71f8 e0bc 8a13 933c 5b6f 59bc
00000010: d2bf 1fbd b30d de3b 7431 803d 70b4 89bd
00000020: 82a1 c6bd 758b 803c 496a 903d b90f db3b
00000030: dba6 973d 4a5c c13d 8c6d 2dbe 7898 2cbe
00000040: cd8d 5c3c a6d1 923c 8879 29bd ca9c 35bd
00000050: 3ccd 09be 27e0 d73d c502 10bc a01e 5e3e
00000060: 99a9 143e f4fe 5c3e c88b 9e3c 3c06 803d
00000070: 57f9 f03c 4955 683e 46d4 fc3d 0ebf 653e
00000080: eabb 1c3d c710 00bd 1faf ea3d 3f19 983d
00000090: a984 f2bd e94d 92bd 3645 b3bd f256 f1bd
000000a0: 9c2b 9ebd 9af5 e43c c1d7 4b3d ef9c d63d
000000b0: 0c49 c23c 27bc e0bd b735 183e cdf7 dabc
000000c0: 5182 263d c8b9 253e 0afd 5cbe 61ac 0b3e
000000d0: 7b5e 4fbd d45e 28bd 8944 33be 480f 1cbf
000000e0: 13fd 3f3e 48f4 f43d 08e2 293e 09f9 dc3b
000000f0: af49 bfbd 9f79 1c3d b0f2 7c3c 0ece 8a3e
00000100: f37b 813c a6ca 483b a223 02be a9a5 44be
00000110: c7a8 efbd 2f29 8cbc 8108 353e 37d8 0a3c
00000120: b24f ac3d b6c8 6b3d 63c9 0dbd e61f 34bd
00000130: 1145 993c d5cd fabd 8a83 8bbe 646b fbbd
00000140: f426 413d bd3f 9dbd bd17 c0bc 5556 21bd
00000150: d27f c13d f2b1 7a3b d560 0f3e b917 753e
00000160: e26d 4e3e 2353 55bc 4e6a 163d 3bce 66bc
00000170: 3e8f e8bc eb81 ecbd 73ff b63d 4db0 243d
00000180: a96d 3e3d 8fd7 a83d 9d81 0ebe 3225 243c
00000190: 924f 1abe 1df4 4fbd 685b 02be 4c3d 77bc
000001a0: 9204 31be 9b8a c53c c45a 163e 2513 913d
000001b0: e691 723b fe85 543d b60c c33d be4c 4a3d
000001c0: eb73 383e 7be1 a3bd 12d7 81bd 2fa8 bc3b
000001d0: d977 34be f3b4 6a3c 4973 b63d c6b2 8a3d
000001e0: 94f3 133e 333e d2bc 3997 973d f89f c9bd
000001f0: 0831 b23d dfc7 1f3d bf0c 90bd e54c a2bd
00000200: bc2b f83d 786b 02be df82 d53d 2d40 01bc
00000210: e7c1 0a3d d815 93bc 6987 2dbe 3ba9 883d
00000220: e536 b5bd 636b 3e3c 3e79 17bd 6e8c 0f3e
00000230: 9176 0abe dfb2 113d b523 b4bb 1c15 82bd
00000240: 8ca7 cd3c 30e7 06be cfaf fb3d 3737 993c
00000250: 5106 33be 32e2 8f3c 5e42 883c 3258 e83c
00000260: cbae 2abe c040 44bc 6aae 8b3b ea9d 0c3e
00000270: 0853 afbc d51e ecbc a2f5 46bd cee5 b9bc
00000280: c3b8 043e 9773 a83c 4bf4 13bc 7a43 bcbd
00000290: 6a0c 9fbd 5876 afbd 47d2 0abe 394c f6bd
000002a0: 6969 003e 0533 4e3e c6fc 9f3e 1e56 803e
000002b0: b6a2 4f3e a40f bdbb 98a5 98bd bd20 2b3d
000002c0: 7d90 e8bd 7d0d 043e f390 483d 8f5e b03d
000002d0: 573c 143e 88f2 123e fd23 f33e cbe0 3d3e
000002e0: 3c87 733e 28dc 633e 0eb4 6f3d 20a4 3b3d
000002f0: a307 df3d c94a b63d d3d1 47bd f0fb fc3c
00000300: 81ea 97bc 7970 63bd fd50 dc3c 7b32 123d
00000310: e032 af3c 0814 dc3c 2243 21be 14fc 9a3d
00000320: 678a 14be 53ea f6bd fbfc 1cbe 0367 e73c
00000330: 31ad 78bc 33e1 2fbd a364 963d 6aee 0c3d
00000340: bd63 6e3d d8dd f63d 0b49 f43d c9bb ee3d
00000350: c624 5a3e 3454 b3bd e820 fdbc f2d1 df3d
00000360: b358 003e 5e93 e73d 8f32 e6bd 20ca 9bbd
00000370: e637 33be ec34 83bd 8141 76bd a1df 3abd
00000380: 2c14 25be 6f42 973b 7a3e 6abe d6b1 8abe
00000390: d842 30bd 53ed a7bc 23d6 13be ec3c 583e
000003a0: d2ca 293e 347e 9b3e 6364 673e 55b4 303e
000003b0: 558b 823d 0b07 c5bd f300 e63d 3df0 e5bd
000003c0: 069c 36be d745 fabd e0c3 8f3c d06a 1a3c
000003d0: 806a 20be aca3 b5bd 66b1 6cbe d3c7 d13c
000003e0: 9b3c c83d cba9 3fbe e2cf 15be a131 4bbe
000003f0: 857b 713e 8cb3 143e 4a9f e73d 8a15 a03d

_problem._r1._patch_embedding.0.bias f4 [128]
0.2504261 -0.19062717 -0.06203664 0.71336657 0.14215587 0.09509949 -0.075696304 -0.046525277
-0.37110153 0.4326918 0.18291533 0.22679067 -0.04404699 -0.224762 -0.15088207 0.05514338
-0.14996408 0.44723982 0.2632174 -0.20989783 -0.0852474 0.37614095 0.38776624 0.11470032
0.0055777063 0.10052648 0.27746966 -0.19804612 -0.053192988 -0.27881125 0.12613067 -0.17420752
0.22072008 -0.06285753 0.28538194 0.2927397 -0.16408288 0.08117253 0.2973136 0.4732973
-0.19416915 -0.17481467 0.23528734 -0.30956694 -0.09017411 0.37227428 -0.21406338 0.18672076
0.08438821 0.43654782 -0.041824233 -0.34878364 -0.02935935 0.004018772 0.30923566 -0.1690342
0.0689392 0.12148828 -0.26811877 0.15929951 0.028808659 0.023101209 -0.056426805 0.34661052
-0.34719443 0.18619272 0.16361772 -0.18342367 0.17701183 -0.46204966 0.18795896 0.095512725
0.015255328 -0.3065676 -0.15564103 0.07944016 0.2422125 -0.07469928 0.055493835 -0.13106793
-0.16624418 -0.084860064 0.18635567 0.39871866 0.0018542804 -0.050674357 -0.009812812 0.2282436
-0.0328468 -0.33500984 0.20040305 -0.36325303 -0.3456455 0.29746974 -0.04354671 0.32800305
-0.0640537 0.08228259 -0.09768444 0.29592317 -0.36873415 0.5278099 -0.22523373 0.0061417134
-0.15227513 -0.35616377 -0.059635572 0.08411319 0.14680642 0.043588538 0.00495007 -0.23833011
0.00073147635 0.28892606 -0.15929623 0.06058672 0.14701998 0.19258939 -0.0023160328 -0.006556878
-0.15255748 -0.037602946 -0.20592636 -0.33339995 -0.443036 0.18455224 0.029020505 -0.17151631
00000000: da37 803e c533 43be 221a 7ebd 319f 363f
00000010: 4f91 113e 85c3 c23d aa06 9bbd 4a91 3ebd
00000020: 0501 bebe c889 dd3e 284e 3b3e d03b 683e
00000030: 9e6a 34bd 0228 66be d480 1abe 06de 613d
00000040: 2f90 19be 9efc e43e 6ec4 863e 75ef 56be
00000050: 3096 aebd 8c95 c03e 4c89 c63e 00e8 ea3d
00000060: 31c5 b63b d4e0 cd3d 8110 8e3e 9acc 4abe
00000070: e4e0 59bd 59c0 8ebe 6628 013e 7563 32be
00000080: 7204 623e 73bb 80bd 951d 923e fae1 953e
00000090: 5805 28be c93d a63d 7d39 983e 0654 f23e
000000a0: 47d4 46be 9e02 33be 2aef 703e 8f7f 9ebe
000000b0: 34ad b8bd bc9a be3e 6e33 5bbe ba33 3f3e
000000c0: bad3 ac3d 3283 df3e e34f 2bbd c593 b2be
000000d0: 0583 f0bc e7af 833b 2354 9e3e 4d17 2dbe
000000e0: ff2f 8d3d d9ce f83d dd46 89be 691f 233e
000000f0: 2300 ec3c bf3e bd3c cb1f 67bd ef76 b13e
00000100: 78c3 b1be 4ea9 3e3e 678b 273e 6ad3 3bbe
00000110: 9742 353e c691 ecbe 5078 403e 2d9c c33d
00000120: 7cf1 793c 6ef6 9cbe 5d60 1fbe 86b1 a23d
00000130: 8e06 783e f0fb 98bd 814d 633d ac36 06be
00000140: ea3b 2abe 1dcb adbd 05d4 3e3e da24 cc3e
00000150: 530b f33a ea8f 4fbd ebc5 20bc b1b8 693e
00000160: 5e8a 06bd 6986 abbe 7536 4d3e 4dfc b9be
00000170: 72f8 b0be f44d 983e 095e 32bd 04f0 a73e
00000180: 962e 83bd c683 a83d c80e c8bd 3e83 973e
00000190: b9ca bcbe 8d1e 073f aca3 66be 6d40 c93b
000001a0: 03ee 1bbe 195b b6be 6e44 74bd 8943 ac3d
000001b0: 6c54 163e e589 323d 3234 a23b cf0c 74be
000001c0: 8cc0 3f3a 1eee 933e 8d1e 23be c829 783d
000001d0: 688c 163e 2736 453e 95c8 17bb 14db d6bb
000001e0: 0738 1cbe 8c05 1abd 5cde 52be 66b3 aabe
000001f0: 9dd5 e2be 43fb 3c3e 69bc ed3c f9a1 2fbe

_problem._r1._attn.in_proj_weight f4 [384, 128]
0.019579973 0.055490926 -0.023144647 0.01575442 -0.059379242 -0.08909099 -0.032904595 -0.060830347
-0.09299644 -0.07161265 0.027020331 -0.028935755 0.05778514 -0.028881466 0.0012048569 -0.08353635
-0.024574684 0.05611813 -0.008402205 0.018381888 0.058166604 0.0090473 -0.076781474 -0.0748514
0.050392196 -0.012640092 -0.022781719 -0.0021744696 -0.019118382 0.099589124 -0.06729502 -0.08783969
-0.008503074 -0.019007495 0.0073175645 -0.05202381 -0.09787496 0.100749336 -0.081671484 -0.008757697
0.037075352 0.059094165 -0.10050727 0.053329498 -0.07306578 -0.09528469 -0.07682486 -0.05285288
-0.10005764 -0.010345528 0.09254234 -0.07570148 0.084250435 -0.020743461 -0.080450535 -0.09834919
-0.034510344 -0.01295564 -0.073635876 -0.048423246 0.0999479 -0.07752619 0.069299765 0.047750596
0.059802663 -0.0169004 0.110289566 -0.0024259828 -0.014878025 -0.084790565 -0.038309865 -0.10071308
-0.023901915 -0.046931133 -0.07954644 0.10603915 0.0027129303 0.027879834 -0.035616197 0.073379345
0.019197233 0.06301158 -0.0433455 -0.03624314 -0.020904616 -0.03662336 -0.05240518 -0.03716213
0.06475503 0.0025640158 0.10253908 0.0011915158 0.118003845 0.07328437 -0.10853103 -0.078066684
-0.045964513 -0.09791539 -0.072515145 0.02183374 0.06527938 0.04689948 -0.07261965 -0.021475855
0.05939359 0.035033636 0.027042197 -0.060022227 0.050688814 0.01721497 -0.068116486 -0.049737692
0.0046472237 -0.07930093 0.05566378 -0.09707771 0.06876831 0.011692195 -0.037820324 0.027764115
0.04356704 -0.03990815 -0.09468089 -0.07786158 -0.069738336 0.04826839 -0.03826101 0.09285003
0.069405854 0.003395652 -0.03992 -0.043660317 -0.022094736 -0.031934652 0.08851766 -0.09931425
-0.088686645 -0.09663255 0.0106996205 0.061496925 0.05347503 0.0682562 0.096129075 -0.09185096
0.07854934 -0.086315535 -0.053829145 -0.10041752 0.014617994 0.07824588 0.005861753 0.0019051279
-0.02005225 -0.06728195 0.098849125 0.09644681 0.08862386 0.09406289 -0.03444093 0.044230424
0.0011192233 0.07013429 -0.09239994 0.025602873 0.10858529 -0.011583916 -0.012912129 0.0067225466
-0.04083894 0.0021311142 -0.0113825 0.019029057 0.010750779 -0.031699415 0.08565395 -0.075497046
0.034355585 -0.102817245 -0.05674115 -0.012626865 -0.102136366 0.056352943 0.054022517 0.038768403
-0.02364191 0.005148465 0.07618362 -0.10631147 0.025381774 -0.072633125 0.087532036 -0.03823803
-0.08790702 0.021517305 -0.07538605 -0.075012915 -0.06269945 0.0042324755 -0.038190007 0.07172472
0.07403976 0.057582386 0.059720676 0.104866765 0.058018267 0.09678375 0.05455969 0.007858893
0.026769985 0.035758972 0.10704588 0.03700524 -0.048872214 -0.07351493 0.01914519 -0.026687076
0.08050106 0.07447698 -0.09716319 -0.084325075 0.1037935 -0.09219033 0.041396238 0.011047908
0.023811799 -0.09350244 0.048358515 0.021016624 -0.04074069 -0.10002029 0.030794956 0.06830053
-0.058583684 0.015433142 0.06534812 -0.047856238 0.03485476 -0.020098267 -0.09415393 -0.029707484
0.08634657 -0.085339904 0.052828077 -0.061719958 0.03610764 0.084438935 -0.049279723 -0.06296697
-0.039729755 0.066683985 0.039466366 0.014435045 -0.029174354 0.09913654 -0.09609943 -0.015370592
00000000: 2e66 a03c 744a 633d d899 bdbc 6a0f 813c
00000010: a637 73bd 5675 b6bd f8c6 06bd 3e29 79bd
00000020: eb74 bebd a7a9 92bd be59 dd3c ad0a edbc
00000030: 1cb0 6c3d d398 ecbc 4aec 9d3a 1b15 abbd
00000040: d950 c9bc 20dc 653d 67a9 09bc 9d95 963c
00000050: 1b40 6e3d 203b 143c 9b3f 9dbd b14b 99bd
00000060: 0c68 4e3d 6318 4fbc baa0 babc 8c81 0ebb
00000070: 279e 9cbc 62f5 cb3d f9d1 89bd 4ce5 b3bd
00000080: 7a50 0bbc 9bb5 9bbc 2ec8 ef3b eb16 55bd
00000090: ab72 c8bd ab55 ce3d 6143 a7bd 727c 0fbc
000000a0: 53dc 173d b90c 723d c1d6 cdbd 0870 5a3d
000000b0: 83a3 95bd 9f24 c3bd 5a56 9dbd 437c 58bd
000000c0: 05eb ccbd 4a80 29bc d786 bd3d 6109 9bbd
000000d0: 7e8b ac3d 31ee a9bc 40c3 a4bd 4d6b c9bd
000000e0: b85a 0dbd e543 54bc 68ce 96bd 7457 46bd
000000f0: 7cb1 cc3d 0dc6 9ebd 09ed 8d3d 2196 433d
00000100: a3f3 743d b572 8abc 7fdf e13d 3dfd 1ebb
00000110: f6c2 73bc ada6 adbd ceea 1cbd a942 cebd
00000120: f3cd c3bc dc3a 40bd 3ee9 a2bd 0e2b d93d
00000130: 6bcb 313b 4064 e43c 4ae2 11bd e947 963d
00000140: 8443 9d3c 370c 813d 0d8b 31bd b073 14bd
00000150: 2840 abbc 6002 16bd d0a6 56bd 5137 18bd
00000160: 499e 843d 0c09 283b 0200 d23d a32c 9c3a
00000170: 00ac f13d 1e16 963d 8445 debd 6de1 9fbd
00000180: 4945 3cbd dd87 c8bd d282 94bd acdc b23c
00000190: 32b1 853d ab19 403d 9cb9 94bd 22ee afbc
000001a0: b146 733d 6e7f 0f3d 9987 dd3c ded9 75bd
000001b0: 139f 4f3d 6906 8d3c a880 8bbd c0b9 4bbd
000001c0: bd47 983b 8768 a2bd b4ff 633d aed0 c6bd
000001d0: 66d6 8c3d 9f90 3f3c 7ce9 1abd 9271 e33c
000001e0: 5a73 323d ba76 23bd 0ee8 c1bd e475 9fbd
000001f0: f9d2 8ebd 13b5 453d 94b7 1cbd 2828 be3d
00000200: a824 8e3d 9689 5e3b 2783 23bd 29d5 32bd
00000210: 0500 b5bc e9cd 02bd bf48 b53d 4565 cbbd
00000220: 58a1 b5bd 49e7 c5bd 764d 2f3c 33e4 7b3d
00000230: a208 5b3d e8c9 8b3d 52df c43d 5b1c bcbd
00000240: 7ade a03d 33c6 b0bd f37b 5cbd b3a7 cdbd
00000250: 5080 6f3c 603f a03d f313 c03b 7cb5 f93a
00000260: 9e44 a4bc 1ecb 89bd 6971 ca3d e885 c53d
00000270: 6d80 b53d 0ba4 c03d ef11 0dbd f62a 353d
00000280: e7b2 923a 91a2 8f3d 2e3c bdbd 1ebd d13c
00000290: f761 de3d 77ca 3dbc 658d 53bc cf48 dc3b
000002a0: bb46 27bd 2aaa 0b3b aa7d 3abc d3e2 9b3c
000002b0: 0924 303c 3fd7 01bd 576b af3d 329e 9abd
000002c0: 71b8 0c3d d991 d2bd 6869 68bd e9e0 4ebc
000002d0: df2c d1bd 58d2 663d b746 5d3d 9ecb 1e3d
000002e0: aeac c1bc 74b4 a83b 2806 9c3d d4b9 d9bd
000002f0: 70ed cf3c adc0 94bd ff43 b33d 7b9f 1cbd
00000300: 9808 b4bd 0f45 b03c 0064 9abd 5fa0 99bd
00000310: 9268 80bd 94b0 8a3b 206d 1cbd 69e4 923d
00000320: 28a2 973d 82db 6b3d ab9d 743d 63c4 d63d
00000330: 90a4 6d3d 8f36 c63d fb79 5f3d 96c2 003c
00000340: ba4c db3c 0078 123d df3a db3d ce92 173d
00000350: 3b2e 48bd ff8e 96bd 60d6 9c3c db9e dabc
00000360: bddd a43d 6387 983d 7ffd c6bd a0b2 acbd
00000370: b091 d43d 49ce bcbd 1a8f 293d 4902 353c
00000380: f610 c33c 357e bfbd 9413 463d 0e2b ac3c
00000390: b6df 26bd 70d7 ccbd b445 fc3c 26e1 8b3d
000003a0: 72f5 6fbd 4adb 7c3c 3cd5 853d e704 44bd
000003b0: ddc3 0e3d 1fa5 a4bc c7d3 c0bd 1c5d f3bc
000003c0: 78d6 b03d b0c6 aebd 4162 583d 11ce 7cbd
000003d0: 9be5 133d 52ee ac3d 89d9 49bd d4f4 80bd
000003e0: abbb 22bd 9d91 883d 7ca7 213d f880 6c3c
000003f0: 0eff eebc 1908 cb3d c7cf c4bd efd4 7bbc

_problem._r1._attn.in_proj_bias f4 [384]
0.06928692 0.045721006 0.18247366 0.048137005 -0.15177567 -0.07887024 -0.059657823 -0.13005587
0.06632645 -0.04528871 -0.009431633 0.0005722851 -0.047873136 0.13906756 -0.07095542 0.08319029
0.065632336 0.026079735 -0.08462937 0.11732601 0.002619492 -0.08341726 0.1336843 0.018457277
0.011339453 -0.038153987 -0.006444239 0.10576114 0.17562953 0.010518818 0.03731659 -0.0882199
0.05341259 -0.056908514 -0.019719345 -0.029677572 -0.023930416 -0.037495337 -0.0109194955 -0.0076764245
-0.016403412 -0.12051236 -0.07359469 0.07763566 -0.07833429 -0.09754755 0.13256189 -0.10136319
-0.07567193 0.17394762 -0.09216933 -0.13516228 0.19883169 -0.11484535 -0.06522273 0.09844189
0.007013041 -0.06980456 0.0041412385 0.009712276 0.12585132 -0.044479206 0.038193334 0.10074842
0.08252365 -0.018316401 -0.03678282 0.00849968 -0.045137573 0.0027743508 0.010332114 0.095236875
-0.073689416 0.1411277 0.12794511 0.021804135 0.0769917 0.05829488 -0.060240153 0.004043558
-0.09114755 -0.13053083 0.029639237 0.036982737 0.027574493 0.075507954 -0.086146966 -0.022817269
-0.034994517 0.050284676 -0.016916497 0.048402134 -0.076555505 -0.07216176 -0.08469566 -0.08998847
0.0028863575 0.0039889687 -0.13766812 -0.053716265 0.04625782 0.2162341 -0.043645296 -0.030625466
0.10222112 0.00972426 -0.059036568 0.011009607 0.028022382 -0.04970717 0.05832304 -0.14075492
0.08805724 -0.14246121 -0.003281027 -0.12524366 0.17027177 0.018340778 0.02711592 0.0035782447
-0.18068953 -0.0053765755 0.03323831 0.13000268 -0.17125773 0.05354551 -0.1158094 0.031916343
-5.290098e-09 -1.2662583e-09 -4.346432e-09 -5.980989e-10 -2.8956237e-09 -3.9824222e-10 2.0126676e-09 -8.145317e-10
-7.8747553e-10 -1.1746563e-09 1.7827281e-10 3.1045408e-10 5.582162e-11 6.1904806e-09 9.386506e-10 3.6210576e-10
1.1670069e-09 1.0545484e-09 6.235131e-10 3.0758746e-10 -3.479441e-10 4.3618306e-10 -2.1326727e-09 -9.915104e-10
-6.429179e-11 8.633863e-10 1.0467567e-10 6.013063e-10 -7.954821e-09 4.0325998e-10 1.1565598e-09 4.521875e-09
9.993415e-11 2.8857035e-09 -2.1116893e-10 -2.1805892e-10 2.0920757e-10 1.6687234e-10 5.8511646e-10 -2.1602967e-10
4.871513e-10 -6.434306e-10 1.498729e-09 1.0804748e-09 1.7280467e-09 4.860785e-09 2.3219495e-09 5.8586314e-09
-1.8380603e-10 -4.6837134e-09 -5.205964e-09 1.2914383e-09 -4.288591e-09 -1.5466429e-09 -7.761205e-10 -7.5208634e-10
8.05988e-11 2.226766e-09 3.2765493e-10 -1.0350407e-10 1.997172e-09 -4.894111e-10 -5.2656696e-10 -3.391561e-09
-1.4608054e-11 -1.3601654e-09 4.7563264e-09 -8.5174134e-10 -1.3071286e-09 -2.9941508e-10 -3.2817088e-10 -4.488221e-09
4.823595e-10 7.2128508e-09 6.1874226e-09 -1.198934e-09 2.9648297e-09 -2.9209637e-10 4.5799115e-10 -2.552252e-10
-3.8530645e-10 5.970607e-09 -7.3790885e-10 2.1571671e-09 5.105731e-10 -4.1217996e-10 5.8506405e-10 9.392769e-10
9.517903e-10 -2.5236746e-09 9.791281e-10 1.7077172e-09 1.0895058e-09 1.2454177e-09 -2.5873539e-09 3.2987386e-09
-6.8255746e-10 3.231792e-10 -7.777992e-10 1.8644601e-09 1.281704e-09 -7.374531e-09 -1.640066e-09 -3.0416167e-10
-2.4810092e-09 9.033759e-11 2.275717e-11 -4.3522e-10 -1.0372937e-10 9.1165075e-10 -6.6411326e-10 1.8389617e-08
-4.491471e-09 -1.0118105e-10 -1.9910829e-10 4.730325e-09 -5.93303e-09 3.5611744e-10 5.6086996e-10 -1.02142204e-10
-5.6811613e-09 1.3838376e-10 -1.9549296e-09 9.287441e-09 2.4591824e-09 1.2369895e-10 3.2220704e-09 9.1999747e-10
00000000: 4de6 8d3d f345 3b3d 60da 3a3e 4f2b 453d
00000010: 156b 1bbe b886 a1bd c35b 74bd 5e2d 05be
00000020: 29d6 873d a880 39bd 2387 1abc 6705 163a
00000030: 9f16 44bd ba67 0e3e 1351 91bd ac5f aa3d
00000040: 3f6a 863d 2ba5 d53c 2a52 adbd 9e48 f03d
00000050: c8ab 2b3b abd6 aabd 8ae4 083e b733 973c
00000060: 1dc9 393c 5b47 1cbd 322a d3bb 4c99 d83d
00000070: 3ad8 333e 1f57 2c3c 48d9 183d a3ac b4bd
00000080: 29c7 5a3d e718 69bd 778a a1bc 611e f3bc
00000090: b809 c4bc b694 19bd afe7 32bc 848a fbbb
000000a0: 7360 86bc 2fcf f6bd d0b8 96bd 72ff 9e3d
000000b0: ba6d a0bd 03c7 c7bd 4ebe 073e 8197 cfbd
000000c0: e3f9 9abd 531f 323e 46c3 bcbd fb67 0abe
000000d0: 899a 4b3e 0a34 ebbd 7f93 85bd e79b c93d
000000e0: a7cd e53b b1f5 8ebd 3ab3 873b 3d20 1f3c
000000f0: 2bdf 003e d42f 36bd 9d70 1c3d 3055 ce3d
00000100: 2902 a93d 470c 96bc 95a9 16bd 3e42 0b3c
00000110: 2de2 38bd e2d1 353b 0748 293c 8d0b c33d
00000120: 7aea 96bd c883 103e 0b04 033e 969e b23c
00000130: d3ad 9d3d 9dc6 6e3d 61be 76bd d37f 843b
00000140: 91ab babd e0a9 05be fccd f23c 367b 173d
00000150: e7e3 e13c eaa3 9a3d d26d b0bd 48eb babc
00000160: 6956 0fbd 4ef7 4d3d 7794 8abc 5141 463d
00000170: 22c9 9cbd 8bc9 93bd eb74 adbd e04b b8bd
00000180: 0b29 3d3b e5b5 823b dff8 0cbe 9605 5cbd
00000190: d778 3d3d 796c 5d3e 69c5 32bd 42e2 fabc
000001a0: 4e59 d13d 8152 1f3c 54d0 71bd a461 343c
000001b0: 328f e53c bf99 4bbd 24e4 6e3d 0f22 10be
000001c0: 5b57 b43d 5ae1 11be 8006 57bb e03f 00be
000001d0: b95b 2e3e 663f 963c 3522 de3c fc80 6a3b
000001e0: ad06 39be fc2d b0bb e524 083d 6c1f 053e
000001f0: 305e 2fbe 8952 5b3d 7b2d edbd b6ba 023d
00000200: 32c4 b5b1 8108 aeb0 9f57 95b1 7867 24b0
00000210: 5afc 46b1 9cef daaf 394f 0a31 93e5 5fb0
00000220: aa75 58b0 8b71 a1b0 5603 442f 87ac aa2f
00000230: 8f81 752e 0bb4 d431 d501 8130 db11 c72f
00000240: 6864 a030 a0ef 9030 d563 2b30 1619 a92f
00000250: c748 bfaf 4fcb ef2f 608e 12b1 ac45 88b0
00000260: 0f61 8dae 6953 6d30 2a2f e62e 2b49 2530
00000270: aca9 08b2 ccb1 dd2f d5f4 9e30 d55e 9b31
00000280: edc1 db2e d54d 4631 c52e 68af 21c2 6faf
00000290: b206 662f 637a 372f e9d5 2030 f286 6daf
000002a0: 3ae8 0530 67dd 30b0 d7fb cd30 d47f 9430
000002b0: 3d80 ed30 eb03 a731 2b90 1f31 114d c931
000002c0: cc18 4aaf 61ee a0b1 25e0 b2b1 727e b130
000002d0: d85a 93b1 a991 d4b0 a056 55b0 5fbb 4eb0
000002e0: 173d b12e af05 1931 5521 b42f 9d9b e3ae
000002f0: 9f3e 0931 3f87 06b0 dbbd 10b0 f910 69b1
00000300: 6a7e 80ad 91f0 bab0 176d a331 f81f 6ab0
00000310: 80a6 b3b0 ed9a a4af f269 b4af cf36 9ab1
00000320: 0897 0430 e8d4 f731 2599 d431 bdc7 a4b0
00000330: d6bd 4b31 e994 a0af 86c8 fb2f c14f 8caf
00000340: 10d3 d3af 0426 cd31 b8d5 4ab0 493d 1431
00000350: 6358 0c30 2c99 e2af 39d2 2030 de17 8130
00000360: 25d0 8230 f46c 2db1 0292 8630 f5b4 ea30
00000370: 94bd 9530 3d2b ab30 36cd 31b1 06b0 6231
00000380: b69e 3bb0 6eab b12f c1cc 55b0 ee1f 0031
00000390: f327 b030 1063 fdb1 b168 e1b0 f336 a7af
000003a0: 607e 2ab1 8ba7 c62e 972c c82d c543 efaf
000003b0: 721a e4ae b897 7a30 d18c 36b0 32f7 9d32
000003c0: 6653 9ab1 de7f deae 00ec 5aaf 6188 a231
000003d0: 7cdb cbb1 13c7 c32f b72b 1a30 f39c e0ae
000003e0: 0634 c3b1 9127 182f 7c57 06b1 998e 1f32
000003f0: 65fe 2831 2902 082f 436b 5d31 11e3 7c30

_problem._r1._attn.out_proj.weight f4 [128, 128]
0.0698354 -0.048769806 0.07270456 0.00034769435 0.08154826 -0.08310341 -0.027969414 0.0910714
-0.07650255 -0.09947736 -0.003444584 0.10320108 0.080914356 0.0494857 -0.0026655835 -0.004438823
-0.059336048 0.0059826938 0.07374331 -0.09546728 0.09105041 -0.061877243 -0.050649185 0.042233653
0.08016405 0.062352937 0.040455826 0.09180984 0.061766237 -0.006892708 0.011007757 -0.0035346749
0.037381276 0.118171334 -0.034191426 -0.03285377 -0.08484355 0.06990542 0.027932165 -0.051537767
0.082399994 -0.036741544 0.05539879 0.03365303 -0.033874564 -0.100373864 -0.02019408 0.09051156
0.102295995 0.11427603 0.062938035 0.07473399 0.010190483 0.052689143 -0.0021783072 0.10554187
0.07578279 0.08717298 0.01815302 -0.07001008 -0.053074673 0.055542253 -0.117431216 -0.033253632
0.035474278 0.06268086 -0.03500148 0.010599178 -0.0057511176 -0.06398242 -0.03299133 0.07247084
0.08460653 0.08308761 0.03145873 0.053265925 -0.032483656 -0.082914904 -0.04476661 -0.06677337
-0.052029494 -0.04745947 -0.02770006 -0.12529974 -0.13863632 0.03725304 0.057814844 -0.0014497855
-0.025329202 -0.102867715 -0.034667276 0.012718208 -0.10830153 -0.034535863 -0.045475073 -0.052618098
0.0051682126 -0.07621499 0.009712873 0.11802652 0.028526297 0.07699856 0.056745518 0.12624778
0.00017123061 -0.02025852 -0.03662215 -0.006402367 -0.06318092 -0.024390446 -0.061181143 0.042455185
-0.034136634 -0.041522752 -0.076318614 -0.09798002 -0.054814234 0.05082157 -0.06353871 -0.047062267
-0.0783055 0.06271822 0.041485317 0.014455176 -0.056060154 0.036139134 0.09379071 -0.12069177
-0.06279949 0.0019548435 0.021058667 0.030164463 -0.08665637 -0.09284383 -0.0923427 -0.022151792
-0.14685485 0.06381262 0.025252614 0.06375244 -0.16118884 0.014707775 0.074762344 0.04266551
-0.090984724 0.03572963 -0.092789255 -0.03669442 -0.08328451 0.06466031 0.02149575 0.051926147
-0.0072982893 -0.08977533 0.13781467 0.061604444 0.10647489 -0.042970017 -0.0025990899 -0.020185221
-0.032755 0.008016069 -0.115717955 0.056215253 0.032329954 -0.09694716 0.11320933 -0.036066826
0.054549456 0.04277998 0.051979374 0.007605079 0.043707713 0.033523884 0.029750662 -0.080758385
-0.0045336154 -0.004888909 -0.024105476 -0.017809609 -0.12781148 -0.0106668975 0.013159008 0.02428052
0.080484234 -0.1475871 0.16648015 -0.12726139 0.01804661 -0.13363378 0.13308652 0.16733846
-0.080695294 0.007035697 -0.0839462 -0.026095523 0.015619116 0.060598012 -0.0062211487 0.03893899
0.15275982 0.12977171 -0.13436003 -0.053042203 -0.104754016 -0.03916222 -0.15180597 -0.13406137
0.02644398 0.14830533 0.08823721 -0.15627147 0.09964552 -0.032614756 0.056071647 -0.012996491
-0.032500144 -0.036397986 -0.04458199 0.024156058 -0.028953327 0.04819176 -0.15286788 0.030654691
0.0059552086 0.061456926 -0.070960075 -0.101061806 -0.0354363 -0.044792637 -0.15123543 0.024401987
0.00027718666 -0.1481002 -0.051660787 0.03656817 0.04450761 -0.05978093 0.023671605 -0.09923757
0.14400712 -0.075096555 0.039563395 -0.038155243 -0.077027604 0.066799976 0.008326486 0.09015245
0.10435593 0.064878374 0.013835732 -0.024919145 0.08414486 -0.13635872 0.00052270584 -0.027386868
00000000: dd05 8f3d d9c2 47bd 21e6 943d bf4a b639
00000010: c602 a73d 1f32 aabd 1d20 e5bc a483 ba3d
00000020: 5ead 9cbd c9ba cbbd 88be 61bb 165b d33d
00000030: 6db6 a53d 84b1 4a3d 12b1 2ebb 8c73 91bb
00000040: 5b0a 73bd 790a c43b bc06 973d 5984 c3bd
00000050: a378 ba3d fe72 7dbd 8575 4fbd 32fd 2c3d
00000060: 0d2d a43d cb65 7f3d 02b5 253d cc06 bc3d
00000070: 98fe 7c3d 3adc e1bb e159 343c 01a6 67bb
00000080: 1c1d 193d d003 f23d 4f0c 0cbd ad91 06bd
00000090: 75c2 adbd 932a 8f3d ffd1 e43c 4419 53bd
000000a0: 54c1 a83d 4d7e 16bd d7e9 623d c2d7 093d
000000b0: 0ec0 0abd d090 cdbd 0e6e a5bc 205e b93d
000000c0: 9080 d13d 8d09 ea3d a8e5 803d 220e 993d
000000d0: fcf5 263c 92d0 573d eec1 0ebb 5626 d83d
000000e0: 0234 9b3d bf87 b23d a4b5 943c 7261 8fbd
000000f0: d464 59bd 4680 633d c77f f0bd f634 08bd
00000100: 7a4d 113d d35e 803d b65d 0fbd 2da8 2d3c
00000110: df73 bcbb 3709 83bd eb21 07bd 976b 943d
00000120: 3046 ad3d d629 aa3d dfda 003d 5f2d 5a3d
00000130: 950d 05bd 4acf a9bd 315d 37bd 7ac0 88bd
00000140: e11c 55bd dc64 42bd 3ceb e2bc 934e 00be
00000150: aef6 0dbe a596 183d 42cf 6c3d bb06 beba
00000160: 307f cfbc 4fac d2bd 46ff 0dbd 0860 503c
00000170: 31cd ddbd 7a75 0dbd 1244 3abd 1386 57bd
00000180: 1c5a a93b 9b16 9cbd be22 1f3c e3b7 f13d
00000190: fbaf e93c 6cb1 9d3d fd6d 683d 1947 013e
000001a0: 5e8c 3339 32f5 a5bc 1c01 16bd f2ca d1bb
000001b0: 0065 81bd 79ce c7bc 1499 7abd 7de5 2d3d
000001c0: dbd2 0bbd c313 2abd ef4c 9cbd c0a9 c8bd
000001d0: e484 60bd 472a 503d 9520 82bd 5dc4 40bd
000001e0: a25e a0bd 6972 803d 82ec 293d 67d5 6c3c
000001f0: 559f 65bd a106 143d 5815 c03d 3f2d f7bd
00000200: 059d 80bd d51c 003b 3a83 ac3c 771b f73c
00000210: e578 b1bd e824 bebd 2b1e bdbd ad77 b5bc
00000220: 1e61 16be 31b0 823d 92de ce3c a490 823d
00000230: b00e 25be e1f8 703c 001d 993d 08c2 2e3d
00000240: 3356 babd 3c59 123d 4b08 bebd e34c 16bd
00000250: 1291 aabd a06c 843d db17 b03c 83b0 543d
00000260: 7d26 efbb 21dc b7bd 4a1f 0d3e f154 7c3d
00000270: 820f da3d 5401 30bd 7e55 2abb 7a5b a5bc
00000280: 1b2a 06bd d555 033c 89fd ecbd f741 663d
00000290: 6a6c 043d 3c8c c6bd 4bda e73d cfba 13bd
000002a0: 406f 5f3d 0f3a 2f3d 53e8 543d 0734 f93b
000002b0: dc06 333d 5750 093d a9b7 f33c a764 a5bd
000002c0: b98e 94bb 2433 a0bb d978 c5bc 75e5 91bc
000002d0: 03e1 02be 36c4 2ebc e198 573c f1e7 c63c
000002e0: ebd4 a43d 1321 17be c679 2a3e cf50 02be
000002f0: 7cd6 933c 4bd7 08be d547 083e c65a 2b3e
00000300: 9343 a5bd b48b e63b fceb abbd 47c6 d5bc
00000310: 52e7 7f3c 9f35 783d c7da cbbb 7e7e 1f3d
00000320: 126d 1c3e e0e2 043e ad95 09be c842 59bd
00000330: 4689 d6bd 9068 20bd 0673 1bbe 6247 09be
00000340: 0ca1 d83c 5add 173e b6b5 b43d a105 20be
00000350: f312 cc3d 0d97 05bd 62ab 653d 3cef 54bc
00000360: df1e 05bd 0e16 15bd 9b9b 36bd ede2 c53c
00000370: 872f edbc b964 453d 6689 1cbe 8c1f fb3c
00000380: e923 c33b 42ba 7b3d 8453 91bd 7ef9 cebd
00000390: a725 11bd 7c78 37bd 76dd 1abe ade6 c73c
000003a0: 5d53 9139 94a7 17be 439a 53bd 81c8 153d
000003b0: 9d4d 363d d9dc 74bd f4ea c13c 113d cbbd
000003c0: 9a76 133e 39cc 99bd 3a0d 223d ac48 1cbd
000003d0: a6c0 9dbd 6dce 883d d06b 083c d9a1 b83d
000003e0: 90b8 d53d f4de 843d 44af 623c 3c23 ccbc
000003f0: 2454 ac3d 9fa1 0bbe 3206 093a 6d5a e0bc

_problem._r1._attn.out_proj.bias f4 [128]
0.06918191 0.14903799 -0.113802426 0.19428834 -0.018966995 0.030456485 0.14092495 0.014025289
-0.051804293 0.086776026 0.21662296 0.036472198 -0.03397753 0.043766055 -0.08644748 0.23388764
-0.038228925 -0.0008198549 0.20322077 -0.129784 -0.20376974 0.19237666 0.053351596 -0.09103599
-0.0734778 0.25255755 0.08576308 -0.091892995 0.053536415 0.014837243 0.15644084 0.1762048
-0.0024511933 0.04878193 -0.07015495 -0.004815797 -0.08936969 -0.16484465 0.04739691 0.067191236
0.06870466 0.23692563 -0.09830533 -0.10624761 0.023391876 -0.09871735 0.012609904 0.13623568
0.1565704 -0.15688051 -0.120118484 -0.05643257 0.03872534 -0.028093595 0.10516731 0.15967381
0.058288835 0.1242083 0.17120194 0.047204904 0.06651855 -0.16682263 -0.07356981 -0.06841496
-0.09369892 0.07531272 -0.1211088 -0.087626606 -0.014229001 0.026868267 -0.095109984 -0.06857113
0.115603425 0.033381533 -0.140555 -0.038972925 0.18683252 -0.10030542 0.13903224 -0.14543855
-0.062912785 -0.06911773 -0.06682157 -0.15674695 0.18172802 0.0315208 0.11813406 -0.12790401
0.01415258 -0.021937901 0.05380219 -0.09105437 -0.020996388 -0.09468894 0.037714288 -0.13769577
0.14608526 -0.11827516 0.1919111 -0.14706556 -0.1808773 0.22446235 -0.12599856 -0.024026921
0.10297886 -0.027335636 -0.035643544 0.07184755 0.09914166 -0.0916766 -0.06481524 -0.15953447
-0.030707281 -0.05357922 -0.11916643 -0.049611673 -0.040313493 -0.0149758095 0.010440973 0.049190734
0.022352038 -0.14898923 0.15157804 0.092557035 0.16042475 0.057510916 -0.022901345 0.15149164
00000000: 3faf 8d3d 6a9d 183e 3f11 e9bd 86f3 463e
00000010: ac60 9bbc e17f f93c a14e 103e 53ca 653c
00000020: bd30 54bd a1b7 b13d 69d2 5d3e df63 153d
00000030: 062c 0bbd 0944 333d 600b b1bd 3e80 6f3e
00000040: ef95 1cbd 88eb 56ba 1b19 503e 19e6 04be
00000050: 04a9 50be 63fe 443e 3487 5a3d 1471 babd
00000060: 877b 96bd 394f 813e 8ea4 af3d 6532 bcbd
00000070: 0049 5b3d e817 733c 0732 203e 086f 343e
00000080: 33a4 20bb 90cf 473d 66ad 8fbd d5cd 9dbb
00000090: 7507 b7bd 09cd 28be 4323 423d 8f9b 893d
000000a0: 07b5 8c3d a29c 723e 4e54 c9bd 5998 d9bd
000000b0: 52a0 bf3c 522c cabd c599 4e3c 5e81 0b3e
000000c0: fe53 203e 49a5 20be ae00 f6bd d725 67bd
000000d0: 769e 1e3d 8a24 e6bc f561 d73d 8881 233e
000000e0: 46c0 6e3d ec60 fe3d 904f 2f3e ee59 413d
000000f0: e13a 883d 8dd3 2abe c5ab 96bd 241d 8cbd
00000100: 38e5 bfbd 8e3d 9a3d e407 f8bd 9475 b3bd
00000110: c120 69bc d71a dc3c 06c9 c2bd 056f 8cbd
00000120: 7dc1 ec3d 13bb 083d a6ed 0fbe 13a2 1fbd
00000130: 0651 3f3e ee6c cdbd 785e 0e3e d8ed 14be
00000140: 6bd8 80bd 998d 8dbd bfd9 88bd 4682 20be
00000150: e916 3a3e f41b 013d 45f0 f13d 45f9 02be
00000160: 39e0 673c 1db7 b3bc af5f 5c3d b77a babd
00000170: 9e00 acbc 46ec c1bd 4c7a 1a3d 1f00 0dbe
00000180: 6097 153e 3f3a f2bd 5884 443e 5b98 16be
00000190: e637 39be 75d9 653e c405 01be 1bd4 c4bc
000001a0: 95e6 d23d fcee dfbc f7fe 11bd cf24 933d
000001b0: c80a cb3d f1c0 bbbd dabd 84bd 015d 23be
000001c0: d68d fbbc e275 5bbd 870d f4bd 9c35 4bbd
000001d0: c31f 25bd 195d 75bc 9d10 2b3c 397c 493d
000001e0: 9f1b b73c a290 18be 4637 1b3e 8b8e bd3d
000001f0: 6346 243e 9190 6b3d 9a9b bbbc a020 1b3e

_problem._en._memory._patterns f4 [128, 128]
-0.12954204 -0.06192224 -0.065334775 0.09373391 0.11434945 0.008147691 -0.07072842 -0.107343644
-0.052997474 -0.072425455 0.03838413 -0.15452804 0.0124969585 -0.05240013 -0.027374787 0.009773896
-0.11196181 0.031752147 0.1410619 -0.18355739 0.09135271 -0.1637063 0.0040323245 0.15176539
0.07544105 -0.08336863 0.07118099 0.03175777 0.035470992 0.083376415 -0.053144984 0.09133605
-0.042211123 0.12972783 0.01489367 -0.049224857 0.057137243 -0.06644022 0.16205277 0.035397694
0.023455063 0.049006626 -0.036367968 0.08584504 -0.040249363 0.04304858 -0.06671263 -0.08565532
0.050572988 -0.023800766 -0.03766694 -0.002702311 0.071122564 -0.26028886 0.1270187 -0.15132742
0.0030592238 -0.027759712 -0.001807744 0.080077365 -0.1046526 0.020066246 -0.091916636 -0.09001712
-0.06056441 -0.12983234 0.010365946 0.047654383 0.03346943 -0.08108289 0.007646568 -0.031736333
-0.043985955 -0.0046094665 0.165749 0.068578914 0.06613405 -0.07847652 -0.076671086 0.12588628
0.09330894 -0.090831764 -0.037623283 -0.19443615 0.10145013 0.119966306 -0.19812758 0.09492414
0.035239853 -0.030202579 -0.00447546 0.113326535 -0.07358485 -0.110564396 0.14648157 -0.017439717
-0.044723153 -0.016460976 0.08054724 0.039361704 0.10931527 -0.01364042 -0.042976238 0.037529137
0.0025165016 0.18365332 -0.073251985 0.053033315 0.011462839 0.043242622 0.037074436 -0.06744923
-0.06701907 -0.17524739 0.076982185 -0.086948596 -0.054263998 -0.04613931 -0.057979625 -0.03897735
0.009806152 -0.059531797 0.032298643 0.028313348 -0.124163695 -0.13408253 -0.02025885 -0.09737868
-0.06234467 -0.10164665 -0.11101802 -0.21079329 -0.07404785 0.090541855 -0.13382846 -0.18072273
0.09683216 -0.14967814 -0.14725526 0.061196808 -0.029369494 0.047477774 0.20139827 -0.15912613
0.14208269 0.06028627 8.467058e-05 0.023121761 0.049717546 0.059148002 -0.084189475 0.13381739
0.06482834 -0.027596395 -0.018874811 -0.029152548 -0.07036091 -0.10940281 0.20786585 -0.06262393
0.08606749 -0.08498527 0.030930197 0.08996322 0.16114129 0.06495209 -0.07005349 -0.06783256
-0.03796514 -0.10774345 0.03598213 0.23960796 -0.05653938 0.04581844 -0.063602544 -0.020264309
0.005809067 0.051479306 -0.11059548 0.11380374 0.04555831 0.05691171 -0.1859399 -0.019290809
-0.20003253 0.010582423 0.007794507 -0.10570903 -0.03834849 0.028494202 0.060867656 0.094418034
0.09052313 -0.06543754 0.022340111 0.012315696 -0.071736865 0.03558644 0.13821967 -0.004487983
-0.27203158 -0.05894122 0.051287737 0.06817237 0.15751386 -0.021276746 -0.06029033 0.0019682797
-0.14325537 0.041325044 0.10494308 0.17251928 -0.08583499 -0.029225115 -0.3970644 -0.025641272
-0.021542626 -0.13057528 -0.27525404 0.08896476 -0.027952038 -0.020406505 0.0071656383 -0.099616125
0.09404064 -0.16868222 -0.08364424 -0.046799213 0.22244991 -0.12514532 0.092096545 0.09929489
0.033713404 0.1343572 0.075004876 -0.031296626 -0.15446274 0.121440694 0.008712698 0.040426083
0.040309288 0.117942624 0.022536328 0.108770534 -0.1374403 0.09734974 -0.1260243 -0.10716054
0.04789268 0.034489624 0.059886426 -0.01927071 0.028602766 0.025942823 0.14658216 -0.13186538
00000000: aba6 04be 2da2 7dbd 3dce 85bd 90f7 bf3d
00000010: 0b30 ea3d e57d 053c 10da 90bd fcd6 dbbd
00000020: e113 59bd cc53 94bd ad38 1d3d 993c 1ebe
00000030: 0bc0 4c3c 85a1 56bd 1741 e0bc b122 203c
00000040: 3c4c e5bd 8a0e 023d 8872 103e 78f6 3bbe
00000050: 2117 bb3d a0a2 27be 9721 843b 6368 1b3e
00000060: d680 9a3d 2cbd aabd 57c7 913d 6f14 023d
00000070: 084a 113d 41c1 aa3d 8eae 59bd 650e bb3d
00000080: 92e5 2cbd 5fd7 043e 9404 743c 01a0 49bd
00000090: be08 6a3d cf11 88bd 29f1 253e 2cfd 103d
000000a0: d524 c03c 2cbb 483d 94f6 14bd 86cf af3d
000000b0: 84dc 24bd b553 303d a2a0 88bd 0e6c afbd
000000c0: 9f25 4f3d d3f9 c2bc a648 1abd 4119 31bb
000000d0: b5a8 913d 9544 85be 3111 023e 93f5 1abe
000000e0: 427d 483b 5668 e3bc d3f1 ecba 9aff a33d
000000f0: 1a54 d6bd f861 a43c ca3e bcbd e55a b8bd
00000100: 6312 78bd c5f2 04be eed5 293c 3e31 433d
00000110: 3e17 093d c90e a6bd 1090 fa3b f5fd 01bd
00000120: 9e2a 34bd 020b 97bb 1bba 293e 1a73 8c3d
00000130: 4a71 873d 4cb8 a0bd bb05 9dbd 55e8 003e
00000140: c218 bf3d 0106 babd df1a 1abd 451a 47be
00000150: 16c5 cf3d e5b0 f53d f5e1 4abe 9667 c23d
00000160: aa57 103d 666b f7bc e1a6 92bb be17 e83d
00000170: a7b3 96bd 966f e2bd 44ff 153e bddd 8ebc
00000180: a02f 37bd 2bd9 86bc f4f5 a43d bd39 213d
00000190: afe0 df3d 117c 5fbc da07 30bd 27b8 193d
000001a0: e4eb 243b 9e0f 3c3e 2305 96bd 7639 593d
000001b0: a2ce 3b3c 2d1f 313d 5ddb 173d d222 8abd
000001c0: 4b41 89bd 0d74 33be d6a8 9d3d 1b12 b2bd
000001d0: ed43 5ebd 93fc 3cbd 0b7c 6dbd b7a6 1fbd
000001e0: fca9 203c 9dd7 73bd 954b 043d 65f1 e73c
000001f0: 8949 febd ee4c 09be e3f5 a5bc 796e c7bd
00000200: 205d 7fbd 1e2c d0bd 6a5d e3bd 32da 57be
00000210: 66a6 97bd 026e b93d 540a 09be 610f 39be
00000220: f14f c63d 3a45 19be 15ca 16be 81a9 7a3d
00000230: 4b98 f0bc 0e78 423d 593b 4e3e f6f1 22be
00000240: 207e 113e bcee 763d 2c91 b138 d969 bd3c
00000250: a0a4 4b3d 2d45 723d 886b acbd 6d07 093e
00000260: b9c4 843d d611 e2bc 599f 9abc 53d1 eebc
00000270: 6119 90bd 950e e0bd c9da 543e fa40 80bd
00000280: 2744 b03d c20c aebd 5361 fd3c a33e b83d
00000290: 3902 253e 9a05 853d 3478 8fbd cceb 8abd
000002a0: 5681 1bbd 99a8 dcbd ff61 133d ca5b 753e
000002b0: d695 67bd 1eac 3b3d 0d42 82bd 5601 a6bc
000002c0: fc59 be3b f7db 523d e27f e2bd ef11 e93d
000002d0: 5a9b 3a3d 411c 693d 0767 3ebe c207 9ebc
000002e0: 54d5 4cbe e661 2d3c 1069 ff3b fa7d d8bd
000002f0: 4e13 1dbd ac6c e93c 5d50 793d 3e5e c13d
00000300: 3164 b93d 1e04 86bd 9c02 b73c c6c7 493c
00000310: c7ea 92bd 16c3 113d 7589 0d3e ee0f 93bb
00000320: b947 8bbe 596c 71bd 1713 523d f59d 8b3d
00000330: 504b 213e 924c aebc fef2 76bd 41fe 003b
00000340: 89b1 12be 7344 293d 66ec d63d e5a8 303e
00000350: 41ca afbd 8269 efbc 064c cbbe a50d d2bc
00000360: 297a b0bc 87b5 05be 19ee 8cbe 2833 b63d
00000370: acfb e4bc 8b2b a7bc bbcd ea3b 8a03 ccbd
00000380: 6198 c03d 08bb 2cbe ac4d abbd 88b0 3fbd
00000390: e9c9 633e 1826 00be 1d9d bc3d 1f5b cb3d
000003a0: 1117 0a3d ef94 093e 289c 993d e430 00bd
000003b0: 7b2b 1ebe e6b5 f83d b4bf 0e3c d295 253d
000003c0: 5a1b 253d e78b f13d 1b9e b83c 16c3 de3d
000003d0: 26bd 0cbe 4d5f c73d 840c 01be fc76 dbbd
000003e0: 1d2b 443d fe44 0d3d 784b 753d 9cdd 9dbc
000003f0: 5950 ea3c 0b86 d43c a219 163e b807 07be
