experiment/digit_classifier/version_3/checkpoints/best.ckpt (torch, 446119 bytes, 16 tensors)

_problem._r1._cls_token f4 [1, 1, 128]
00000000: 537c 46bb f2fd 4a3b 1616 e93b 283a 8f3c
00000010: 20ad 82bc 996e ba3c 9b7c 953c d04d afbc
00000020: 2e8f f23a c5ab 9c3b 05da 483c a9a3 be3a
00000030: b4a5 0a3b c16a 173b 65d6 503a cc93 8ebb
00000040: 4b88 2abb b5dc d0bc 426f 9fba 1ad7 a53b
00000050: 8a02 4dbc db40 803c 61fb a83c 4ab4 833b
00000060: d1d3 bfbb 49f6 c4bc 0bb3 7a3b fd9a aa3b
00000070: bb5b dbbb 7ddc dcbc 80e1 ee3a 1e33 dbbc
00000080: e0c5 42bc 2943 ebbb 0c7c d6bb 26cc 22bc
00000090: ba7e 00bc d7d2 6cbb b9cd 3d3c a241 6cba
000000a0: 8c6e ff3b f931 6bbb 1d57 a53c bbfe cbbb
000000b0: 506b 973c 403e 7cbb f52a c43b 588f 0fbc
000000c0: 7ccd eeb7 ed4c 123c 38b5 cd3c 9359 1c3b
000000d0: 4e7c 4dbc 0807 8bbc 6dc8 64ba 76fa 16bc
000000e0: d505 40bb 7d56 8ebc 94b9 c5b9 6dd2 deba
000000f0: cb3a 5cbb 346d 833c 2fb6 02bb afcc 693c
00000100: 356a 9dbc f991 943c b39f a9bc 913b f93b
00000110: 51a3 00bb 38ef c03c 23f5 103c 7622 b4ba
00000120: 2839 c23b db50 803b 9253 b7bb 66c9 a43c
00000130: c8bd 6f3b a223 563c 749b e9b9 b930 6d3c
00000140: 6f83 cf3c 4c72 983c 328c 4abc 48d6 143b
00000150: ac0b a2bb 66b2 df3b e779 4c3b bda3 52bc
00000160: 9d58 86bc f747 c83b 5da2 053b 1303 1dbc
00000170: 39bf 873c b3c9 18bc d23a e1bb bee8 5c3c
00000180: 2813 5bbc 87c5 a4bc 7fad 823c 9964 413c
00000190: 43c4 b53c 7e76 513c e3f5 0bbc c95e 2fba
000001a0: 8231 acbb 4421 03bb afb1 2ebc bf70 07bb
000001b0: 95dc 713c 12e3 89bc bf38 95bc 3c0a e9bc
000001c0: 8f04 13bc b189 80ba 17d5 0cbc 72e7 3dbc
000001d0: 8751 55bc eea5 853b adb1 1cbc 9221 b03b
000001e0: 01e8 a03b 8fbb e33b 2d1b b7bb 6685 66bc
000001f0: 9df3 a1bb 05ad 9a3a 9ed4 f53b 40ab 8f3a
-0.0030286505 0.0030974117 0.0071132286 0.017483786 -0.015951693 0.022757815 0.018247893 -0.021399409
0.0018505806 0.0047812187 0.012259011 0.0014544624 0.0021155896 0.0023104402 0.00079665176 -0.004351115
-0.0026021178 -0.025495866 -0.0012163895 0.0050610425 -0.012512812 0.015655925 0.02062768 0.004019295
-0.005854108 -0.02404322 0.003825369 0.0052064643 -0.0066942847 -0.026960606 0.0018225163 -0.026757773
-0.011887997 -0.007179637 -0.0065455493 -0.009936368 -0.007842714 -0.0036136413 0.011584693 -0.00090124656
0.0077951606 -0.003588794 0.02018314 -0.0062254346 0.018483788 -0.0038489252 0.005986566 -0.008762203
-2.8467497e-05 0.008929473 0.025110826 0.0023857101 -0.012541844 -0.016971126 -0.00087273755 -0.009214988
-0.002930035 -0.017375225 -0.00037713035 -0.0016999968 -0.003360438 0.016043283 -0.0019945016 0.014269992
-0.019215683 0.018136011 -0.020706033 0.007605978 -0.0019628594 0.023551568 0.008847508 -0.001374318
0.0059272237 0.0039158887 -0.005594679 0.020115566 0.0036581624 0.013070019 -0.00044557045 0.014476948
0.025331227 0.018609188 -0.012362527 0.002271073 -0.004945239 0.0068266867 0.003120059 -0.012856421
-0.016399676 0.0061120945 0.0020390966 -0.0095832525 0.016570674 -0.009325433 -0.006873467 0.013483224
-0.013371266 -0.02011372 0.01595187 0.0118037695 0.022188311 0.012784598 -0.008542511 -0.00066898443
-0.005254925 -0.0020008842 -0.01066248 -0.0020666567 0.0147620635 -0.016831908 -0.018215535 -0.028447263
-0.008973255 -0.000980666 -0.008595726 -0.011590825 -0.013019926 0.0040786183 -0.009563846 0.0053750956
0.0049104695 0.006949849 -0.0055879564 -0.014069891 -0.004942371 0.0011800831 0.0075021526 0.0010961071

_problem._r1._pos_embed f4 [1, 17, 128]
00000000: 537c 46bb f2fd 4a3b 1616 e93b 283a 8f3c
00000010: 20ad 82bc 996e ba3c 9b7c 953c d04d afbc
00000020: 2e8f f23a c5ab 9c3b 05da 483c a9a3 be3a
00000030: b4a5 0a3b c16a 173b 65d6 503a cc93 8ebb
00000040: 4b88 2abb b5dc d0bc 426f 9fba 1ad7 a53b
00000050: 8a02 4dbc db40 803c 61fb a83c 4ab4 833b
00000060: d1d3 bfbb 49f6 c4bc 0bb3 7a3b fd9a aa3b
00000070: bb5b dbbb 7ddc dcbc 80e1 ee3a 1e33 dbbc
00000080: e0c5 42bc 2943 ebbb 0c7c d6bb 26cc 22bc
00000090: ba7e 00bc d7d2 6cbb b9cd 3d3c a241 6cba
000000a0: 8c6e ff3b f931 6bbb 1d57 a53c bbfe cbbb
000000b0: 506b 973c 403e 7cbb f52a c43b 588f 0fbc
000000c0: 7ccd eeb7 ed4c 123c 38b5 cd3c 9359 1c3b
000000d0: 4e7c 4dbc 0807 8bbc 6dc8 64ba 76fa 16bc
000000e0: d505 40bb 7d56 8ebc 94b9 c5b9 6dd2 deba
000000f0: cb3a 5cbb 346d 833c 2fb6 02bb afcc 693c
00000100: 356a 9dbc f991 943c b39f a9bc 913b f93b
00000110: 51a3 00bb 38ef c03c 23f5 103c 7622 b4ba
00000120: 2839 c23b db50 803b 9253 b7bb 66c9 a43c
00000130: c8bd 6f3b a223 563c 749b e9b9 b930 6d3c
00000140: 6f83 cf3c 4c72 983c 328c 4abc 48d6 143b
00000150: ac0b a2bb 66b2 df3b e779 4c3b bda3 52bc
00000160: 9d58 86bc f747 c83b 5da2 053b 1303 1dbc
00000170: 39bf 873c b3c9 18bc d23a e1bb bee8 5c3c
00000180: 2813 5bbc 87c5 a4bc 7fad 823c 9964 413c
00000190: 43c4 b53c 7e76 513c e3f5 0bbc c95e 2fba
000001a0: 8231 acbb 4421 03bb afb1 2ebc bf70 07bb
000001b0: 95dc 713c 12e3 89bc bf38 95bc 3c0a e9bc
000001c0: 8f04 13bc b189 80ba 17d5 0cbc 72e7 3dbc
000001d0: 8751 55bc eea5 853b adb1 1cbc 9221 b03b
000001e0: 01e8 a03b 8fbb e33b 2d1b b7bb 6685 66bc
000001f0: 9df3 a1bb 05ad 9a3a 9ed4 f53b 40ab 8f3a
00000200: 90e3 313e e838 7cbd 80af 8a3d 4dfd a33e
00000210: dd18 213e ff23 393e 8044 8cbc 58b2 21bc
00000220: 11ad 08bc e2eb e83d 064c f03d 916e ef3d
00000230: 22d3 48be 6cdc de3b 70aa babd 37ce 703c
00000240: e00d 91bc e859 80bd e24b 8d3e 00aa 58be
00000250: 82f7 77bd 3153 753e da4e 233e 27e1 883d
00000260: a4b2 36bd 515a 53bd 72bd 7e3e 9dd3 5c3e
00000270: a132 08be 21c8 12be 0100 8e3d 8583 64be
00000280: 25c3 1c3d 6914 e33d a429 d93d 5367 643e
00000290: 3f8d eabc e45f 873d 738d 5f3e 03d1 413e
000002a0: 4c74 48bd 876e 9a3d 7fdb dc3c 4efd 52be
000002b0: 0ae7 58bd 13a3 173e cff6 a9bd f4e2 023e
000002c0: 8ca2 8cbd 4e82 0a3e 3624 eb3a c918 30be
000002d0: 2ea5 8f3d 79b5 343c 5b16 1dbe 6752 6abe
000002e0: a390 ea3d b949 303e 22ec 9cbe 1417 98bd
000002f0: ae62 9fbd 106b 853c f5b7 863d f3cc 1f3e
00000300: bfcf 1ebe 6d4b 0d3e b91d 30ba dad6 17be
00000310: e293 0b3e e820 adbd c832 563e 711d 7a3c
00000320: c999 fa3d d84a 46be 879c a2bd 090c 27bd
00000330: 7bf1 3ebd e115 803c 44b0 27be ce74 dfbd
00000340: b97f ecbd b3e0 6dbd fabe 013e 178f 083e
00000350: 1be9 51be a64e c9bd 9e46 b1bd 5f17 313e
00000360: f9aa d03d a237 c7be 491e 073e 0bb7 99bd
00000370: 9e77 ec3a c7ef cf3d 8be8 15be 4213 683e
00000380: 340a bebd b93b 223d e634 abbd 486d 223e
00000390: 1bd2 903c fa3a a33d ef04 60bd 5c51 3b3d
000003a0: e986 15be c937 6cbe 7957 3f3e a496 7e3d
000003b0: ff1c 7ebd 5391 6e3c fb2c 95bd b23c 33be
000003c0: 3ed0 e9bd 036a d23b be79 123c 17d8 623c
000003d0: e3a9 d63d 772f 13be b703 203b 6fa5 1dbd
000003e0: 4a13 1fbe d77c 5ebd ce60 863d 2466 90bc
000003f0: e6ce 9dbd 3e98 173e 4ddc 093e d790 7abe
-0.0030286505 0.0030974117 0.0071132286 0.017483786 -0.015951693 0.022757815 0.018247893 -0.021399409
0.0018505806 0.0047812187 0.012259011 0.0014544624 0.0021155896 0.0023104402 0.00079665176 -0.004351115
-0.0026021178 -0.025495866 -0.0012163895 0.0050610425 -0.012512812 0.015655925 0.02062768 0.004019295
-0.005854108 -0.02404322 0.003825369 0.0052064643 -0.0066942847 -0.026960606 0.0018225163 -0.026757773
-0.011887997 -0.007179637 -0.0065455493 -0.009936368 -0.007842714 -0.0036136413 0.011584693 -0.00090124656
0.0077951606 -0.003588794 0.02018314 -0.0062254346 0.018483788 -0.0038489252 0.005986566 -0.008762203
-2.8467497e-05 0.008929473 0.025110826 0.0023857101 -0.012541844 -0.016971126 -0.00087273755 -0.009214988
-0.002930035 -0.017375225 -0.00037713035 -0.0016999968 -0.003360438 0.016043283 -0.0019945016 0.014269992
-0.019215683 0.018136011 -0.020706033 0.007605978 -0.0019628594 0.023551568 0.008847508 -0.001374318
0.0059272237 0.0039158887 -0.005594679 0.020115566 0.0036581624 0.013070019 -0.00044557045 0.014476948
0.025331227 0.018609188 -0.012362527 0.002271073 -0.004945239 0.0068266867 0.003120059 -0.012856421
-0.016399676 0.0061120945 0.0020390966 -0.0095832525 0.016570674 -0.009325433 -0.006873467 0.013483224
-0.013371266 -0.02011372 0.01595187 0.0118037695 0.022188311 0.012784598 -0.008542511 -0.00066898443
-0.005254925 -0.0020008842 -0.01066248 -0.0020666567 0.0147620635 -0.016831908 -0.018215535 -0.028447263
-0.008973255 -0.000980666 -0.008595726 -0.011590825 -0.013019926 0.0040786183 -0.009563846 0.0053750956
0.0049104695 0.006949849 -0.0055879564 -0.014069891 -0.004942371 0.0011800831 0.0075021526 0.0010961071
0.17371964 -0.061577708 0.06771755 0.3202919 0.15732141 0.18080138 -0.017122507 -0.009869181
-0.0083420435 0.11373116 0.1173325 0.11691011 -0.19611791 0.0068011787 -0.091145396 0.014697603
-0.017706811 -0.06267148 0.27596956 -0.211586 -0.060538776 0.23957516 0.15948048 0.066835694
-0.04460396 -0.051599804 0.24876955 0.21565099 -0.13300563 -0.14334156 0.069335945 -0.22315796
0.03827204 0.11087877 0.106036454 0.2230504 -0.028631805 0.066100866 0.21831302 0.18927388
-0.048939034 0.07540613 0.026960133 -0.2060444 -0.05295471 0.14808302 -0.08299028 0.12781888
-0.06866941 0.1352627 0.0017939869 -0.17196955 0.070139274 0.011029595 -0.15340559 -0.22882996
0.114533685 0.17215623 -0.30648905 -0.07426277 -0.077824935 0.016286403 0.06578056 0.15605526
-0.15508936 0.13798304 -0.0006718296 -0.14828053 0.13630632 -0.08453542 0.20917809 0.015265808
0.122363634 -0.19364488 -0.079400115 -0.040782962 -0.046617012 0.015635433 -0.16375834 -0.109109506
-0.11547799 -0.058075618 0.12670508 0.13335834 -0.20499079 -0.09829454 -0.08656047 0.17294072
0.101888604 -0.38909632 0.13195147 -0.07505616 0.001804102 0.10153156 -0.1463949 0.22663596
-0.0927929 0.039607737 -0.08359699 0.15862 0.017678311 0.07970233 -0.054692205 0.045731887
-0.14602245 -0.23068155 0.18685712 0.06215538 -0.06203937 0.014561015 -0.0728397 -0.17503622
-0.11416672 0.006421329 0.008940158 0.013845465 0.10481622 -0.14373575 0.0024416277 -0.038487848
-0.15534702 -0.054318275 0.06561433 -0.01762683 -0.07705478 0.1480417 0.13462944 -0.24469315

_problem._r1._patch_embedding.0.weight f4 [128, 1, 7, 7]
00000000: d223 b13d 6bf3 1d3c 8f52 193e 61e2 d43d
00000010: 6d12 1b3d 950b d23d 4079 48bd 85c5 cc3c
00000020: ee03 4dbd 6f7b 5f3d e766 063d 0050 5abd
00000030: 84f1 f23d 0019 8c3d 870a 41be e2da 4fbe
00000040: 65a0 fa3c cf32 b93a d103 f7bd e4a2 f6bd
00000050: a39a 5fbe aec1 f13d d735 863d fc94 683e
00000060: c287 253e 9330 7c3e c1b0 593d 2576 af3d
00000070: 174f 3bbd 4607 743e f7cc 023e fd64 883e
00000080: 378c 413d 061f 13bd deb1 063e b5bf d13d
00000090: 23e9 fd3b 5358 0b3d 5e00 c03c 1a10 463c
000000a0: 70c2 aebd 2268 ad3d 021e 9cbb 6bc9 883d
000000b0: 8404 de3c f41a 97bd cdaf 1a3e bd52 2ebd
000000c0: 6e60 a53d cc32 6f3d 9b97 0bbe 7506 ce3d
000000d0: a3ef bfbd 8115 eabc acbe 2dbc 11d1 bbbe
000000e0: 431e 043e 76e0 0d3e 59cf f83d 0af5 9dbd
000000f0: 1e07 05be 2e0e 1b3d 5da1 483c 419b 2b3e
00000100: 7992 543d aecc d83d 45f7 15be fdf8 32be
00000110: 517c 8c3c 8019 063e 0fd6 0a3e b68e bebc
00000120: 277c f93d 05cc 233d d183 f5bc 7e76 0a3d
00000130: d183 2a3e 76d3 c3bd 3ade 38be 831d 61bd
00000140: 258a f2bb 7f63 94bd 8bd2 c0bc 064d 0bbd
00000150: e7d6 0e3e f041 31bc 009c 073e 4d5b 223e
00000160: edf9 0d3e fd56 c63a c13f 7f3d bf06 4f3d
00000170: 7f02 07bd f18d 07be 746d 443c 2527 963d
00000180: dc40 723d 80ce 073e eea7 953d 29ad 973d
00000190: f43e 26bd b213 0f3c b7a2 8fbd c58a f63d
000001a0: 696c 89be 9422 2f3d d1ed ce3d 5234 623d
000001b0: 9996 13bd b3e7 b53c 25e9 bb3d 9bbd 34bd
000001c0: 56d6 153e aee1 40be c021 b6bd 8b16 bfbc
000001d0: 3e42 3dbe ed8c 47bc 3445 f6bb 5778 df3d
000001e0: 08c2 4e3e 3eb4 a73c 038c ff3d 0772 0ebd
000001f0: bf99 cd3d 1441 513d ac80 8bbd 562f 90bd
00000200: c98d fb3d bc69 19be 5359 d33d e105 923c
00000210: ca60 c23c 4aab 62bc 8529 34be 3615 4a3d
00000220: 0ffe e2bd 536a 343a 70df 61bd 9989 e03d
00000230: 9781 33be ec4c d3bc fde7 b6bc 2510 90bd
00000240: 07ba fa3c 5628 0cbe 0816 063e ea11 93bd
00000250: 96ab e3bd 3e3a d73c a2ac 883d 55b1 683d
00000260: 79e9 25bd 2e1c 0fbb 7c8f a63d 2c8a 343e
00000270: 5e69 4bbc a892 96bc f1ae 0dbe 4d85 163d
00000280: 5737 cd3d 1bd3 27bc 1229 42bc a37f ec3b
00000290: 68b4 8c3c 06bf 13bd 9dd3 4a3d c8c9 74bd
000002a0: b452 c03d 10e1 bcba d05c 2d3e 54a2 123e
000002b0: 006b 013e 8e4e 693d 6449 a3bd 6981 5e3e
000002c0: 8afa b13d 0676 483e 2a60 d63d 3637 0e3e
000002d0: 2fc3 0c3e ca87 ca3d 3120 9f3e 4f73 e03d
000002e0: 7e68 1a3e 3ee2 003e 714b 843d 911e 303c
000002f0: 8114 d83d 76f1 423e 6899 7c3d 5cc5 1a3e
00000300: 1a9e 063d 213f 863d 94ca 513d e978 2b3d
00000310: b20b 933c 2cb1 af3d 6563 fabd 9e80 5e3d
00000320: a406 9abd c9d5 04be 677c 36be 04f6 06be
00000330: ed07 8d3b 2fe2 80bd f4e9 f43d c088 423d
00000340: 7579 103d df88 963d 4ea1 313b 421b 2c3e
00000350: 4616 323e a7fe acbc d51f 8c3d b739 333e
00000360: 1a68 e93d 469d 60bd 65c9 febd 6c1a 0dbe
00000370: 95b4 39be 2ea1 5c3c c47c e4bc 5405 a0bd
00000380: 588f eabd ae71 143d 3c5a 4abe 1a79 8fbe
00000390: 14ce c8bd dcdc a7bd 8bbc b8bd 709f 2b3d
000003a0: 8903 2d3d 7d92 fb3d e250 643d 2006 7e3d
000003b0: 1fd8 993b 5788 5abd a394 ee3d d9bc 8bbd
000003c0: e4bc 17be ccc9 a9bd 8d99 9b3c 0597 aebb
000003d0: d99f f1bb e0de 3f3d 2598 11be 73af b03d
000003e0: c4dd 123e 4771 06be 0f4f b5bd fe2d 5bbe
000003f0: b8be 243e c0a5 be3d 35e8 a13c 758f 9dbd
0.0864941 0.009640555 0.149729 0.10394741 0.03785937 0.10256115 -0.048943758 0.024996528
-0.050052576 0.054561075 0.03281298 -0.05329895 0.11862472 0.06840706 -0.18851672 -0.20298341
0.03059406 0.0014129522 -0.12061275 -0.12042788 -0.21836333 0.118045196 0.06553238 0.22713083
0.16165069 0.24627905 0.05314708 0.08567456 -0.045729723 0.238309 0.127735 0.26639548
0.04725286 -0.035918258 0.13153788 0.10241643 0.0077487393 0.03401978 0.023437675 0.0120888
-0.0853318 0.084671274 -0.0047643194 0.066790424 0.027101763 -0.07378188 0.15106125 -0.042559374
0.08075033 0.058398053 -0.13632052 0.10059825 -0.09371879 -0.028574707 -0.010604542 -0.36682943
0.12902169 0.13855156 0.121489234 -0.07712753 -0.12990996 0.03785532 0.012245503 0.16758443
0.0518975 0.105859146 -0.14645107 -0.17477794 0.017149122 0.13095665 0.1355822 -0.02326141
0.12181883 0.03998949 -0.029970082 0.03380441 0.16651846 -0.09561817 -0.18053523 -0.054959785
-0.007401722 -0.0724554 -0.023537895 -0.034009002 0.13949166 -0.010818943 0.13243103 0.15855141
0.1386487 0.0015132126 0.06231666 0.050543543 -0.032961365 -0.1323774 0.011988986 0.07331685
0.059143886 0.13262367 0.07307421 0.074060746 -0.04058738 0.008732723 -0.07013457 0.12038187
-0.26840523 0.042757586 0.10103954 0.055225678 -0.036032293 0.02220521 0.09175328 -0.044126134
0.14632544 -0.1883609 -0.08893156 -0.023326179 -0.184823 -0.012179595 -0.007515574 0.10911625
0.20191205 0.020471688 0.12477877 -0.034776714 0.1003909 0.051087454 -0.068116516 -0.070402786
0.12282903 -0.1498174 0.103197716 0.017825069 0.023727793 -0.013834784 -0.17593963 0.049336635
-0.11083614 0.00068822986 -0.055144727 0.10963745 -0.17529903 -0.025793515 -0.022327418 -0.07034329
0.030606283 -0.13687262 0.13094342 -0.07181151 -0.11116712 0.02627289 0.06673552 0.056809742
-0.04050586 -0.0021836865 0.08132836 0.17630833 -0.012415258 -0.018380478 -0.13836266 0.03674822
0.10020321 -0.010243203 -0.011850612 0.007217364 0.017175868 -0.036070846 0.049518216 -0.059762746
0.09390774 -0.0014410336 0.16929936 0.14319736 0.12638474 0.05695968 -0.079729825 0.21729054
0.08690365 0.19576272 0.104675606 0.13888249 0.13746332 0.09889181 0.31079248 0.10959493
0.15078923 0.12586305 0.06459702 0.010749475 0.10550786 0.19037423 0.061669737 0.15114349
0.03286562 0.0655501 0.051218584 0.041863356 0.017949913 0.08578715 -0.12225989 0.054321878
-0.07520798 -0.12972178 -0.17820893 -0.13179785 0.0043039233 -0.06293141 0.119586855 0.047493696
0.03527208 0.07350325 0.0027104202 0.16807273 0.17391309 -0.021117521 0.06842009 0.17502485
0.11396809 -0.054837488 -0.12440757 -0.1377961 -0.18135293 0.013466163 -0.027891524 -0.07813516
-0.11453122 0.036241226 -0.19760984 -0.2802208 -0.09804931 -0.081964225 -0.09020337 0.0419001
0.0422397 0.122838 0.0557412 0.06201756 0.004694953 -0.05335268 0.11649444 -0.06823129
-0.1481815 -0.08290443 0.018994117 -0.0053280615 -0.0073737917 0.04684341 -0.14218195 0.08627214
0.1434241 -0.1312915 -0.0885297 -0.21404263 0.16088378 0.09308958 0.019764045 -0.07693378

_problem._r1._patch_embedding.0.bias f4 [128]
00000000: 86c2 9b3e 304b 06be f487 f8bc 6e24 203f
00000010: eb31 afbc b374 a63d 9236 7c3c 031e 09bc
00000020: 2f08 69bd 0376 9c3e 84d1 a93d 7b91 913e
00000030: 87e8 aebe e319 293d 2889 34be bf4a bd3d
00000040: 0cbb b1bd f691 943e 037c a03e ca5e ffbe
00000050: f43b d53d 13a4 913e 396c b33e c88f 633e
00000060: ed7f 46be 92a2 c03d 096b 963e a15d c43d
00000070: 0136 3cbe 715c a6be c8d6 ed3d f07f babe
00000080: 40c9 6a3e f44b af3d 1b1e 003e 573d 8a3e
00000090: 624c 34be 458c 2e3e 31e7 933e ca25 c13e
000000a0: fe29 8dbe 5d9e 50bd 923d 683e 59e1 eebe
000000b0: cb0f d9bd b44d 0e3e 6b0d 1fbe 4567 7a3e
000000c0: 660c 0abe b10b 823e a4fa 253d ede2 debe
000000d0: 148c 913e 44e3 8d3d a8f6 a3bc 8aa8 a1be
000000e0: db76 c6bc edf6 013e 47b4 d6be 72a3 c9bc
000000f0: 8a9d febd 3094 363e e574 9b3b 450b d03e
00000100: 9559 3cbe 8171 5f3e f153 abbc 0410 28be
00000110: 3569 043e 797f 81be 046e bb3e 3687 913d
00000120: cd35 e53d 2623 a8be 245c 3ebe 5c5d c6bc
00000130: 3961 cbbd 76c0 c9bd cb92 0dbe a0aa 52bd
00000140: 2a71 f7bd 100a 3ebc 4a98 8b3e c2f8 9c3e
00000150: 2011 33be 57a0 ee3c f749 26bd 497e de3e
00000160: 623e 533e 8a64 0fbf a394 863e e48f 67be
00000170: 871f 78be b69f 843d 92b7 83bd ab96 ba3e
00000180: 6349 873c 64ed 0f3e 4cb6 c9bd c664 613e
00000190: 769c f0bc f23e 683e 058d 50bd 3427 2fbd
000001a0: c8ac 86be 0250 a6be 5871 64bd 781e e9bd
000001b0: b6e9 813e 7adb 16bc 6682 79bd 586c d7be
000001c0: f525 53bd 6ce7 ee3d 13ae 62be b5bf a73d
000001d0: 0618 473e 787f cdbd bbf3 b2bd 777c aebc
000001e0: 75f5 67be 050e de3d 26f4 ba3c bb5d 8cbe
000001f0: 7946 96be 7c21 533e 17dd 223e 2ce7 f3be
0.30421847 -0.1311462 -0.030338265 0.6255559 -0.021386107 0.08127727 0.01539387 -0.008368972
-0.05689257 0.30558786 0.08291915 0.28431305 -0.3416178 0.041284453 -0.17630446 0.09242772
-0.086782545 0.2901761 0.31344613 -0.49877006 0.10411826 0.2844549 0.35043505 0.22222817
-0.19384737 0.09406008 0.29378536 0.09588171 -0.18379976 -0.32492402 0.11613232 -0.36425734
0.22928333 0.08559409 0.12511484 0.26999924 -0.17607263 0.17045696 0.28887323 0.37724143
-0.275711 -0.050932277 0.22679737 -0.46656302 -0.105987154 0.13896829 -0.15532462 0.24453457
-0.13481292 0.25399545 0.040522233 -0.43532506 0.28427184 0.06928113 -0.020015076 -0.31573898
-0.024226597 0.12691851 -0.41934416 -0.02461407 -0.12432392 0.17829967 0.0047441595 0.40633598
-0.18393548 0.21820642 -0.02091405 -0.1641236 0.12930758 -0.25292566 0.36607373 0.071058676
0.11191902 -0.32839316 -0.18589836 -0.02421444 -0.09930653 -0.09851162 -0.13825528 -0.051432252
-0.12082131 -0.011599079 0.27264625 0.30658537 -0.17487001 0.02912919 -0.040597882 0.43455723
0.20629266 -0.56012785 0.26285276 -0.22613484 -0.24230777 0.06475775 -0.06431498 0.36443076
0.016514486 0.14055401 -0.098492235 0.22011098 -0.029371481 0.22680262 -0.050915737 -0.042761996
-0.26303697 -0.32482916 -0.055772156 -0.113827646 0.2537362 -0.009207601 -0.060915373 -0.42074847
-0.05154987 0.11665234 -0.22136717 0.08190862 0.19442758 -0.10034078 -0.08737894 -0.021299584
-0.22652228 0.10842518 0.022821497 -0.2741526 -0.2935064 0.20618242 0.15904652 -0.47637308

_problem._r1._attn.in_proj_weight f4 [384, 128]
00000000: 847b b53c 02ce 473d 9fc2 8dbc b2d7 ff3b
00000010: 0ee0 7fbd 34a0 b6bd 6e24 09bd c537 8bbd
00000020: c740 abbd 651a a2bd deef a53c 2df6 edbc
00000030: defd 723d 67ba ebbc 32cc 1dbb 2570 acbd
00000040: f94d e0bc 1e82 713d f393 0dbb 12ba c93c
00000050: 90c8 633d c16f 103c 2a69 84bd 9891 9abd
00000060: 7492 4c3d a274 b6bb f86c 06bd 2cbc c53b
00000070: 4bce 8abc 2570 bf3d d9c3 86bd e507 bdbd
00000080: 27de 33bc c3cd e7bc f9a4 153c 775f 37bd
00000090: 3d09 cbbd 50c8 d03d 17bd b5bd 44a0 52bb
000000a0: 5adb 393d cb75 6c3d a1e0 cebd ae7a 393d
000000b0: b6ff 93bd 4f60 c1bd 5b33 91bd 3cad 56bd
000000c0: 90f1 cebd 4153 6fbb ecdd b73d 33a6 90bd
000000d0: f92d af3d 0434 a7bc d8c7 b6bd f9cc abbd
000000e0: 21a4 15bd 8f3e abbc 7d94 8cbd 1520 38bd
000000f0: 5efb bd3d 7943 86bd 719e 8b3d 9a94 303d
00000100: 557b 803d e65b 9fbc 7326 d23d 16ee 0a3c
00000110: e68a 59bc 0e1e a6bd 59f0 08bd 646c cebd
00000120: 95ce f7bc 1147 4fbd c082 9bbd 769b cf3d
00000130: 34ad deb9 0505 e03c 052f 04bd a212 953d
00000140: 3500 a03c de4c 873d 26de 39bd 3ec7 f2bc
00000150: 4fd8 8fbc 8280 1bbd 6df7 80bd f98f 23bd
00000160: 7794 833d 789f 2cbb 1b02 d93d 6f54 953b
00000170: 266a e23d fa45 8c3d 5803 d5bd 397a a1bd
00000180: aa65 3fbd b49c c1bd e46c 9fbd 9d85 c83c
00000190: 40d3 803d 9dc8 483d d0d1 84bd dfe1 cfbc
000001a0: 09b1 603d 8a41 0b3d 73e5 0e3d 0c67 81bd
000001b0: 8b9f 493d 9cca d93c 3665 90bd 5f03 4cbd
000001c0: 1a00 223c 9b9e a3bd 0a65 493d b974 ccbd
000001d0: d876 9c3d 01a0 843c 0eb9 2ebd 0661 bb3c
000001e0: f129 603d dd41 36bd cfc8 babd 2ef2 88bd
000001f0: c7f4 8bbd 09f8 4e3d 07d5 19bd 1b5c bf3d
00000200: de81 893d ffc3 3bbb 8dd1 35bd 217b 4abd
00000210: bfa5 2abc 3e99 b1bc 517a b53d a766 b8bd
00000220: aa99 a6bd 1445 c2bd 3799 683b b692 743d
00000230: 84c2 593d 7896 843d 376a c03d 1c36 cebd
00000240: 0324 a23d 99b5 b4bd 7adb 7dbd e7a7 c4bd
00000250: b72d 743c 8875 a53d f069 193c 61ff 84bb
00000260: a19e e4bc 4718 83bd a82e be3d 070d c53d
00000270: 64a7 a93d 7c60 c23d 25da 0abd 89dc 4a3d
00000280: e287 0e3c 9701 9a3d 57eb afbd a03a ce3c
00000290: 4348 e03d b1c6 51bb db10 2fbc 83ca 573b
000002a0: aff5 2ebd b670 11ba ee0c c3bb bed0 703c
000002b0: e05d 123c 4db6 01bd 6060 a83d 6871 a3bd
000002c0: af1f 183d d1f2 ccbd bedf 65bd d31b 21bc
000002d0: 12b8 cebd 6653 533d 01b8 473d 6b68 133d
000002e0: 2150 bcbc 9b8d 103c 1ebc 933d 024e e6bd
000002f0: 49b1 003d b400 8ebd d725 ae3d 04af 07bd
00000300: ec0e b6bd 46b3 f13c 243a acbd 2235 90bd
00000310: 526e 66bd f693 71bb 7281 fcbc aa0c 953d
00000320: d498 983d b7f7 6a3d c9da 623d fe1c eb3d
00000330: e995 8a3d e5fb d03d 0d63 5f3d d7db 763c
00000340: 6931 f93c 1cbf 103d ac12 cf3d 94a8 213d
00000350: 2e5e 4dbd 2c99 98bd d272 443c 3d3b adbc
00000360: 52d1 9e3d 2de3 923d c58f c3bd be71 9fbd
00000370: 257e da3d 2980 afbd 8ec7 213d 55f6 793c
00000380: 4315 8e3c ed2e d5bd 2359 4c3d b48e 4d3c
00000390: a891 1bbd dda9 c4bd aea3 c03c fe32 7d3d
000003a0: d075 5cbd 900f 773c 7507 853d 9913 50bd
000003b0: 8e65 013d 4cd2 97bc f5c9 b6bd 3283 00bd
000003c0: 4fd3 ab3d 575d a9bd 1d96 5f3d 1dee 6fbd
000003d0: fe36 083d a180 b23d 1612 21bd 6b8c 80bd
000003e0: ccd9 28bd 050c 883d b2fc 1c3d 28ab 8b3c
000003f0: 61c8 c6bc 1c6b d93d 2418 c8bd aa9b 4dbc
0.022153623 0.04878045 -0.017304717 0.0078076953 -0.062469535 -0.08917275 -0.033482008 -0.067977466
-0.08361965 -0.079151906 0.02025598 -0.02904805 0.059324138 -0.028775407 -0.0024078009 -0.08419827
-0.02738093 0.05896198 -0.0021603077 0.024624858 0.055611193 0.008815707 -0.06465371 -0.07547301
0.049944356 -0.005568103 -0.032818764 0.0060343947 -0.016944071 0.09347562 -0.06580324 -0.092300214
-0.010978258 -0.028296357 0.009133571 -0.044768777 -0.099138714 0.101944566 -0.08873957 -0.0032138983
0.045375206 0.057729524 -0.10101438 0.045283012 -0.07226507 -0.094421975 -0.070898734 -0.052411303
-0.10104668 -0.003651813 0.08977875 -0.0706295 0.085536905 -0.020410545 -0.08924836 -0.08388705
-0.03653348 -0.020903854 -0.068642594 -0.04495247 0.0927646 -0.06555838 0.0681733 0.043110467
0.06273524 -0.019453 0.1026124 0.008479616 -0.013277745 -0.08111201 -0.03343234 -0.100792676
-0.030249873 -0.050604884 -0.07593298 0.10137074 -0.00042472186 0.027346143 -0.032271404 0.072789446
0.019531349 0.06606458 -0.045377873 -0.029636022 -0.017559199 -0.03796435 -0.06297193 -0.039932225
0.06424802 -0.0026340168 0.10596105 0.0045571844 0.110554025 0.068492845 -0.104010284 -0.0788464
-0.046727814 -0.09453717 -0.07784441 0.024477774 0.06290293 0.049019445 -0.06485331 -0.025376258
0.054856334 0.03399805 0.03488679 -0.06318483 0.049224418 0.02658587 -0.070505545 -0.049807902
0.0098877195 -0.07989236 0.049168624 -0.099832006 0.07639855 0.016189577 -0.04265695 0.022873413
0.0547275 -0.044496406 -0.091203324 -0.06686817 -0.06833797 0.050529514 -0.037556674 0.093437396
0.06714223 -0.0028650758 -0.044389296 -0.04943383 -0.0104154935 -0.021679517 0.08861221 -0.090039544
-0.08134778 -0.09485832 0.0035491714 0.059710227 0.05316402 0.06474012 0.09395259 -0.10068914
0.07917025 -0.088236995 -0.061976887 -0.09602337 0.014903477 0.08079058 0.009363636 -0.004058764
-0.027907671 -0.06401115 0.09286243 0.096216254 0.0828388 0.09491059 -0.033899445 0.049526725
0.008699389 0.075198345 -0.085898094 0.025174439 0.10951283 -0.0032009298 -0.010685171 0.0032927103
-0.04271477 -0.0005548106 -0.005952469 0.0146982055 0.008933514 -0.031667996 0.08221507 -0.07980615
0.03713959 -0.10007251 -0.05612158 -0.009833294 -0.100937024 0.051593207 0.048759464 0.035988253
-0.022987427 0.008822824 0.07213615 -0.112453476 0.031419072 -0.06933728 0.08503311 -0.033125892
-0.08889565 0.02950443 -0.08409527 -0.07041384 -0.056257553 -0.0036861873 -0.030823443 0.07277806
0.07451025 0.057365146 0.05538443 0.11480139 0.06766874 0.10204295 0.05453782 0.015067062
0.030419068 0.035338506 0.10110983 0.03946741 -0.050138645 -0.0745109 0.011990266 -0.021146411
0.077547684 0.071722366 -0.09548906 -0.077853665 0.106685914 -0.085693665 0.03949695 0.015256484
0.017344123 -0.10409341 0.049889695 0.01254623 -0.037980705 -0.09602711 0.023515549 0.061816208
-0.053823292 0.015079394 0.06495563 -0.05079994 0.03159099 -0.018532895 -0.08925239 -0.031375118
0.08389913 -0.08269756 0.05458652 -0.058576692 0.03325557 0.0871594 -0.03932389 -0.062767826
-0.041223332 0.066429175 0.038326927 0.017049387 -0.02426547 0.106161326 -0.097702295 -0.01254932

_problem._r1._attn.in_proj_bias f4 [384]
00000000: a9af 9c3c 8085 863d dcd5 323e 2991 d33d
00000010: 1a29 4fbe 8a44 b0bb 7478 bfbd e0d9 efbd
00000020: abc3 643d 1832 0439 8751 f73d 9421 de3d
00000030: 697d 07bd c865 d43d 3801 acbd 2d02 983d
00000040: ff7a 293e b7fb 893b 454a b5bb 8513 a0bc
00000050: 83a7 94bc 6fb0 b9bd 66e5 8f3d 38c2 79bd
00000060: 14e6 443d f4f0 023d b18b d43d 4e2c fb3d
00000070: 043e 1d3e 26aa 833c 7726 9c3d 149b 42be
00000080: 9613 523d ef89 433c 79c2 ec3b ff40 583c
00000090: c42f 363c af89 b7bd de3c 0ebd ff57 c4bd
000000a0: fbba 4abd 03c3 2b3c dbea 003d f0f2 8f3d
000000b0: ab12 adbc c567 b9bd 82dc 233d 76a6 81bd
000000c0: 92eb 80bb 358a f33d 5314 0bbe b18b 36be
000000d0: da4d 273e b615 19be c8f8 5bbe 2fbd 113d
000000e0: f1b6 843d 85c9 8fbd ef09 493c b04f b43d
000000f0: 67f1 293d d51d b3bd 4e8d ce3c 48f3 70bc
00000100: 1649 933d 2a7b 25bd c54c d83c b2c7 31bd
00000110: d596 9e3d d5d2 eebc 358d b63d 5add da3d
00000120: 4e3d d7bd f896 ea3c 7948 ecbc a5b4 f0bc
00000130: 51ce c4bd 6163 4bbd 03f8 78be 6fa2 f83d
00000140: fe0e 59bc 13c7 07be 7539 0dbd 25fb e83c
00000150: fdb5 203d 6d76 873c 4c0f d4bc 6dd9 c6bd
00000160: 4e37 753c 8605 833d 60b6 9fbd 0053 283d
00000170: c896 30bd 46a0 bbbc 621d afbd c01c 00be
00000180: 4f8b fe3d ad86 87bc c5ab 69be f735 b6bd
00000190: 9a22 893d 5285 f23d d71a 0b3d 9cc5 0b3d
000001a0: 8c32 743d fbbb 83bd e867 063d 9149 163d
000001b0: 9a57 663d 5e17 043d a96c 6bbc deed ccbd
000001c0: ee4b ca3d 8145 17be 8152 5c3d 2b45 3bbd
000001d0: c62e 04bc 9184 65bc 896b 43bc 099c b03d
000001e0: 8308 0cbe 2721 1e3d 65b3 c23b e903 f83d
000001f0: 9ee1 1ebd 0a93 09bd dd1c 11bd 2058 fbbc
00000200: d9c9 82b0 af5c b7b0 0e92 94b1 f2c5 af2f
00000210: 915d 5831 55b8 17af cc97 e0b0 da91 5e31
00000220: 9667 b4af 6b3d 9faf ce78 36b1 292d 3b31
00000230: 0169 b62e 8f4a 3431 6776 a730 f8c0 51b0
00000240: 6f41 d12d dcb7 8cb0 9f7f 78b0 711c 062f
00000250: eca3 84af 1ec1 e5b1 1867 3c30 b9f5 f1b0
00000260: 7129 c2b0 6310 cd2e 0906 3030 11e8 8f30
00000270: bee7 90b1 4395 eeb0 c660 3431 cd9b fcb1
00000280: 3d0c 71b0 483b 2530 03b8 abaf 7181 012f
00000290: 442e 3030 9a7a 8e31 732e ddae fb66 d630
000002a0: 0170 22b1 1db0 8230 2f01 fbaf 07eb fb30
000002b0: a7d7 942f c85e 95b0 da92 63b0 7554 99b0
000002c0: c181 8cb0 ec9e 9db1 b091 aeaf bc98 0531
000002d0: 12d4 ea2e 06ca f6b1 4f86 afb1 b62b 0530
000002e0: db8c bc30 71cd 7c30 d5da 0db0 27a1 9631
000002f0: 7452 b4af 2929 f72e 6f66 5eb0 f2d0 8630
00000300: ee7b 0b2f ede3 902f beaf af30 f617 21b0
00000310: c747 8eaf 6c76 73af c475 6a30 a963 17b1
00000320: c8f4 2d31 c288 efaf 0d6e cbb0 7620 b5af
00000330: 095a 82ae 1a1e 5531 a2e1 f5b1 bee5 74b1
00000340: 3d2f 4daf 030a 5ab1 fe7f 0e30 0a05 3db0
00000350: 12f7 52b1 d1f8 b32e eb75 f2b0 fd35 0f31
00000360: aab8 b8b0 3325 7b31 b9a0 62af 3f0a 74b0
00000370: 00e4 7730 6399 f730 c4c5 75b1 9272 3131
00000380: 634e dcb1 4c14 3230 a1ab ec30 5dcd 18b1
00000390: 9c2f 9b2e 3971 0430 01ef ecb0 464d 36b1
000003a0: ec2b 25b1 e6d6 0fb0 53a4 eb2e 1f89 fbb0
000003b0: 488e 4430 30e8 a2b0 4362 2e31 06e5 e430
000003c0: 64ed 0a32 124b 35b2 3d10 11b1 6217 a930
000003d0: 4652 3ab0 4924 b6af 1150 b5b0 9cd3 f330
000003e0: 212c e830 35bb fc2e 85ac 6f2f 0f2d 88b1
000003f0: 3bd1 ff30 d3c5 5f2f 7404 28b1 cb6f 06b0
0.01912673 0.06568432 0.17464393 0.103304215 -0.20230523 -0.0053792642 -0.093491465 -0.11711478
0.055850666 0.00012607162 0.12076097 0.10846248 -0.033078585 0.10370976 -0.0839867 0.0742229
0.16550826 0.004210915 -0.0055325353 -0.019540558 -0.018146282 -0.09066855 0.07026176 -0.060976237
0.048070982 0.031968072 0.103782065 0.1226431 0.15355688 0.016072344 0.07624524 -0.1900447
0.05128821 0.011934741 0.0072253314 0.01319909 0.011119787 -0.08961808 -0.034726016 -0.095870964
-0.049494725 0.010483506 0.031473976 0.070287585 -0.021127066 -0.090529956 0.040005215 -0.06330578
-0.003934332 0.11891595 -0.13581972 -0.17826726 0.16338292 -0.14949688 -0.21481621 0.03558081
0.06480206 -0.07020859 0.012270435 0.08804262 0.041489985 -0.087459244 0.025213864 -0.01470644
0.071916744 -0.04040066 0.026403794 -0.043403335 0.07743613 -0.029153267 0.08913652 0.10686751
-0.1050974 0.02863644 -0.028843151 -0.029383013 -0.09609664 -0.049655322 -0.24313359 0.12140357
-0.013248203 -0.13259535 -0.034478623 0.028440068 0.039236058 0.016535962 -0.0258862 -0.097094394
0.014966799 0.06397538 -0.07798457 0.04109478 -0.043112546 -0.022903573 -0.08550526 -0.12510967
0.12428915 -0.01654371 -0.22819431 -0.08897012 0.06696053 0.11841835 0.033961143 0.034124
0.059618518 -0.06432339 0.032813936 0.036691252 0.056235887 0.032248847 -0.014369168 -0.10006307
0.09877764 -0.14772607 0.05378962 -0.04572026 -0.008067792 -0.014008657 -0.011927494 0.08623511
-0.13675122 0.038605835 0.0059417957 0.12110121 -0.038789384 -0.033587493 -0.035427917 -0.03068167
-9.516113e-10 -1.3341345e-09 -4.3239714e-09 3.1972963e-10 3.1485323e-09 -1.3798858e-10 -1.6341288e-09 3.2388159e-09
-3.2815411e-10 -2.8965572e-10 -2.6553155e-09 2.7237752e-09 8.295054e-11 2.623583e-09 1.2184501e-09 -7.630798e-10
2.3789607e-11 -1.0238597e-09 -9.0403235e-10 1.2197333e-10 -2.4127134e-10 -6.686732e-09 6.8540507e-10 -1.7604896e-09
-1.4127136e-09 9.3252316e-11 6.4037003e-10 1.0470577e-09 -4.2172976e-09 -1.7359202e-09 2.6248457e-09 -7.3518778e-09
-8.769268e-10 6.0110894e-10 -3.1235467e-10 1.1778468e-10 6.4094174e-10 4.146682e-09 -1.00581675e-10 1.5599818e-09
-2.363777e-09 9.508799e-10 -4.5657475e-10 1.8329452e-09 2.7074273e-10 -1.0868115e-09 -8.279081e-10 -1.1156219e-09
-1.0223219e-09 -4.5873687e-09 -3.1753933e-10 1.9440867e-09 1.0678759e-10 -7.1825097e-09 -5.1084394e-09 4.8447235e-10
1.3718834e-09 9.1969016e-10 -5.160648e-10 4.3838955e-09 -3.2800396e-10 1.1239571e-10 -8.0908696e-10 9.809169e-10
1.2686005e-10 2.6355398e-10 1.2782875e-09 -5.860551e-10 -2.588065e-10 -2.2142793e-10 8.529606e-10 -2.2030042e-09
2.5313955e-09 -4.357102e-10 -1.4801472e-09 -3.2946773e-10 -5.927709e-11 3.101269e-09 -7.15609e-09 -3.5637266e-09
-1.8661424e-10 -3.1728866e-09 5.1841187e-10 -6.876496e-10 -3.0699465e-09 8.184176e-11 -1.7641332e-09 2.0839928e-09
-1.3440247e-09 3.6546453e-09 -2.061168e-10 -8.8781243e-10 9.0182084e-10 1.801521e-09 -3.576461e-09 2.5822016e-09
-6.4117542e-09 6.4784866e-10 1.722004e-09 -2.2235647e-09 7.057041e-11 4.818222e-10 -1.7239189e-09 -2.652841e-09
-2.4035627e-09 -5.2328486e-10 1.07157526e-10 -1.8301626e-09 7.150658e-10 -1.1853043e-09 2.5376188e-09 1.6654276e-09
8.086634e-09 -1.0552656e-08 -2.1109507e-09 1.2303014e-09 -6.7783323e-10 -3.313139e-10 -1.319224e-09 1.774072e-09
1.6892764e-09 1.1492888e-10 2.1798215e-10 -3.9632435e-09 1.8613159e-09 2.0352013e-10 -2.444975e-09 -4.8907783e-10

_problem._r1._attn.out_proj.weight f4 [128, 128]
00000000: 7f41 3e3d 3cca 2dbc 61dc 963d 28e3 6ebc
00000010: f073 cd3d 8188 aabd 36c3 5eba bfc1 113c
00000020: 2e88 a3bd 317a afbd 1025 39bc cb64 6f3d
00000030: 2635 af3d a618 853d 32d7 d33b e193 d5bc
00000040: f353 eb3a 42f2 9bbb c9e3 413d e753 98bc
00000050: 0bd1 993d 64fb abbd f9f4 ebbd 8b00 b83d
00000060: 3197 c33d 2b3f 413d 5b53 313c 86f8 ac3d
00000070: 379d 98bc e92c 03bd 1456 5ebd d62c 9c3c
00000080: f9f5 523d 9480 b83d 6705 44bd e1e6 3bbc
00000090: 85ee 68bd 5b6b 2b3d f83a a93d 2b04 8abc
000000a0: 61d9 f83c 7713 0cbd ce7a 4e3d abce 3cbc
000000b0: 9857 efbb fcb3 063c 619b 64bc 143a 0d3d
000000c0: b921 8e3d bc62 d03d daa6 a43d 2632 c23d
000000d0: d632 66bc dfda bf3d 321b 5fbd fbca d53d
000000e0: bd1f 9b3d deb4 893c 0df3 703d f19c 85bd
000000f0: 91e4 babd a059 9c3d 5a02 1fbd 0a3a 62bd
00000100: e53c 4abd 4ef7 bb3d 2a80 d0bc 99b3 283d
00000110: 7f97 8dbd d7d6 e6bc e0a9 74bd 71d0 b63c
00000120: ea7f 883d 9c05 3a3d fca8 34bd 271f 2b3c
00000130: 40b4 25bc af31 95bd 5c6a a7bc dbe4 4cbd
00000140: 2cf4 82bd cc2a 54bd 61dc 9cba f0dd 16be
00000150: ba37 cabd e5cc 303d b010 773d f183 f73b
00000160: 7899 4b3d 733a b1bd 250e 2cbd a914 2c3d
00000170: 0c42 44bd 666c a6bd bc7d 7abd d09f 72bd
00000180: 73df cd3c 5c48 7fbd 14be 87bb 3cc5 f43d
00000190: 1030 f7bb 1cdb a03d 418b 003d 3523 4f3d
000001a0: 1687 21bd 4063 49bd ce49 20bd 96d3 583c
000001b0: 846f 19bd b80d 923d 72f9 93bb d4b7 59bd
000001c0: 92fe 69bc 2b89 8abd f701 38bd e193 62bd
000001d0: 6a6d b9bd f1a3 0a3d 3b24 0abd 05b6 30bd
000001e0: d33d 93bd 0ca6 873d f204 593c 716b c0bc
000001f0: 3d9a 23bd b1ac 35bd a260 be3d 644b 20bd
00000200: 5654 5cbd aac4 a2bd 59ec 6d3c 7d3c 0bba
00000210: 8aa8 b0bd 2c59 0ebd c068 72bc 45be fbbc
00000220: f93b bfbd d1d1 023e bdab 4a3d 5262 d63d
00000230: b83c 05be 1fd6 b7bb f998 46bc 9bac b83c
00000240: 7a40 0dbd 8868 0b3c 3364 b0bd 45b8 c1bc
00000250: 4198 d6bd 9f4e 713d 84ef 493d 1794 18bd
00000260: b798 2e3d 2f6d d8bc 6406 913c 6f6c 483d
00000270: 8edb 7a3d d732 8cbd aacf 2fbb 7405 9e3b
00000280: 5d83 cebd a92c d93c 7373 a3bd 9862 813d
00000290: 36ae 153d ea1e 803c 9174 143e b6e9 223d
000002a0: 2cb9 d33c d50c c73c 67a8 cc3b f530 1c3d
000002b0: 1869 b83d 7df6 7b3d 4b82 543d 9d92 60bd
000002c0: 7c9c f5bd e6f3 4d3d 5591 163d 4cf8 533d
000002d0: 0058 cebd e80f 123d d3f9 4ebc 0088 2ebc
000002e0: fc34 693d 06b2 07be 057e b83d 99fb 7dbd
000002f0: 30f7 edbc 9bb6 9cbd 22e1 1e3d 00e5 bf3c
00000300: 45e2 9bbd 6e85 d83c 5e0f 7bbd 23cb aabd
00000310: d1f6 75bd 76e9 1e3d 7603 7f3d a634 90bc
00000320: 2abf f03d f104 ac3d 7e49 e9bd 3da4 53bb
00000330: f157 b2bd 3b6e a1bd 98fd f6bd f32e 22be
00000340: 043a 0abc 732e 3a3d 03ce 883d f371 86bd
00000350: 5a7f 5f3d 62d5 9138 3632 a43d 56b2 d1bd
00000360: 6508 4d3d 407d 85bd 69bd c0bd ed5a 1a3d
00000370: 310e 14bc af1e c93d 515c 96bd fb3b a3bc
00000380: ee7b 413d b6a1 bb3d f2b1 1bbd e22b 95bd
00000390: 1d0b eebc 2311 543d 9cc2 adbd 09bb 413d
000003a0: 7b19 5fbd 6ae2 d2bd c6c2 13bc 5e8e 9a3d
000003b0: c8b3 9ebd 6612 34bd 2dcb 9d3d 330a bfbd
000003c0: dbcf 743d fecb 13bb 1936 81bd f615 febc
000003d0: 4b03 72bd 3fd4 593c 4fd4 1d3d 6779 aa3d
000003e0: 2937 c53b 5638 6d3c 39cc 283d c1fd a3bd
000003f0: f139 523d 3fde d1bd 9c44 6a3d ca1c 4cbd
0.04644918 -0.010607298 0.07366253 -0.014580525 0.10031879 -0.08326817 -0.00084977166 0.00889629
-0.079849586 -0.08568228 -0.01130034 0.058445733 0.08555059 0.06498842 0.0064648623 -0.02607149
0.0017954096 -0.004759104 0.047336373 -0.018594695 0.07510575 -0.08397558 -0.11521334 0.089844786
0.09550322 0.047179382 0.010823096 0.084458396 -0.018629653 -0.03202525 -0.05428131 0.019064348
0.05150411 0.09008899 -0.047856715 -0.01146862 -0.056868095 0.04185043 0.082632005 -0.01684769
0.030377092 -0.03419825 0.050410084 -0.011523883 -0.007304143 0.008221623 -0.013953061 0.034479216
0.06940026 0.10175082 0.08039637 0.09482221 -0.014050206 0.09367918 -0.054469295 0.10439106
0.07574413 0.016809877 0.05882554 -0.06524075 -0.09125627 0.07634282 -0.038820602 -0.05523113
-0.04937448 0.09178029 -0.025451738 0.041186903 -0.06913661 -0.028178615 -0.059732318 0.02231619
0.06665023 0.045415506 -0.04410647 0.010444439 -0.010113776 -0.07284867 -0.020436458 -0.05002294
-0.06394228 -0.051798627 -0.0011967534 -0.147331 -0.0987391 0.043164153 0.06031865 0.0075535704
0.049706906 -0.086537264 -0.042005677 0.04201189 -0.04791455 -0.08126144 -0.061155066 -0.05923444
0.025130963 -0.062324867 -0.004142532 0.11951682 -0.0075435713 0.07854292 0.031382803 0.050570685
-0.03943547 -0.049166918 -0.039132886 0.01323404 -0.037459865 0.07131523 -0.00451582 -0.053153828
-0.014281886 -0.06764444 -0.04492375 -0.05531681 -0.09054072 0.033847753 -0.03372596 -0.043142337
-0.071895264 0.06623468 0.013245808 -0.023488732 -0.039942015 -0.044354144 0.09295775 -0.039134398
-0.053791367 -0.07947667 0.014521682 -0.00053114427 -0.08625896 -0.03475301 -0.014795482 -0.030730376
-0.09337611 0.12775351 0.04948019 0.10467972 -0.13011444 -0.005610242 -0.012121432 0.022543242
-0.034485318 0.008508809 -0.086128615 -0.023647437 -0.10478259 0.05891287 0.049300686 -0.037250604
0.04262611 -0.02641925 0.017703243 0.048931535 0.06124454 -0.068456344 -0.0026826658 0.0048224274
-0.10083649 0.026510553 -0.079810046 0.063176334 0.036543094 0.015639741 0.14497592 0.039773665
0.025845133 0.024298111 0.006245661 0.038132627 0.0900442 0.061514366 0.05188207 -0.05482732
-0.11992738 0.050281428 0.036759693 0.051750466 -0.100753784 0.0356597 -0.012632805 -0.010652542
0.056935295 -0.13251504 0.09008411 -0.06200752 -0.029048532 -0.07652017 0.038788922 0.023424625
-0.07611517 0.026430812 -0.061293952 -0.083395265 -0.060049836 0.038796864 0.06225916 -0.01760323
0.11755212 0.0839938 -0.11390971 -0.0032293939 -0.0870818 -0.07882353 -0.12060088 -0.15838222
-0.008436684 0.045454454 0.066799186 -0.06564703 0.05456481 6.9538844e-05 0.080173895 -0.10239093
0.050056834 -0.0651803 -0.09411127 0.03768437 -0.009036587 0.098203056 -0.07341827 -0.019926062
0.04723733 0.09161703 -0.0380115 -0.072837606 -0.029058034 0.051774155 -0.084843844 0.04729751
-0.05446766 -0.10297091 -0.009018606 0.07546686 -0.07749134 -0.04396286 0.07704768 -0.09328117
0.05976854 -0.0022552009 -0.063091464 -0.031016331 -0.05908517 0.013295232 0.03853255 0.08323937
0.0060185385 0.014478764 0.041210387 -0.08007384 0.05132479 -0.10247468 0.057194337 -0.049832143

_problem._r1._attn.out_proj.bias f4 [128]
00000000: 035f 72be 8b9b bd3d 7245 9bbe 8a1a 223e
00000010: d5f3 8bbe f407 98be caf6 48bd 404e 2cbe
00000020: bab5 f53d 972d 03bd f612 0ebe cb15 32be
00000030: decd 47be 0a21 33be c715 0bbf b2be fd3b
00000040: 89a8 20bc bc5a b63d b065 72bd 6090 1abe
00000050: 003b efbd e116 77bd 4e1c 6b3c e91f 60be
00000060: 5d18 7fbe 6c98 61be 52cf b83d 1504 0ebe
00000070: 32fa 2bbc 1141 47bd db92 debd f892 a3bd
00000080: e7fa 97bd f812 983d 1762 6e3e 215e 45be
00000090: de7f 71bd f487 67be ded0 d63c fc8f 76be
000000a0: 7c95 ceba 4076 0bbe 0ac4 15be 756f afbe
000000b0: 982c e4bd 0a8c c73b f47d b3be a954 27be
000000c0: 80b2 34bd caa3 2cbe 8e3b dabe 2d7d a8bd
000000d0: 7ded 21be ae07 cbbe 2977 39be daa2 90bd
000000e0: cb42 603e 86b3 61be c904 80be 59f1 1ebe
000000f0: 753a af3d ab86 1fbe 211d 50be 7f5d 24be
00000100: 6455 36bd 0bf0 3b3e 0ef3 11be b63c babd
00000110: 95f9 453d 2931 033e ac43 32bd 8e07 24be
00000120: d6aa 913d 548c 9fbd baf4 023c 70bf 65be
00000130: 2f40 a7bd 6e11 96be f99e dd3d a4d2 22be
00000140: 07a4 98be a3ca 5ebe 5a50 213d ab11 edbd
00000150: 297f 40bc c53c 17be c3bd 723c a72d 77bc
00000160: ac91 3bbd 1866 c8bd a9f7 373c 37a0 d3bd
00000170: fb3e 73be a4e8 22be 0f2b 7bbc c552 cdbd
00000180: cce1 d6bd f65e 20be d731 2e3d 0b4a be3c
00000190: d8a0 893d 9a8e 713d 8d9d 893d 91bb 32be
000001a0: 9a31 10bf cbca d03d e73f 363d 7f71 15be
000001b0: ff48 d83d 6256 b1be a6f9 5cbe b34d 1ebe
000001c0: 5856 a8bd 56a2 e7bd a56e 09be ab60 1dbe
000001d0: 4c23 ecbd 8484 74be 31d8 f53d 649e cabd
000001e0: 2fdf d5bd fe75 dcbd 27bb bfbe 6c42 48be
000001f0: 81ec 88bd 4baa 0abe 32e2 afbe e697 30bd
-0.23669057 0.09258183 -0.3032642 0.15830436 -0.27334467 -0.29693568 -0.04906348 -0.16826725
0.11997552 -0.0320259 -0.1387442 -0.17391126 -0.19512126 -0.17493072 -0.54330105 0.00774368
-0.009805807 0.08904025 -0.059179008 -0.15094137 -0.11681175 -0.060324553 0.01435001 -0.21887173
-0.24911638 -0.220308 0.09023918 -0.13868745 -0.010496663 -0.048646037 -0.10867854 -0.079870164
-0.07420903 0.07425493 0.23279606 -0.19274189 -0.058959834 -0.22610456 0.026222643 -0.24078363
-0.0015761103 -0.13619328 -0.14625564 -0.34264722 -0.11141318 0.006089692 -0.35057032 -0.16340889
-0.044115543 -0.16859356 -0.42623562 -0.082270004 -0.15813251 -0.39654297 -0.18111862 -0.070623115
0.2190048 -0.22041139 -0.2500365 -0.15521754 0.08556072 -0.15578716 -0.20323612 -0.16051291
-0.04451503 0.18353288 -0.14252874 -0.09093611 0.048333723 0.12811722 -0.04352157 -0.16018507
0.071126625 -0.07790437 0.007992918 -0.22436309 -0.08166539 -0.29310173 0.10821337 -0.15900666
-0.29812643 -0.21756987 0.03938327 -0.115756355 -0.011749067 -0.14769275 0.0148157505 -0.015086568
-0.04579322 -0.09785098 0.01122848 -0.10333293 -0.23754494 -0.15909058 -0.01533009 -0.10025553
-0.10492286 -0.15661225 0.042528 0.023228666 0.06720132 0.058973886 0.067195036 -0.17454363
-0.56325686 0.1019493 0.044494536 -0.14594077 0.10560798 -0.34636217 -0.21579608 -0.15459327
-0.08219594 -0.1131026 -0.13421114 -0.15368907 -0.1153017 -0.23878676 0.12004126 -0.09893492
-0.104429595 -0.10764693 -0.37447473 -0.19556588 -0.066857345 -0.13541524 -0.3435226 -0.04311361

_problem._en._memory._patterns f4 [128, 128]
00000000: 1474 f3bd 182a a1bd 62f7 f7bc fc21 be3d
00000010: c8f2 ee3d 383e 2e3d 4fe3 9abd 7e77 afbd
00000020: 18b7 22bd 7f9a f9bd 392c 063d c8b2 1abe
00000030: d0f4 a43b 2a2a 4bbd 7a96 a03b b7a3 30bd
00000040: a083 c7bd 2d6a e33c 3390 0f3e a54e 18be
00000050: 406f c83d 8138 1dbe fa22 3e3c 3cbf 0e3e
00000060: 9c70 073e d6d9 ebbd bd03 543d ea2a 493c
00000070: f493 b7bc 4511 833d 1078 8fbd 5954 b13d
00000080: 352b 4abb 76f4 873d 6fa2 13bc 76d4 0ebd
00000090: 841c 473d a5d2 84bd 3016 1b3e bb9c cbbb
000000a0: 3978 c63c 98fa 0e3d d205 f3bb 2efe 213e
000000b0: afd6 3bbd 5cde 143d 2ce4 18bd ec61 e4bd
000000c0: 56c9 df3c d3ec 85bb 8b05 ea39 29cc b13c
000000d0: 7a9f 873d 4d17 58be 538b d33d 1f7e 1abe
000000e0: 640e 1abd ec78 7dbd 4a2d e43c 2e4d 583d
000000f0: d57d 08be d241 823d 4318 91bd e89a cebd
00000100: 0b9e 97bc 3663 0fbe f132 f63c e5f5 323d
00000110: d577 683d 5b99 60bd 6b51 ae3c bddf 863c
00000120: f501 67bd 3ad7 2fbd c34c 3b3e 037b ae3d
00000130: ee05 553d 95e4 2bbd 83f3 abbd 1ad2 103e
00000140: 69e2 ee3d 03c2 d3bd 0423 38bd 1f0d 53be
00000150: 4a22 ef3d b46e f23d bac0 27be 6e37 ca3d
00000160: b4f4 cb3c b311 77bd 49ed 11bb 55aa d53d
00000170: f380 a6bd 390d abbd d0f7 153e 567a 95bc
00000180: 6784 b8bc 53a8 fa3b 9993 4d3d 5d8e 1e3d
00000190: 2e4b d73d 6404 61bd 37e5 66bd 3382 313c
000001a0: 1ce2 3a3b 338c 233e e1c6 a8bd 3c4b aa3d
000001b0: 9a83 583a 4500 a23d e024 7a3d 21d4 69bd
000001c0: 4aad 6cbd 5966 1cbe d055 a13d 8926 50bd
000001d0: 1787 f8bc 379e f5bc 65b8 80bd 74bb 17bd
000001e0: f579 0b3d 6a68 78bd 2198 753c 4efe 6b3d
000001f0: b538 c2bd 858c 15be d29e 493c 2849 9bbd
00000200: 8717 42bd 64dc b9bd 454a 79bd 12fb f2bd
00000210: 075d a93c 460f d43d 76ad 053d 4ef0 abbd
00000220: b01e 833c d6de f8bd 7e19 f23c a0e7 c23d
00000230: de86 02be 1465 a43c 7a98 a63d 8496 0cbe
00000240: 4e20 29bb a210 ef3c 51a1 f43c d371 9a3d
00000250: 4ca5 af3d 4cc7 893d 0cb4 d3bd e5e0 e63b
00000260: 638a 933d 0115 983d 356e 9bbd a0de 96bd
00000270: e643 ae3d bee5 c5bd 5f23 503e 6da4 963c
00000280: 763c d63d fe92 dbbc cf12 ef3c 8830 033b
00000290: 9de1 043e 5611 053d 04dc 913d 3302 c6bb
000002a0: ef49 1f3d ab9b 38be 6d40 f03c 2247 6b3e
000002b0: b941 64bd 0fa8 1d3d c53e abbd 6d4e e7ba
000002c0: 35fc 8ebd c9ab febc ccf3 d7bd dd06 e43d
000002d0: 5a80 9bbc e676 d03d 32e5 47be 953f 0abd
000002e0: 18e6 e9bd 6394 05be 347c 19bc f8fb d3bc
000002f0: de6d 83bd b51b 3e3b 4ac2 b33d 0cf2 803d
00000300: 0d2e db3d c624 3ebc ab0a 5ebc 17e4 843c
00000310: 46a2 b0bd ca45 d6bc 9ee1 5e3d f49a 293c
00000320: dd1f 5abe 4a44 9d3b 904f 823c f440 c63d
00000330: bc5e 143e 5277 993d f369 1cbd 345f 433d
00000340: d9b4 d03c b356 db3d e6c9 66bc 4f18 1b3d
00000350: 1679 bdbd 7d44 d9bc 9762 a0bd 1b2b 113c
00000360: 2b0c aabd 1577 5cbd 1303 60be 431b 5f3d
00000370: b226 123d 2c26 4b3d 06d2 113c 6a83 03bd
00000380: 24eb 943d 7534 7dbe 0598 d83d 4e3c c43c
00000390: f597 133e 8ea1 21be e82f 29bd ff54 a2bd
000003a0: 0d42 dabc 7a1e 533d ab98 c93d 7bf3 1cbc
000003b0: 2130 97bd 9f49 db3d a427 8cbc 4202 3b3d
000003c0: 06d6 1b3d b4c6 843d 3f78 c33d b6ea e33d
000003d0: d196 bcbd f4f8 f13d a38f c1bc 4498 b7bd
000003e0: 1eae 8e3d ca89 90bd de60 cd3d f33c 99bc
000003f0: 478c 103e 4735 e23d 54cb f83d 0f1b fdbc
-0.118873745 -0.07869357 -0.030269329 0.09283826 0.116674006 0.042539805 -0.07562887 -0.08567713
-0.039725393 -0.12187671 0.032757018 -0.15107262 0.0050340667 -0.049600758 0.0049007507 -0.04312488
-0.09741902 0.02776059 0.14019851 -0.1487375 0.09786844 -0.15353586 0.011605019 0.13940138
0.13226551 -0.11516158 0.051761378 0.012278298 -0.022409417 0.06399778 -0.07005322 0.08658666
-0.0030848507 0.06638424 -0.009010895 -0.034870587 0.04861118 -0.0648549 0.15145183 -0.006213752
0.024227249 0.034906954 -0.0074164653 0.15819618 -0.045859035 0.03634487 -0.037326977 -0.111514896
0.027317684 -0.0040870695 0.00044636088 0.021703796 0.066222146 -0.21102639 0.10329308 -0.15087174
-0.03761138 -0.0618829 0.027853627 0.05280798 -0.13329251 0.063602105 -0.07084706 -0.1008814
-0.018507978 -0.1400269 0.030053588 0.043691535 0.056754906 -0.05483375 0.021279057 0.016464109
-0.05639835 -0.042929865 0.18291001 0.085195564 0.052007608 -0.04196604 -0.083960555 0.14142647
0.11664278 -0.10339739 -0.04495527 -0.20610474 0.11676462 0.11837521 -0.16382113 0.098738536
0.024896957 -0.060319614 -0.0022266677 0.10432879 -0.08130064 -0.083521314 0.14645314 -0.01824681
-0.022524072 0.0076494603 0.05018959 0.038709987 0.10512386 -0.054935828 -0.05637094 0.010834265
0.002851612 0.1597145 -0.08241058 0.08315131 0.0008259356 0.07910208 0.061070323 -0.057087068
-0.05778245 -0.15273418 0.078776956 -0.050818 -0.030337853 -0.02998267 -0.062851705 -0.037044004
0.034051854 -0.060646452 0.014989884 0.05761557 -0.09483472 -0.14604385 0.012305932 -0.07582313
-0.04738572 -0.09075239 -0.060861845 -0.11864294 0.020674242 0.10354476 0.03263613 -0.08395444
0.016005844 -0.121518776 0.029553171 0.09516835 -0.1274676 0.020067729 0.08134551 -0.13729292
-0.0025806609 0.029182736 0.029862078 0.075412415 0.0857645 0.06727466 -0.103370756 0.0070458525
0.072041295 0.07425881 -0.0758938 -0.07366681 0.08509044 -0.096629605 0.20325993 0.018388951
0.10460751 -0.02680349 0.029183773 0.002001794 0.1297669 0.032487236 0.07122043 -0.0060427426
0.038888868 -0.18028133 0.029327596 0.22976354 -0.05572674 0.03849035 -0.08361582 -0.0017647274
-0.069816984 -0.031087773 -0.105445474 0.111341216 -0.018982101 0.10178928 -0.19521025 -0.033752043
-0.1142084 -0.13044886 -0.009367991 -0.025876984 -0.0641744 0.0029008214 0.08777292 0.06296167
0.10702143 -0.011605447 -0.013552348 0.016222043 -0.08624701 -0.026156325 0.054414384 0.010351885
-0.21301217 0.0047994005 0.015907079 0.096803576 0.14489263 0.07493462 -0.03818698 0.047698215
0.02547686 0.10709896 -0.014086222 0.03786498 -0.09251611 -0.026521916 -0.078313045 0.008860375
-0.08303102 -0.053824503 -0.21876173 0.05446936 0.035681434 0.04959695 0.008900171 -0.032107748
0.07271412 -0.24727042 0.105758704 0.023954537 0.14413436 -0.15784284 -0.041305453 -0.07926368
-0.026642824 0.051542737 0.09843572 -0.009579535 -0.07382227 0.107074015 -0.017108746 0.04565645
0.038045906 0.06483212 0.095444195 0.11128752 -0.092084534 0.11815062 -0.023628062 -0.08964589
0.06966804 -0.07057531 0.100282416 -0.01870582 0.14116012 0.11045318 0.12148157 -0.030896692
