experiment/digit_problem/exp/version_2/checkpoints/best.ckpt (torch, 448225 bytes, 16 tensors)

_problem._r._cls_token f4 [1, 1, 128]
0.008896536 0.00058875274 -0.007990777 0.005271288 0.0023065063 -0.010169885 0.0063195173 -0.009221776
0.00022960646 0.003104548 -0.0011533357 0.004555637 -0.00013375896 -0.000350029 -0.00053004746 -0.012811292
0.0012915496 -0.0025345942 -0.00082656625 0.0050498284 0.0021568653 -0.00054840284 0.0014975698 -0.0016751006
0.0040856325 -0.00022673975 -0.00038498052 0.0044472055 -0.00877088 -0.001878015 -0.0027698372 0.003933301
-1.2310242e-05 -0.0050730486 -0.0028519304 0.0050610956 0.0021865175 -0.0027009589 0.0011218737 0.0037835364
-0.003480249 -0.0010931961 0.0033756508 -0.0014180223 0.004756227 -0.0008663987 -0.0057338164 0.011142801
-0.006178022 0.0008208278 0.00347071 -0.0019700723 0.0015373462 -0.0044035646 -0.00021103863 0.0048424425
0.0039574676 -0.0074137673 0.0005664212 0.009033077 0.007083477 -0.008542638 0.0002819333 -0.004949869
0.009748147 -0.005698848 -0.0031165308 -0.002905342 -0.0056787776 0.0008377069 0.0046585733 0.0013169121
0.001247212 0.0010066382 0.0021168212 -0.00062206615 0.005470554 -0.0031383533 -0.00091404066 0.006902847
-0.00061489426 0.0023524265 0.0002636668 -0.0058147674 0.008020164 -0.0037125912 0.0061186985 0.0006497016
0.00447531 0.0003175363 -0.0017737902 0.010652207 0.00027193382 -0.0006212519 -0.00016305559 0.0033679965
0.0017822515 0.002452715 -0.00011754009 -0.008184482 3.4878394e-05 0.0014210694 -0.0008985846 -0.0038125014
0.0021810245 -0.0015616199 -0.0010801435 0.00017905224 -0.004104668 -0.006281579 -0.00051445316 0.0019663046
0.0018064048 0.0019127849 -0.006878969 0.004777548 0.0009733143 -0.0012070613 0.0035266264 0.001096567
-0.0018124935 -0.0035540394 0.0054792995 0.0033459784 0.003149251 -0.0023446213 -0.0072966022 -0.0039816257
00000000: c7c2 113c 8756 1a3a bfeb 02bc c5ba ac3b
00000010: c128 173b 979f 26bc f413 cf3b ef16 17bc
00000020: 84c2 7039 ac75 4b3b 862b 97ba 7447 953b
00000030: a641 0cb9 1984 b7b9 e2f2 0aba 74e6 51bc
00000040: 3749 a93a 6f1b 26bb ecad 58ba 0879 a53b
00000050: 325a 0d3b b1c2 0fba 1b4a c43a 0d8f dbba
00000060: c5e0 853b fdc0 6db9 36d7 c9b9 ddb9 913b
00000070: bdb3 0fbc ba27 f6ba 2886 35bb ece2 803b
00000080: 1688 4eb7 d13b a6bb 74e7 3abb 8cd7 a53b
00000090: ad4b 0f3b 9202 31bb d60b 933a 35f5 773b
000000a0: e414 64bb 9349 8fba 063a 5d3b efdc b9ba
000000b0: 20da 9b3b 081f 63ba bde2 bbbb 4b90 363c
000000c0: 0171 cabb d22c 573a da74 633b 541c 01bb
000000d0: c780 c93a c74b 90bb 404a 5db9 5aad 9e3b
000000e0: a5ad 813b 30ef f2bb e27b 143a 79ff 133c
000000f0: 831c e83b 6cf6 0bbc 72d0 9339 8332 a2bb
00000100: b1b6 1f3c 67bd babb b63e 4cbb 8d67 3ebb
00000110: 0a15 babb 8f99 5b3a f2a6 983b 3d9c ac3a
00000120: 7e79 a33a 2cf1 833a 5eba 0a3b 2712 23ba
00000130: 5542 b33b d5ac 4dbb 3b9c 6fba 4731 e23b
00000140: db30 21ba 2b2b 1a3b c23c 8a39 ce89 bebb
00000150: 0267 033c f24e 73bb 5d7f c83b bc50 2a3a
00000160: 9fa5 923b 007b a639 867e e8ba 9886 2e3c
00000170: 5792 8e39 82db 22ba e7f9 2ab9 9bb9 5c3b
00000180: 709a e93a bbbd 203b db7f f6b8 3518 06bc
00000190: 644a 1238 2d43 ba3a fe8e 6bba 29db 79bb
000001a0: 85ef 0e3b 45af ccba 9a93 8dba f8bf 3b39
000001b0: 7380 86bb b4d5 cdbb 5edc 06ba 1edd 003b
000001c0: e3c4 ec3a 69b6 fa3a f968 e1bb fa8c 9c3b
000001d0: 0426 7f3a 4236 9eba f91e 673b afba 8f3a
000001e0: 3191 edba e3ea 68bb b28b b33b 3448 5b3b
000001f0: aa63 4e3b 38a8 19bb 5618 efbb 4c78 82bb

_problem._r._pos_embed f4 [1, 17, 128]
0.008896536 0.00058875274 -0.007990777 0.005271288 0.0023065063 -0.010169885 0.0063195173 -0.009221776
0.00022960646 0.003104548 -0.0011533357 0.004555637 -0.00013375896 -0.000350029 -0.00053004746 -0.012811292
0.0012915496 -0.0025345942 -0.00082656625 0.0050498284 0.0021568653 -0.00054840284 0.0014975698 -0.0016751006
0.0040856325 -0.00022673975 -0.00038498052 0.0044472055 -0.00877088 -0.001878015 -0.0027698372 0.003933301
-1.2310242e-05 -0.0050730486 -0.0028519304 0.0050610956 0.0021865175 -0.0027009589 0.0011218737 0.0037835364
-0.003480249 -0.0010931961 0.0033756508 -0.0014180223 0.004756227 -0.0008663987 -0.0057338164 0.011142801
-0.006178022 0.0008208278 0.00347071 -0.0019700723 0.0015373462 -0.0044035646 -0.00021103863 0.0048424425
0.0039574676 -0.0074137673 0.0005664212 0.009033077 0.007083477 -0.008542638 0.0002819333 -0.004949869
0.009748147 -0.005698848 -0.0031165308 -0.002905342 -0.0056787776 0.0008377069 0.0046585733 0.0013169121
0.001247212 0.0010066382 0.0021168212 -0.00062206615 0.005470554 -0.0031383533 -0.00091404066 0.006902847
-0.00061489426 0.0023524265 0.0002636668 -0.0058147674 0.008020164 -0.0037125912 0.0061186985 0.0006497016
0.00447531 0.0003175363 -0.0017737902 0.010652207 0.00027193382 -0.0006212519 -0.00016305559 0.0033679965
0.0017822515 0.002452715 -0.00011754009 -0.008184482 3.4878394e-05 0.0014210694 -0.0008985846 -0.0038125014
0.0021810245 -0.0015616199 -0.0010801435 0.00017905224 -0.004104668 -0.006281579 -0.00051445316 0.0019663046
0.0018064048 0.0019127849 -0.006878969 0.004777548 0.0009733143 -0.0012070613 0.0035266264 0.001096567
-0.0018124935 -0.0035540394 0.0054792995 0.0033459784 0.003149251 -0.0023446213 -0.0072966022 -0.0039816257
0.0525412 -0.02259274 0.062988676 0.26032466 -0.026887089 0.043638304 0.12908761 -0.19102773
-0.08181626 0.018763417 0.054640133 -0.0736912 0.0065375078 0.016886504 0.090327315 0.27528897
0.01865209 -0.024493327 0.08519969 0.16810796 -0.057507195 0.1043082 0.042885732 0.16305943
-0.028576339 -0.016631357 -0.03782133 -0.10590978 0.041325495 -0.010767695 0.232027 -0.0019544144
-0.27138376 0.10067433 0.00537689 0.12347546 -0.045745295 0.075599186 -0.029543139 0.06416031
0.20944954 0.12425969 -0.020455943 -0.036973972 0.13113905 0.032438606 -0.15028477 -0.12808542
0.03177826 -0.12712318 -0.023170495 -0.108588494 -0.045570243 -0.15264854 0.26074213 0.22293276
-0.08063533 -0.017330438 -0.020957027 -0.17780215 0.17841803 0.091989934 -0.111652166 0.087612875
-0.031453725 -0.20590597 0.02425199 0.17146823 -0.052955072 -0.10089794 -0.09397385 0.070781164
-0.2870154 -0.023919594 -0.010557891 -0.045124304 -0.083521955 -0.03104779 0.038110726 0.13711692
0.10880729 0.044243522 0.16331524 0.13514031 -0.060136516 -0.14860581 0.016430005 -0.04554587
-0.07617297 -0.06489538 0.07015072 0.026601614 0.017121702 0.21414651 -0.06546023 -0.042469494
0.16561338 -0.030179292 0.09772267 -0.10835894 -0.098241724 0.24057154 0.06736081 -0.13370855
-0.13758147 -0.033711143 -0.13581999 0.05600932 -0.0074477433 0.11781784 0.020773921 -0.04941171
0.10299003 -0.01682083 -0.032681808 0.08464331 0.2522227 -0.03876489 -0.112281546 0.013957954
-0.021559587 -0.10145813 0.16220401 -0.15463574 0.27782974 0.14762789 -0.17321934 0.112652995
00000000: c7c2 113c 8756 1a3a bfeb 02bc c5ba ac3b
00000010: c128 173b 979f 26bc f413 cf3b ef16 17bc
00000020: 84c2 7039 ac75 4b3b 862b 97ba 7447 953b
00000030: a641 0cb9 1984 b7b9 e2f2 0aba 74e6 51bc
00000040: 3749 a93a 6f1b 26bb ecad 58ba 0879 a53b
00000050: 325a 0d3b b1c2 0fba 1b4a c43a 0d8f dbba
00000060: c5e0 853b fdc0 6db9 36d7 c9b9 ddb9 913b
00000070: bdb3 0fbc ba27 f6ba 2886 35bb ece2 803b
00000080: 1688 4eb7 d13b a6bb 74e7 3abb 8cd7 a53b
00000090: ad4b 0f3b 9202 31bb d60b 933a 35f5 773b
000000a0: e414 64bb 9349 8fba 063a 5d3b efdc b9ba
000000b0: 20da 9b3b 081f 63ba bde2 bbbb 4b90 363c
000000c0: 0171 cabb d22c 573a da74 633b 541c 01bb
000000d0: c780 c93a c74b 90bb 404a 5db9 5aad 9e3b
000000e0: a5ad 813b 30ef f2bb e27b 143a 79ff 133c
000000f0: 831c e83b 6cf6 0bbc 72d0 9339 8332 a2bb
00000100: b1b6 1f3c 67bd babb b63e 4cbb 8d67 3ebb
00000110: 0a15 babb 8f99 5b3a f2a6 983b 3d9c ac3a
00000120: 7e79 a33a 2cf1 833a 5eba 0a3b 2712 23ba
00000130: 5542 b33b d5ac 4dbb 3b9c 6fba 4731 e23b
00000140: db30 21ba 2b2b 1a3b c23c 8a39 ce89 bebb
00000150: 0267 033c f24e 73bb 5d7f c83b bc50 2a3a
00000160: 9fa5 923b 007b a639 867e e8ba 9886 2e3c
00000170: 5792 8e39 82db 22ba e7f9 2ab9 9bb9 5c3b
00000180: 709a e93a bbbd 203b db7f f6b8 3518 06bc
00000190: 644a 1238 2d43 ba3a fe8e 6bba 29db 79bb
000001a0: 85ef 0e3b 45af ccba 9a93 8dba f8bf 3b39
000001b0: 7380 86bb b4d5 cdbb 5edc 06ba 1edd 003b
000001c0: e3c4 ec3a 69b6 fa3a f968 e1bb fa8c 9c3b
000001d0: 0426 7f3a 4236 9eba f91e 673b afba 8f3a
000001e0: 3191 edba e3ea 68bb b28b b33b 3448 5b3b
000001f0: aa63 4e3b 38a8 19bb 5618 efbb 4c78 82bb
00000200: 7135 573d 6914 b9bc 3500 813d 4649 853e
00000210: 5042 dcbc 14be 323d 8b2f 043e c69c 43be
00000220: 498f a7bd bdb5 993c 55ce 5f3d 69eb 96bd
00000230: 9738 d63b 9155 8a3c 87fd b83d adf2 8c3e
00000240: 45cc 983c 3ba6 c8bc 2d7d ae3d 7e24 2c3e
00000250: aa8c 6bbd 8a9f d53d f3a8 2f3d 0df9 263e
00000260: ed18 eabc 7c3e 88bc 8aea 1abd 3ae7 d8bd
00000270: ec44 293d fc6a 30bc 7c98 6d3e a215 00bb
00000280: d0f2 8abe 582e ce3d 9f30 b03b b4e0 fc3d
00000290: 6b5f 3bbd bfd3 9a3d 7404 f2bc 7b66 833d
000002a0: f179 563e dd7b fe3d 3993 a7bc 0572 17bd
000002b0: 5149 063e 58de 043d 40e4 19be d328 03be
000002c0: ec29 023d 942c 02be 0dd0 bdbc a563 debd
000002d0: dda7 3abd e64f 1cbe fe7f 853e 7c48 643e
000002e0: 2324 a5bd 90f8 8dbc 12ae abbc c411 36be
000002f0: 37b3 363e 3865 bc3d e4a9 e4bd 616e b33d
00000300: 9fd5 00bd 04d9 52be 1cac c63c 5e95 2f3e
00000310: 6be7 58bd 94a3 cebd 5d75 c0bd b7f5 903d
00000320: aff3 92be 06f3 c3bc 01fb 2cbc 43d4 38bd
00000330: 8f0d abbd ef57 febc fe19 1c3d 6168 0c3e
00000340: 5bd6 de3d b238 353d 1c3c 273e 3962 0a3e
00000350: b551 76bd 1f2c 18be 3898 863c 4e8e 3abd
00000360: 9300 9cbd dee7 84bd 2eab 8f3d a1eb d93c
00000370: d042 8c3c 3949 5b3e 0310 86bd 7ef4 2dbd
00000380: 8e96 293e 903a f7bc d322 c83d 4beb ddbd
00000390: f532 c9bd 6358 763e 77f4 893d e5ea 08be
000003a0: 28e2 0cbe b214 0abd 6514 0bbe 076a 653d
000003b0: 330c f4bb 7b4a f13d 122e aa3c ef63 4abd
000003c0: 70ec d23d d6cb 89bc 5cdd 05bd 7959 ad3d
000003d0: 5523 813e efc7 1ebd def3 e5bd e7af 643c
000003e0: bb9d b0bc 48c9 cfbd cf18 263e d558 1ebe
000003f0: b33f 8e3e c42b 173e 6960 31be 9db6 e63d

_problem._r._patch_embedding.0.weight f4 [128, 1, 7, 7]
0.024248343 -0.07811651 -0.064230286 -0.182547 0.1320915 0.15008067 -0.20040695 0.037303258
-0.0013639408 0.01722706 0.17899452 0.079054035 -0.037630074 -0.089658506 -0.029711068 0.08470142
0.019848734 0.00045204497 -0.082308434 -0.08285212 -0.084832266 0.06827327 0.13295873 0.0117084775
0.14469859 0.10309475 -0.072624505 0.16426025 0.009539004 0.23362751 0.23310903 0.28013653
0.06392622 0.24400838 0.11989812 -0.37520224 -0.4182872 -0.52134705 -0.45632014 -0.15402648
-0.1858491 -0.105233125 -0.16193213 -0.03260967 0.12547676 0.17860158 0.15307903 -0.013104434
0.029556926 -0.29399648 -0.09343311 -0.04838215 -0.16080634 0.061823215 0.030672682 0.20722517
-0.12586963 -0.03333533 0.07264462 -0.07256028 -0.060151525 -0.17156246 0.17336996 0.07736256
0.20054607 -0.043740496 0.024438271 0.1286838 -0.05829221 0.053254426 -0.1257958 -0.14131418
0.038477078 -0.051968012 0.07596292 0.18644437 -0.15752608 -0.01127252 0.079746455 0.12332765
-0.09026989 0.13209549 0.124512464 -8.205578e-05 0.034748495 0.0714652 0.0710855 -0.025474597
-0.14749034 -0.029100271 -0.035199538 0.058532093 0.08240931 0.1912997 0.16658323 -0.0409057
0.092511 0.13803591 -0.16633727 0.0014685314 -0.14494649 -0.002363821 -0.114139274 0.08751817
-0.0069907308 0.020842757 0.020092798 0.079606295 0.19995554 -0.015050071 0.14727144 0.11234166
0.118374236 0.22751375 0.047199003 0.0146494 0.070081435 0.04427845 0.19947295 -0.275154
-0.23025642 -0.21439303 -0.11526739 -0.017157696 0.1054463 -0.15512986 -0.15426697 -0.13882747
-0.01508064 -0.13584259 0.030708777 0.04452087 -0.15519223 0.020056011 0.08845002 0.11598499
0.041852213 0.16736038 -0.013756702 -0.11869401 0.06216336 0.112314165 0.1626004 0.124423854
0.043720644 -0.077502646 0.041840803 -0.0953224 -0.1449387 -0.053584516 0.02814326 -0.20536077
0.05883749 0.23093253 0.20336182 0.057077922 0.16978988 0.045973647 0.09984033 -0.14142404
0.19113174 0.15122639 -0.13938338 0.14197734 0.029652804 0.023404606 0.13042822 0.11281628
-0.019909194 -0.17859603 -0.030456582 -0.19257765 -0.14489292 -0.19996448 0.12010609 0.115999766
0.104813226 -0.1316719 0.082778946 -0.11120452 0.05179577 0.056892857 0.104780756 -0.04391976
-0.064080484 0.10760352 -0.12256673 -0.010586677 -0.006969542 0.07356741 -0.060322583 0.021375224
0.10919681 0.05039981 -0.008218439 -0.25797 0.053398643 0.06015431 0.03672783 -0.04953607
0.20968303 0.05230502 0.17253585 -0.09193273 -0.017793866 -0.03486866 -0.049965173 0.085537404
-0.1444194 -0.13035654 -0.15855634 0.09613483 0.05520244 -0.1388885 -0.075717635 -0.049078666
-0.024415834 0.14073774 0.29225093 0.16670391 0.35991654 0.18506002 0.15950312 0.08167414
0.0627723 0.1677632 0.00547654 0.09764453 0.14246014 -0.0027108714 0.11899018 -0.12087956
-0.13665016 0.042643208 -0.11012064 0.0074949507 -0.1589748 -0.10093885 -0.12618364 -0.07121053
-0.14365648 -0.03757875 0.0376576 0.1026825 0.09811413 -0.17618513 0.053995337 0.053619172
0.20075615 0.16736068 0.16271661 0.1561271 0.12439458 -0.0049937577 -0.12055143 -0.13366142
00000000: 76a4 c63c 8cfb 9fbd 2b8b 83bd 9aed 3abe
00000010: ff42 073e bfae 193e 7b37 4dbe 4dcb 183d
00000020: 42c6 b2ba c31f 8d3c 574a 373e 15e7 a13d
00000030: fe21 1abd e19e b7bd a064 f3bc f077 ad3d
00000040: d099 a23c 7300 ed39 5391 a8bd 5fae a9bd
00000050: 8abc adbd dbd2 8b3d 5526 083e ead4 3f3c
00000060: de2b 143e 5723 d33d 28bc 94bd d733 283e
00000070: 7c49 1c3c 0d3c 6f3e 22b4 6e3e 0e6e 8f3e
00000080: c0eb 823d 55dd 793e 258d f53d 821a c0be
00000090: bd29 d6be 0077 05bf cba2 e9be 1eb9 1dbe
000000a0: 3a4f 3ebe 7784 d7bd 89d1 25be b891 05bd
000000b0: fb7c 003e 55e3 363e c0c0 1c3e fbb3 56bc
000000c0: 5e21 f23c b586 96be dc59 bfbd 5c2c 46bd
000000d0: 6baa 24be 573a 7d3d 4745 fb3c d632 543e
000000e0: f8e3 00be a18a 08bd b4c6 943d 7c9a 94bd
000000f0: 7261 76bd 12ae 2fbe e587 313e 4370 9e3d
00000100: f35b 4d3e 3c29 33bd c532 c83c b0c5 033e
00000110: d0c3 6ebd 5021 5a3d 9dd0 00be aab4 10be
00000120: 249a 1d3d 69dc 54bd 7392 9b3d 46eb 3e3e
00000130: 844e 21be 60b0 38bc 1c52 a33d 3593 fc3d
00000140: 6cdf b8bd 0a44 073e 6400 ff3d 5d15 acb8
00000150: 7054 0e3d 595c 923d 4695 913d 1ab0 d0bc
00000160: b507 17be b163 eebc 642d 10bd 59bf 6f3d
00000170: 36c6 a83d 12e4 433e cb94 2a3e bc8c 27bd
00000180: 6876 bd3d 4959 0d3e 5154 2abe bd7b c03a
00000190: da6c 14be 56ea 1abb dac1 e9bd ba3c b33d
000001a0: 8012 e5bb 6ebe aa3c a799 a43c a008 a33d
000001b0: 25c1 4c3e 9394 76bc 53ce 163e 6213 e63d
000001c0: 316e f23d 5df9 683e be53 413d 0904 703c
000001d0: db86 8f3d 525d 353d a342 4c3e fce0 8cbe
000001e0: 57c8 6bbe d989 5bbe 4f11 ecbd 4c8e 8cbc
000001f0: 3bf4 d73d 5dda 1ebe 29f8 1dbe ca28 0ebe
00000200: ca14 77bc 521a 0bbe f990 fb3c 845b 363d
00000210: b6ea 1ebe 814c a43c 4925 b53d 8a89 ed3d
00000220: 3a6d 2b3d 8560 2b3e ca63 61bc d815 f3bd
00000230: 029f 7e3d f804 e63d b880 263e efd1 fe3d
00000240: 6b14 333d b5b9 9ebd 4361 2b3d 6438 c3bd
00000250: d06a 14be 707b 5bbd b28c e63c 184a 52be
00000260: 94ff 703d 9479 6c3e 153e 503e 8aca 693d
00000270: 66dd 2d3e dd4e 3c3d 1679 cc3d 77d1 10be
00000280: 0ab8 433e 17db 1a3e 84ba 0ebe 8262 113e
00000290: 70ea f23c 04bb bf3c fa8e 053e 390c e73d
000002a0: 9b18 a3bc e1e1 36be 1580 f9bc 1333 45be
000002b0: cf5e 14be 7dc3 4cbe 2ffa f53d 4991 ed3d
000002c0: 51a8 d63d 00d5 06be 0288 a93d 32bf e3bd
000002d0: cd27 543d 7c08 693d 4b97 d63d 35e5 33bd
000002e0: a13c 83bd 3c5f dc3d 4404 fbbd be73 2dbc
000002f0: c160 e4bb 83aa 963d d014 77bd 181b af3c
00000300: 94a2 df3d 0870 4e3d a2a6 06bc a514 84be
00000310: 89b8 5a3d 5e64 763d ec6f 163d 56e6 4abd
00000320: 26b7 563e ca3d 563d 3dad 303e 3a47 bcbd
00000330: 71c4 91bc 71d2 0ebd 48a8 4cbd 3c2e af3d
00000340: aee2 13be 2f7c 05be 985c 22be 56e2 c43d
00000350: f41b 623d c938 0ebe d911 9bbd b606 49bd
00000360: b703 c8bc 8e1d 103e eaa1 953e 6eb4 2a3e
00000370: fb46 b83e 6080 3d3e c954 233e c644 a73d
00000380: c38e 803d 1eca 2b3e 8c74 b33b dbf9 c73d
00000390: 12e1 113e e0a8 31bb 20b1 f33d b48f f7bd
000003a0: 05ee 0bbe a5aa 2e3d ee86 e1bd 3498 f53b
000003b0: 4aca 22be 07b9 cebd 4936 01be d4d6 91bd
000003c0: af1a 13be 2dec 19bd db3e 1a3d 344b d23d
000003d0: 10f0 c83d e069 34be 372a 5d3d c79f 5b3d
000003e0: 0593 4d3e 9960 2b3e 2f9f 263e c8df 1f3e
000003f0: 96c2 fe3d ada2 a3bb abe3 f6bd 8ade 08be

_problem._r._patch_embedding.0.bias f4 [128]
-0.12598708 0.053262413 0.0039750463 0.0894603 0.28252155 0.15182076 0.2601932 -0.2512467
-0.07730335 0.08454098 0.06980429 -0.116205476 0.0006349558 0.057780765 0.08940007 0.47528085
-0.1031364 -0.219288 0.25392184 0.24237877 -0.27195832 0.2063717 -0.007732588 0.032949917
-0.3210874 -0.16959497 -0.06559525 0.0070849196 0.230453 -0.04376123 0.4694693 -0.2087446
-0.35110882 -0.042145927 -0.24054664 0.09803744 -0.07362521 -0.0057080337 0.018211603 0.06995558
0.35175252 0.024071341 -0.12932633 0.10013836 0.1634172 0.12627457 -0.10237852 -0.233386
-0.05359803 0.12719142 0.15500817 -0.06112264 -0.15049186 -0.27919808 0.48669598 -0.06224056
-0.31763542 -0.13830318 -0.10466801 -0.107443884 0.16963467 0.18459211 -0.10935712 0.03496821
-0.22030471 0.025049219 -0.027707236 0.25930348 0.16918758 -0.22750811 -0.059747927 0.11533934
-0.32217982 0.02212502 0.08125266 -0.31932312 -0.28377146 0.027712824 -0.045077115 -0.0138669135
0.2433072 0.23424992 0.442585 -0.061503023 -0.17803963 -0.1740234 0.1392403 -0.23467079
-0.2622342 -0.24048893 0.24759929 -0.15694429 -0.028801313 0.5892411 -0.1526984 -0.24168174
0.43592784 -0.12977125 -0.019334344 -0.103504874 -0.22186254 0.1415785 -0.14918841 0.14359953
-0.1745134 0.14780807 -0.13898686 0.18593784 0.06257974 0.10382523 0.21834339 0.02278716
0.18539509 -0.33472368 -0.121540345 -0.1206855 0.19683269 0.2889811 -0.18082263 -0.009531434
-0.053665638 0.27154177 0.09774726 -0.26115066 0.3160238 0.25652078 0.23234929 0.055288687
00000000: c202 01be b029 5a3d 1b41 823b f636 b73d
00000010: aaa6 903e e776 1b3e 0b38 853e 68a3 80be
00000020: 3851 9ebd d223 ad3d 8df5 8e3d 23fd edbd
00000030: 2a73 263a 86ab 6c3d 6217 b73d 0358 f33e
00000040: 2d39 d3bd 098d 60be 0b02 823e 2432 783e
00000050: 1f3e 8bbe 1a53 533e a661 fdbb 7ef6 063d
00000060: 9165 a4be 4eaa 2dbe cd56 86bd 9d28 e83b
00000070: dffb 6b3e fa3e 33bd 485e f03e 25c1 55be
00000080: 89c4 b3be 35a1 2cbd dc51 76be dac7 c83d
00000090: d0c8 96bd 750a bbbb 8030 953c df44 8f3d
000000a0: e818 b43e 4331 c53c 1f6e 04be 5715 cd3d
000000b0: d756 273e 1f4e 013e d4ab d1bd bdfc 6ebe
000000c0: 9c89 5bbd 783e 023e 76ba 1e3e bc5b 7abd
000000d0: 8a1a 1abe 0df3 8ebe 3730 f93e f5ef 7ebd
000000e0: 1ca1 a2be 599f 0dbe 2e5c d6bd 8a0b dcbd
000000f0: b6b4 2d3e b705 3d3e a0f6 dfbd d33a 0f3d
00000100: 8f97 61be 0534 cd3c 49fa e2bc 6dc3 843e
00000110: 823f 2d3e e3f7 68be 3eba 74bd 0837 ec3d
00000120: c1f4 a4be 883f b53c cb67 a63d 527e a3be
00000130: 7e4a 91be 0106 e33c c8a2 38bd 0d32 63bc
00000140: 8625 793e 36df 6f3e 809a e23e 98ea 7bbd
00000150: 0550 36be 3133 32be 0295 0e3e 8a4d 70be
00000160: 9043 86be bb42 76be ab8a 7d3e 01b6 20be
00000170: bbf0 ebbc 81d8 163f f85c 1cbe 6b7b 77be
00000180: ef31 df3e c1e2 04be 0f63 9ebc 5dfa d3bd
00000190: ef2f 63be f4f9 103e d9c4 18be c10b 133e
000001a0: a4b3 32be 005b 173e 9252 0ebe 7d66 3e3e
000001b0: cf29 803d 52a2 d43d 6995 5f3e 23ac ba3c
000001c0: 36d8 3d3e e760 abbe 25ea f8bd f629 f7bd
000001d0: 828e 493e 55f5 933e 9129 39be bb29 1cbc
000001e0: 80d0 5bbd 8607 8b3e b72f c83d 8ab5 85be
000001f0: dfcd a13e b156 833e f9ec 6d3e 6476 623d

_problem._r._attn.in_proj_weight f4 [384, 128]
-0.06124368 0.051032193 0.10941779 -0.07803505 0.0909824 0.01867975 -0.004669333 0.03619086
0.044026628 -0.092119426 0.005203131 -0.023988456 -0.009021275 0.029399417 -0.08708743 0.08440942
0.10339195 0.07874878 -0.08996159 0.0875062 -0.0583647 0.04130158 0.106991634 -0.054959573
-0.045212153 0.011790583 -0.101912916 0.081471734 -0.072614975 -0.08482143 -0.10244424 0.0707852
-0.053092368 0.078401305 0.032123663 0.033483982 -0.055534303 0.031325284 0.0038424148 -0.09141214
3.754018e-05 0.07233195 -0.014495299 -0.012076466 -0.027763646 -0.102021985 -0.10777501 -0.07598153
0.03537873 -0.0144436825 -0.04962997 -0.005297922 0.061472755 0.10533523 0.09566534 -0.08803176
0.05859462 -0.089729086 -0.017552147 -0.06822446 0.111049175 -0.06886501 0.013273486 -0.09863727
0.06872078 -0.098917104 0.0661716 -0.095458336 -0.03369178 0.059420858 0.067053854 -0.065853775
0.09057595 0.022070866 -0.071431406 0.022526229 0.10498133 -0.09378499 -0.07526279 -0.09591067
0.040910553 -0.051646437 0.004922815 -0.04873283 0.050740227 0.06930601 -0.080924004 -0.014944369
0.006691638 -0.0314321 -0.043055706 -0.106293544 0.020768384 0.019534055 -0.032054696 0.0017575142
0.033469707 0.014421241 -0.103313826 0.042351525 0.010412191 -0.019701812 0.028604757 0.022675654
0.0012567899 -0.0042838533 0.006715153 0.05106716 -0.032474663 0.02706271 -0.0447007 -0.09864752
0.07107718 0.09942038 0.073392525 0.08099299 -0.08380096 0.1029096 0.063483484 -0.062069327
-0.033461884 -0.1010565 0.073618986 -0.091287754 -0.092214316 -0.0826236 -0.08948672 -0.009531374
0.07411173 -0.079424545 0.050210897 -0.012006298 -0.0611476 0.056492522 -0.091133736 0.06957168
0.005208527 -0.062246464 -0.03581794 -0.03462594 0.08036333 -0.05954989 -0.096181564 -0.057127677
0.041353025 -0.031781152 0.008964709 -0.1073011 0.10940348 -0.10102449 0.08574354 -0.03283841
0.046046626 0.055395048 -0.03255723 0.10142372 -0.029468853 -0.064580336 -0.04039056 0.101709805
-0.08781787 0.015910342 0.044211507 -0.013178631 -0.008277378 0.07357846 0.07471483 0.062259026
0.08232176 -0.106200136 0.0894091 0.06890924 0.07166193 0.03365085 -0.094839744 0.050003372
-0.03315436 0.083455876 0.048869383 -0.008248384 0.04168288 -0.04455682 -0.09489978 -0.084489346
0.020451186 -0.09575545 -0.09704898 -0.031636357 0.10234513 -0.038579058 0.009834387 -0.058853906
0.07089364 0.012619455 0.007985083 0.037362307 0.04967945 0.025070967 0.040961333 0.07828064
-0.03242897 -0.06893975 -0.0075135473 -0.0065097795 -0.04610123 0.07541742 0.07521336 -0.0040748646
-0.057039324 0.04004358 0.09488734 -0.10217472 0.0811589 -0.0970014 0.06481043 0.027146755
-0.033770308 0.012442834 -0.099802405 -0.10284113 0.10424682 0.023993857 -0.015517909 0.071929336
0.053707805 0.047444176 -0.012425293 0.000783217 -0.07304879 0.07572021 -0.10059337 0.074149415
0.106457286 0.058928534 -0.015783377 -0.07212498 0.05745051 0.09003147 -0.021178849 -0.01539264
0.030359171 0.08012917 -0.029990802 -0.04407607 -0.012129683 -0.047128156 -0.062200032 -0.10234874
-0.09882873 0.05553599 -0.056461725 -0.05839087 -0.052149996 0.00364882 -0.08903643 0.079828545
00000000: a7da 7abd 2207 513d 6f16 e03d d7d0 9fbd
00000010: fb54 ba3d 4606 993c 3401 99bb de3c 143d
00000020: 4455 343d 1ca9 bcbd 077f aa3b 7083 c4bc
00000030: f8cd 13bc 0cd7 f03c e55a b2bd d9de ac3d
00000040: 29bf d33d 0a47 a13d c83d b8bd 7336 b33d
00000050: d30f 6fbd d82b 293d 6e1e db3d 4a1d 61bd
00000060: 6130 39bd 4a2d 413c b8b7 d0bd a7da a63d
00000070: 29b7 94bd dcb6 adbd 49ce d1bd d5f7 903d
00000080: 6277 59bd dd90 a03d 1a94 033d 8026 093d
00000090: f077 63bd f14e 003d 06d1 7b3b 4a36 bbbd
000000a0: 7674 1d38 c622 943d b17d 6dbc 5fdc 45bc
000000b0: 9670 e3bc e7f0 d0bd 25b9 dcbd 349c 9bbd
000000c0: 4ae9 103d 32a5 6cbc cc48 4bbd 319a adbb
000000d0: dbca 7b3d ffb9 d73d 31ec c33d ff49 b4bd
000000e0: ea00 703d e2c3 b7bd 85c9 8fbc 44b9 8bbd
000000f0: c06d e33d 1909 8dbd 0979 593c 5602 cabd
00000100: 7bbd 8c3d 0d95 cabd fa84 873d a97f c3bd
00000110: 6400 0abd 4963 733d 8853 893d 58de 86bd
00000120: e27f b93d f6cd b43c a14a 92bd ed88 b83c
00000130: 7400 d73d 5812 c0bd 6123 9abd d06c c4bd
00000140: d391 273d 378b 53bd 914f a13b 139c 47bd
00000150: fcd4 4f3d 4ff0 8d3d 7cbb a5bd 3ad9 74bc
00000160: 8745 db3b f2be 00bd 2e5b 30bd 6eb0 d9bd
00000170: 7522 aa3c e205 a03c c94b 03bd 645c e63a
00000180: 8817 093d 1247 6c3c 3396 d3bd cb78 2d3d
00000190: e597 2a3c b265 a1bc 8654 ea3c 4bc2 b93c
000001a0: dfba a43a 915f 8cbb c90a dc3b cc2b 513d
000001b0: 2704 05bd 9eb2 dd3c 1518 37bd b607 cabd
000001c0: ea90 913d ea9c cb3d d24e 963d a7df a53d
000001d0: d69f abbd 45c2 d23d a103 823d 683c 7ebd
000001e0: 540f 09bd b6f6 cebd 8dc5 963d 13f5 babd
000001f0: dcda bcbd 9036 a9bd d044 b7bd 7b29 1cbc
00000200: e4c7 973d 56a9 a2bd f1a9 4d3d 10b6 44bc
00000210: e875 7abd b464 673d 53a4 babd 997b 8e3d
00000220: 4bac aa3b 26f6 7ebd d5b5 12bd eed3 0dbd
00000230: 8895 a43d 96ea 73bd d7fa c4bd b6fe 69bd
00000240: ca61 293d f42c 02bd b7e0 123c aec0 dbbd
00000250: ef0e e03d eee5 cebd 4f9a af3d 9281 06bd
00000260: 639b 3c3d ebe5 623d bb5a 05bd 3db7 cf3d
00000270: aa68 f1bc b242 84bd 9270 25bd 3b4d d03d
00000280: dbd9 b3bd 6856 823c 2017 353d 2feb 57bc
00000290: d79d 07bc 4eb0 963d 1704 993d 5203 7f3d
000002a0: 5098 a83d 757f d9bd 1e1c b73d 4a20 8d3d
000002b0: 7dc3 923d 79d5 093d 573b c2bd 56d0 4c3d
000002c0: decc 07bd eaea aa3d 432b 483d 3b24 07bc
000002d0: abbb 2a3d 3681 36bd d15a c2bd c008 adbd
000002e0: 3f89 a73c 6f1b c4bd 9ec1 c6bd 2095 01bd
000002f0: 539a d13d 1305 1ebd 6920 213c cb10 71bd
00000300: af30 913d d5c1 4e3c ded3 023c 3809 193d
00000310: ae7c 4b3d a161 cd3c 12c7 273d 9a51 a03d
00000320: 3dd4 04bd 4930 8dbd 3434 f6bb fd4f d5bb
00000330: a5d4 3cbd 7374 9a3d 7609 9a3d 7186 85bb
00000340: 11a2 69bd bd04 243d 4b54 c23d fb40 d1bd
00000350: a336 a63d aca8 c6bd 55bb 843d df62 de3c
00000360: bc52 0abd 07dd 4b3c 3465 ccbd 5f9e d2bd
00000370: 5b7f d53d c48e c43c d43e 7ebc b04f 933d
00000380: b7fc 5b3d d354 423d 7593 4bbc ce50 4d3a
00000390: 9b9a 95bd 3313 9b3d e603 cebd a6db 973d
000003a0: 4706 da3d 0c5f 713d 244c 81bc 43b6 93bd
000003b0: 3a51 6b3d 6b62 b83d 447f adbc 6931 7cbc
000003c0: ccb3 f83c c31a a43d 45af f5bc 1c89 34bd
000003d0: 94bb 46bc 7409 41bd 76c5 7ebd 379c d1bd
000003e0: b866 cabd b579 633d 6944 67bd 442b 6fbd
000003f0: 3c9b 55bd 0b21 6f3b bb58 b6bd 267d a33d

_problem._r._attn.in_proj_bias f4 [384]
-0.0022519224 0.037661288 0.045421418 -0.018273763 -0.017294653 0.08852817 -0.12613358 -0.08879102
-0.12973848 -0.04144604 -0.1139644 0.028578838 -0.027507145 0.08275944 -0.0020546624 -0.03162176
0.047050413 -0.009442866 0.064818636 0.020453002 -0.10136413 0.0025376566 -0.043370668 0.02521961
0.23617633 0.043478433 0.13906018 0.0394077 -0.11275102 0.03845699 -0.033053316 0.1418557
0.060166184 0.042102158 0.16275409 0.112457916 -0.04920338 0.1256732 -0.17524488 -0.09528663
-0.002774393 -0.0037258896 0.1275302 -0.08741353 0.0003144347 -0.054588392 0.037467945 0.14338453
0.15835182 -0.006434604 0.13092788 0.022705335 -0.006458117 0.14885099 -0.114651024 0.02417778
0.05965361 0.048806794 0.08207919 -0.020686666 0.056141138 -0.01392779 0.042698402 0.033706803
0.0017208955 0.007632831 -0.03666455 -0.17695624 0.006396409 0.12045473 -0.060524415 -0.08771799
-0.057925034 0.005679428 -0.0023863567 -0.06322154 0.004621502 -0.13784353 0.0773844 0.060903896
-0.04778854 -0.014727699 -0.11062994 -0.0773997 -0.028733766 0.0405517 -0.027870078 0.03796632
-0.1267173 0.15999979 -0.05557159 -0.028629446 0.03879077 -0.09910397 0.004895591 0.011256831
-0.05957703 -0.057654344 -0.01735232 -0.14634879 0.050256733 0.008123194 0.1364344 -0.035674464
-0.10080498 -0.032358464 0.012276666 0.029511625 -0.16965543 -0.006235307 0.049772896 -0.027342638
0.019911395 -0.108937435 0.0822302 0.025182297 0.110982366 0.057718676 0.089308575 -0.005143401
-0.13087739 -0.046790253 -0.044216707 -0.04049618 0.102307014 -0.10508713 0.03529392 -0.0073481314
-6.5298267e-10 1.2637424e-10 -2.6271345e-09 2.3742644e-10 5.582976e-10 -3.6824683e-09 5.961284e-09 -5.758027e-10
1.0591918e-09 9.879298e-10 4.168667e-09 -1.0811912e-09 7.276978e-10 -2.8499363e-09 8.4644136e-10 5.4657e-10
-1.1682049e-09 1.7992882e-09 -5.5237087e-10 -3.4152658e-10 3.0939926e-10 1.0498818e-09 8.421976e-10 -6.107034e-10
-4.316458e-09 -1.5326359e-09 -6.863673e-09 -9.750283e-10 2.4780586e-09 2.626947e-10 -2.4165878e-10 -2.6864944e-09
-1.6677093e-09 -1.1242609e-09 -7.888671e-09 -4.6064317e-09 2.4754745e-09 -1.2665673e-09 1.0202531e-08 3.0550604e-09
2.654379e-10 6.191581e-11 -2.9049656e-09 1.7622257e-09 1.2721326e-12 2.600926e-09 -1.0382397e-09 -1.872647e-09
-1.9047233e-09 7.0187073e-10 -5.311026e-09 -4.801464e-10 -2.8185215e-10 -7.466173e-09 2.455224e-09 -2.2629458e-09
-3.0223402e-09 -4.3904183e-09 -2.709686e-09 -6.5357836e-10 -1.5655498e-09 3.9097175e-10 6.0007627e-10 -6.5414485e-10
-2.1181473e-11 -2.8826855e-10 1.3185265e-09 7.774961e-09 1.4126493e-10 -2.5084606e-09 4.3759105e-10 3.4488627e-11
2.0536381e-09 5.5170374e-10 -9.549244e-12 7.807125e-10 1.4155147e-11 2.5369642e-09 -2.956814e-09 -1.0147633e-09
9.95708e-10 -1.531227e-13 3.0965974e-09 2.7257405e-09 3.9429887e-10 -2.8163214e-09 1.1801404e-09 -2.6993143e-09
3.4987713e-09 -1.8151525e-09 5.0646093e-10 2.5082794e-09 -8.862441e-10 1.5218043e-09 -6.658662e-10 -1.8087251e-10
2.713569e-09 2.1928548e-09 1.2835907e-09 5.695377e-09 -2.6266362e-09 2.8960767e-10 -3.12603e-09 5.167016e-10
-3.2852592e-11 2.0015953e-09 -1.5855366e-10 8.8282395e-11 3.7110042e-09 8.007777e-10 -7.4777823e-10 1.625682e-09
-1.76855e-10 4.405601e-09 7.32377e-10 -6.676747e-10 3.5633757e-10 -1.7192918e-09 1.0924689e-09 7.0413925e-10
-1.914296e-09 1.5058906e-09 2.5206246e-09 6.2896355e-10 -4.0789e-09 4.9124965e-10 -2.4376656e-09 1.10059475e-10
00000000: fd94 13bb b942 1a3d cf0b 3a3d dcb2 95bc
00000010: 84ad 8dbc 424e b53d 2929 01be 11d8 b5bd
00000020: 2ada 04be 53c3 29bd 2b66 e9bd 2b1e ea3c
00000030: aa56 e1bc c87d a93d 84a7 06bb d285 01bd
00000040: efb7 403d 40b6 1abc a2bf 843d 0e8d a73c
00000050: ff97 cfbd d04e 263b 71a5 31bd 5b99 ce3c
00000060: 35d8 713e 7116 323d cb65 0e3e f869 213d
00000070: 02ea e6bd 1485 1d3d ea62 07bd 9f42 113e
00000080: d170 763d 5073 2c3d 02a9 263e 5650 e63d
00000090: 7c89 49bd 7ab0 003e 6573 33be a325 c3bd
000000a0: 97d2 35bb 0e2e 74bb 4797 023e dd05 b3bd
000000b0: b6da a439 1498 5fbd fd77 193d 65d3 123e
000000c0: fb26 223e 5fd9 d2bb f511 063e 8a00 ba3c
000000d0: 9d9e d3bb 656c 183e 28ce eabd 7b10 c63c
000000e0: 5857 743d a2e9 473d 2219 a83d 1577 a9bc
000000f0: 40f4 653d 6331 64bc 85e4 2e3d 2510 0a3d
00000100: ac8f e13a d41c fa3b 912d 16bd 0434 35be
00000110: f898 d13b f8b0 f63d 73e8 77bd 7da5 b3bd
00000120: cd42 6dbd 7f1a ba3b 6c64 1cbb 4b7a 81bd
00000130: f86f 973b db26 0dbe b67b 9e3d 5d76 793d
00000140: ebbd 43bd 724c 71bc f391 e2bd bc83 9ebd
00000150: 1363 ebbc 8a19 263d ca4f e4bc 9282 1b3d
00000160: 2ec2 01be fcd6 233e 099f 63bd 4d88 eabc
00000170: 12e3 1e3d 06f7 cabd 326b a03b 926e 383c
00000180: 0b07 74bd f626 6cbd 7426 8ebc 75dc 15be
00000190: 01da 4d3d 2517 053c 76b5 0b3e 631f 12bd
000001a0: d772 cebd 4f8a 04bd 1224 493c 5dc2 f13c
000001b0: 27ba 2dbe 8c51 ccbb aade 4b3d abfd dfbc
000001c0: 391d a33c 971a dfbd 4f68 a83d 1b4b ce3c
000001d0: b94a e33d 6b6a 6c3d 6ae7 b63d fa89 a8bb
000001e0: b904 06be 23a7 3fbd 941c 35bd 53df 25bd
000001f0: 5786 d13d ec37 d7bd 5c90 103d 98c8 f0bb
00000200: 927d 33b0 30f3 0a2f 0a89 34b1 cd86 822f
00000210: b376 1930 ab0e 7db1 02d4 cc31 8346 1eb0
00000220: 0093 9130 b1c7 8730 fc3b 8f31 0999 94b0
00000230: 2e07 4830 9cd8 43b1 04ab 6830 723d 1630
00000240: 8e8e a0b0 d34a f730 a5d5 17b0 98c1 bbaf
00000250: 1318 aa2f 6f4b 9030 6380 6730 6ede 27b0
00000260: f74f 94b1 d5a4 d2b0 82d5 ebb1 c201 86b0
00000270: 784a 2a31 fe6a 902f 73da 84af 4f9d 38b1
00000280: 4e35 e5b0 6a84 9ab0 be86 07b2 9a46 9eb1
00000290: 021d 2a31 6013 aeb0 3547 2f32 31f1 5131
000002a0: 10ed 912f 8127 882e b2a0 47b1 ce32 f230
000002b0: 6809 b32b f9bb 3231 d0b1 8eb0 f4af 00b1
000002c0: 3fe4 02b1 c3ed 4030 477c b6b1 4dfb 03b0
000002d0: 2af3 9aaf 9344 00b2 c2b8 2831 2a82 1bb1
000002e0: 92b1 4fb1 87da 96b1 4d35 3ab1 7da7 33b0
000002f0: e32a d7b0 62f0 d62f 9df2 2430 5acf 33b0
00000300: 7050 baad 317a 9eaf 8737 b530 a492 0532
00000310: 8b52 1b2f 4e61 2cb1 7791 f02f beae 172e
00000320: fc1f 0d31 b3a6 1730 f9fd 27ad c299 5630
00000330: 1d05 792d bf56 2e31 d230 4bb1 cf77 8bb0
00000340: 5cd9 8830 9d66 2caa ebcb 5431 bc4f 3b31
00000350: a2c4 d82f 4089 41b1 8032 a230 d77e 39b1
00000360: 096f 7031 0079 f9b0 0537 0b30 1e5e 2c31
00000370: e29b 73b0 bb27 d130 2b08 37b0 16df 46af
00000380: 9c79 3a31 1cb1 1631 556a b030 11b1 c331
00000390: 4680 34b1 a836 9f2f b4d1 56b1 a507 0e30
000003a0: bb7c 10ae 708c 0931 e354 2eaf 9222 c22e
000003b0: ad04 7f31 b91d 5c30 378c 4db0 9a6e df30
000003c0: 4274 42af 1460 9731 7350 4930 6e87 37b0
000003d0: 0ee6 c32f 344c ecb0 d525 9630 658d 4130
000003e0: a78c 03b1 d1f7 ce30 4c37 2d31 60e3 2c30
000003f0: 6226 8cb1 9f08 0730 de83 27b1 fa05 f22e

_problem._r._attn.out_proj.weight f4 [128, 128]
0.015080609 0.016993081 -0.06216702 -0.022845257 -0.0027914192 0.017043475 0.04849578 -0.09361833
-0.051807217 0.08670767 -0.016890312 -0.035732757 0.02744536 0.015436751 -0.0008359665 -0.03692287
-0.005930673 0.12109323 -0.02826749 0.07164034 0.12996742 0.03380245 0.09922114 0.030291574
0.041282434 0.007431314 0.014544111 0.036593713 -0.04199847 -0.10121938 -0.038065024 -0.012857407
-0.036544926 -0.017951556 0.13554758 -0.03959732 -0.038552504 0.20112266 0.0008825726 -0.12171755
-0.097894035 0.0316117 0.056121945 0.014116374 -0.033088326 0.041229114 0.041416783 -0.13738324
-0.11615562 0.07944939 -0.03435005 -0.0005179877 0.07170323 0.07323322 0.11551705 0.10934015
-0.01801417 -0.033345647 -0.09995327 0.0891714 -0.0036211445 0.09450361 0.015680108 0.024438301
-0.034834925 -0.011371547 0.012952812 0.07681413 0.05314503 -0.03078388 -0.080072425 -0.0020465134
-0.04557358 -0.025859267 -0.020206159 0.022852471 -0.06082842 0.118068635 -0.1675656 0.042177334
0.016033284 0.03633928 -0.08457899 0.088388816 0.09406619 -0.14921205 0.028243236 -0.0984679
-0.0406306 -0.12552013 -0.09630576 0.114675194 0.095595114 -0.04423161 0.019137679 0.054448064
0.020501088 0.051371522 -0.09000427 0.061509356 0.056209315 0.10962624 0.07890602 0.1282675
0.1340339 -0.110476725 0.11836481 0.08053903 0.035211157 -0.0069301417 -0.08230732 -0.07569927
-0.070708685 -0.09139467 0.12526837 -0.09062292 -0.04652735 -0.07549618 0.09228004 -0.036655497
-0.047356628 -0.005171273 -0.09102137 -0.03681714 0.08106876 0.08253599 0.08514592 -0.13094626
0.049899075 -0.013580566 -0.030527763 -0.0806118 -0.119605474 0.13358037 -0.03040748 0.07364339
-0.005113512 0.0045086616 0.015611177 -0.052217852 -0.049594987 0.029325658 0.059061836 0.021319615
0.07472791 0.15925913 0.016088143 -0.077194646 -0.0022183734 0.054248616 0.11252188 -0.01607877
-0.051822584 0.01147033 -0.08814852 -0.07809975 -0.07888777 0.13477731 0.090293385 -0.017910065
0.017231528 -0.1367455 0.011736826 -0.08709398 -0.037549056 -0.015234136 0.08758594 -0.11496143
0.073154576 -0.1236633 0.042691734 -0.0054779965 -0.021266932 0.09571225 0.05763727 -0.13852645
0.07548921 0.014098827 -0.09371533 0.13402359 -0.018314598 0.019725105 0.113096796 0.053050958
-0.074053764 -0.024323653 0.035019908 0.1490786 -0.06819996 0.11013422 -0.020301478 -0.10687751
0.0021094654 -0.07912593 0.02300144 -0.09745015 -0.027054641 0.1474301 0.023430983 0.104823574
0.05336859 0.13072002 -0.045501877 0.05120286 -0.06747521 0.08222966 0.08306629 0.08158235
0.02128092 -0.072868966 0.07390712 0.08116065 -0.051837623 0.13297251 0.015466203 -0.036789373
0.027597768 -0.0700706 -0.048009396 -0.027203236 0.1162457 -0.053908028 0.031959336 0.089331746
-0.02950166 0.091715954 -0.061148334 0.0021473758 0.06462781 0.03686313 -0.0064866333 -0.098191984
-0.014898609 0.07834268 -0.085359864 0.12883107 0.055358957 0.10947218 0.014498677 -0.061771028
-0.010237437 -0.07554501 0.033636436 -0.06957914 -0.11154454 -0.09442128 -0.0025588942 -0.0786355
-0.12842797 -0.17495167 0.0870908 0.029315464 0.04969858 0.1053348 -0.0069290195 0.011239273
00000000: a914 773c 1335 8b3c d8a2 7ebd fa25 bbbc
00000010: 3ef0 36bb c29e 8b3c 83a3 463d f8ba bfbd
00000020: ce33 54bd ca93 b13d 8d5d 8abc 835c 12bd
00000030: 17d5 e03c 6dea 7c3c c324 5bba 6f3c 17bd
00000040: 1756 c2bb baff f73d 3991 e7bc 2cb8 923d
00000050: 2e16 053e 7074 0a3d 7434 cb3d 0926 f83c
00000060: c517 293d 6182 f33b 6c4a 6e3c 4ae3 153d
00000070: 9606 2cbd 1b4c cfbd 12ea 1bbd e0a7 52bc
00000080: 22b0 15bd 240f 93bc fccc 0a3e cd30 22bd
00000090: 3be9 1dbd 19f3 4d3e 725c 673a 0d47 f9bd
000000a0: ab7c c8bd 457b 013d 20e0 653d 5d48 673c
000000b0: a087 07bd dcdf 283d a5a4 293d 31ae 0cbe
000000c0: ffe2 edbd 5db6 a23d a3b2 0cbd 91c9 07ba
000000d0: 25d9 923d 4cfb 953d 3494 ec3d bbed df3d
000000e0: 7492 93bc 7295 08bd 4db4 ccbd 7f9f b63d
000000f0: b950 6dbb 1c8b c13d 9273 803c d532 c83c
00000100: 11af 0ebd ba4f 3abc 0838 543c ba50 9d3d
00000110: 9aae 593d 7a2e fcbc 03fd a3bd cc1e 06bb
00000120: 5dab 3abd d0d6 d3bc 6387 a5bc 1b35 bb3c
00000130: 3927 79bd f8cd f13d 5196 2bbe 24c2 2c3d
00000140: 3c58 833c 7fd8 143d c037 adbd 3205 b53d
00000150: c6a5 c03d 0bcb 18be 5c5e e73c 8aa9 c9bd
00000160: 466c 26bd 5988 00be f43b c5bd d4da ea3d
00000170: 5fc7 c33d 342c 35bd 9fc6 9c3c ef04 5f3d
00000180: e6f1 a73c f26a 523d 2954 b8bd 3cf1 7b3d
00000190: bd3b 663d b983 e03d 7b99 a13d 8e58 033e
000001a0: 2f40 093e 9f41 e2bd 4069 f23d a6f1 a43d
000001b0: 9339 103d 3e16 e3bb bd90 a8bd 3808 9bbd
000001c0: b7cf 90bd 212d bbbd 5a46 003e 8298 b9bd
000001d0: 7693 3ebd be9d 9abd 51fd bc3d 1324 16bd
000001e0: 06f9 41bd c873 a9bb 6969 babd 92cd 16bd
000001f0: 6107 a63d a108 a93d fc60 ae3d c716 06be
00000200: f962 4c3d 0681 5ebc 5c15 fabc cd17 a5bd
00000210: b7f3 f4bd 4bc9 083e 1c19 f9bc 58d2 963d
00000220: 3f8f a7bb 65bd 933b 06c6 7f3c 63e2 55bd
00000230: 1d24 4bbd 5d3c f03c d3ea 713d 79a6 ae3c
00000240: f20a 993d d314 233e 48cb 833c 3a18 9ebd
00000250: 2162 11bb cc33 5e3d df71 e63d a0b7 83bc
00000260: eb43 54bd 0dee 3b3c 3687 b4bd c3f2 9fbd
00000270: e98f a1bd 1003 0a3e bdeb b83d 21b8 92bc
00000280: 2229 8d3c 0307 0cbe d14b 403c 545e b2bd
00000290: 0acd 19bd 9998 79bc 4260 b33d e670 ebbd
000002a0: 11d2 953d 2f43 fdbd 87dd 2e3d c480 b3bb
000002b0: fd37 aebc c904 c43d 0f15 6c3d e1d9 0dbe
000002c0: 169a 9a3d c4fe 663c d3ed bfbd 7b3d 093e
000002d0: 7f08 96bc 8b96 a13c 4b9f e73d f64b 593d
000002e0: 80a9 97bd 6642 c7bc 0971 0f3d 0fa8 183e
000002f0: 6cac 8bbd 0d8e e13d 494f a6bc 99e2 dabd
00000300: f53e 0a3b c70c a2bd 846d bc3c f293 c7bd
00000310: b2a1 ddbc ebf7 163e 55f2 bf3c bead d63d
00000320: 0699 5a3d 78db 053e 2d60 3abd 17ba 513d
00000330: 7130 8abd 0668 a83d a91e aa3d a614 a73d
00000340: 5355 ae3c 533c 95bd 9e5c 973d 8e37 a63d
00000350: b053 54bd f229 083e f565 7d3c 74b0 16bd
00000360: b714 e23c 2d81 8fbd 80a5 44bd 52d9 debc
00000370: 3a12 ee3d aace 5cbd cbe7 023d 90f3 b63d
00000380: 77ad f1bc 93d5 bb3d ad76 7abd fdba 0c3b
00000390: 965b 843d cbfd 163d d38d d4bb e118 c9bd
000003a0: 4c19 74bc 2172 a03d 27d1 aebd 4bec 033e
000003b0: 13c0 623d f332 e03d dc8b 6d3c 9e03 7dbd
000003c0: ecba 27bc 58b7 9abd 5cc6 093d 827f 8ebd
000003d0: 7771 e4bd f25f c1bd 1fb3 27bb a60b a1bd
000003e0: 9f82 03be 8826 33be a95c b23d fc26 f03c
000003f0: bd90 4b3d c6b9 d73d d40c e3bb ed24 383c

_problem._r._attn.out_proj.bias f4 [128]
0.00683956 -0.01840246 0.041454043 -0.025092594 -0.04843896 -0.13581298 0.0847337 -0.107780725
0.23916785 0.013774339 -0.19684961 -0.07904624 0.07303419 0.13519596 0.06416566 -0.19965777
-0.034016762 0.054972768 -0.15245885 -0.0059935953 0.022834295 -0.19804731 -0.16517313 -0.23097487
-0.023258768 0.039941326 0.020140143 0.085856564 -0.006913556 0.24849826 -0.14258282 0.14646056
-0.06873838 0.033778463 -0.06771774 -0.023579601 0.047806583 0.05150862 -0.06205292 0.08604663
-0.108609505 0.068590604 0.039733075 0.22007258 -0.03924292 -0.023539666 -0.02344694 -0.007220806
0.10382383 0.13817008 0.062289506 0.054635756 0.075553 -0.014300917 0.0071459203 -0.089419834
0.09714451 -0.19118226 0.08285329 -0.019867178 -0.07836048 -0.10947242 0.15478927 0.030075477
0.047644723 0.03883462 0.020310884 0.20151111 -0.11681698 0.05169405 -0.012753599 -0.11782913
-0.11046894 -0.0076492177 -0.25724286 -0.07190614 0.09748009 0.03973299 0.16825034 0.00712233
-0.024721812 0.06177774 0.0061270804 -0.09740346 0.071655445 -0.114048235 0.071064696 -0.021472506
-0.16276523 -0.057692256 -0.062095743 -0.08564031 -0.29906717 0.17316577 0.19935805 -0.072278775
-0.11321475 0.075439095 0.0462416 0.15152872 0.0062492564 -0.03598292 -0.09872844 0.0716198
-0.097175345 -0.010624719 0.10243815 -0.084419616 0.042033322 0.050993674 0.123007834 -0.08762187
0.036695242 0.16817799 0.055488497 -0.12375671 -0.06973536 0.149393 -0.08354119 0.059094545
-0.05765281 -0.060622435 -0.11633835 -0.09543504 -0.13986869 -0.0050052586 0.13495049 -0.1296165
00000000: 631e e03b c1c0 96bc b7cb 293d fc8e cdbc
00000010: ee67 46bd 8f12 0bbe dd88 ad3d 24bc dcbd
00000020: 6be8 743e c4ad 613c f292 49be ffe2 a1bd
00000030: f392 953d cf70 0a3e 4969 833d 1673 4cbe
00000040: 2955 0bbd 202b 613d 2c1e 1cbe ec65 c4bb
00000050: fd0e bb3c eacc 4abe 2523 29be ad84 6cbe
00000060: 2c89 bebc 8499 233d f1fc a43c 91d5 af3d
00000070: 1c8b e2bb 5476 7e3e 3b01 12be c2f9 153e
00000080: b5c6 8cbd 495b 0a3d 99af 8abd 022a c1bc
00000090: d6d0 433d b4fa 523d 342b 7ebd 3739 b03d
000000a0: a96e debd 3b79 8c3d 26bf 223d b55a 613e
000000b0: 2fbd 20bd 42d6 c0bc cc13 c0bc 839c ecbb
000000c0: 97a1 d43d 757c 0d3e 4823 7f3d bec9 5f3d
000000d0: 88bb 9a3d 654e 6abc 5328 ea3b bf21 b7bd
000000e0: b3f3 c63d 48c5 43be fcae a93d 7ec0 a2bc
000000f0: 767b a0bd 1333 e0bd 1481 1e3e d960 f63c
00000100: 1d27 433d 0d11 1f3d 0363 a63c ee58 4e3e
00000110: be3d efbd 24bd 533d 79f4 50bc 6650 f1bd
00000120: 8a3d e2bd 4aa6 fabb 56b5 83be 8743 93bd
00000130: a4a3 c73d 0fbf 223d d149 2c3e 6f62 e93b
00000140: 6685 cabc a80a 7d3d adc5 c83b 777b c7bd
00000150: 17c0 923d 1f92 e9bd 5e8a 913d 1ce7 afbc
00000160: eeab 26be b74e 6cbd 1b58 7ebd 3064 afbd
00000170: 551f 99be 5e52 313e 8424 4c3e e506 94bd
00000180: 23dd e7bd d07f 9a3d d567 3d3d 582a 1b3e
00000190: 90c6 cc3b d462 13bd 2332 cabd 67ad 923d
000001a0: de03 c7bd 4d13 2ebc 18cb d13d 31e4 acbd
000001b0: 222b 2c3d bede 503d 88eb fb3d 1873 b3bd
000001c0: c04d 163d da36 2c3e e847 633d 2874 fdbd
000001d0: 6ad1 8ebd 7bfa 183e a517 abbd 1f0d 723d
000001e0: 5a25 6cbd 3b4f 78bd cd42 eebd 7273 c3bd
000001f0: bd39 0fbe 2703 a4bb 7630 0a3e 30ba 04be

_problem._enhance._memory._patterns f4 [128, 128]
-0.008015996 -0.0015641005 -0.028789092 0.0719506 0.07976552 0.018897977 -0.056417894 0.015401726
-0.10427112 0.059514884 -0.1069609 -0.027787272 -0.018436186 0.007696631 0.054690573 -0.014498775
0.04414591 -0.065381005 -0.09397623 -0.11452207 -0.00811507 0.11196285 0.024989756 0.12398109
-0.096167356 -0.041430406 -0.027789157 0.11470135 -0.045015126 0.06728591 -0.08624746 0.06223517
-0.026225423 0.0964942 0.105485044 -0.08565506 0.031637877 -0.005384167 -0.05598215 -0.008295981
-0.035491377 0.025088385 -0.103218265 -0.19203526 0.048093636 -0.06799959 -0.0023085033 0.035573408
0.1038232 -0.0054474664 -0.12414375 -0.11868417 -0.019768864 0.14021702 -0.079459056 0.09013736
0.030823389 -0.038604196 -0.1080226 -0.044911765 -0.027939461 -0.024914492 -0.093325146 0.019086815
-0.004324666 -0.034400076 -0.19257763 0.02486279 -0.009149584 0.06672889 -0.050091647 0.021608096
-0.1353497 0.14183705 0.07867317 0.049419865 0.009250203 -0.009620084 -0.08153653 0.039230503
-0.08103361 -0.0030532326 0.10761969 -0.09840994 -0.08148857 0.04830826 -0.13708605 0.09352999
-0.093801096 -0.09843732 -0.22740331 0.17408763 0.04980318 -0.0707953 -0.15703356 0.06817742
-0.10102825 0.013919198 -0.01299845 0.003900039 -0.048490964 0.17130066 -0.051144622 0.0633531
-0.037111152 0.09648519 0.18754046 -0.071453944 -0.0068183816 -0.0616458 0.024869476 0.012668669
0.05260505 -0.09343926 -0.07106718 -0.15768501 0.015681194 -0.08568466 0.025405409 -0.030918082
0.0020446624 -0.13118403 0.01384428 0.03373826 -0.10137735 -0.019311542 0.12735774 0.1279499
-0.0877139 -0.07344905 -0.17478588 0.010686902 0.036864355 0.14727862 -0.00555762 -0.019751271
0.058736637 -0.013322869 -0.054566655 0.024255445 -0.058397017 0.037376147 0.10917683 -0.1830234
-0.044416457 -0.1391617 -0.13751446 0.007916637 -0.05294282 0.07106922 -0.08723031 0.21177676
-0.044578806 0.124552354 0.063570134 -0.15071836 0.084342115 0.17379299 -0.07325992 -0.11888864
-0.08947127 -0.1161814 0.11286627 -0.032893497 -0.2133419 0.037954807 -0.04212786 -0.019206302
0.102154225 -0.019156588 0.20365521 -0.13482054 -0.17124079 0.07608451 0.04464727 -0.13836536
0.032078184 -0.09698127 0.064248845 0.0637055 0.067930214 -0.039524794 0.03863227 -0.003191287
0.019765204 -0.120216444 -0.061053783 0.017686985 -0.041741237 -0.04405929 -0.011739092 0.015316874
-0.13425772 0.043211322 0.042851623 -0.17230976 0.050427254 -0.039934788 -0.094433084 -0.004971622
0.07302365 -0.20250566 0.010551271 0.011113865 -0.13447586 -0.088710025 -0.09010561 -0.037625343
-0.0412285 0.052225206 0.013550948 -0.049456608 0.0123481415 -0.058611296 0.13235593 0.0038773569
0.0062514013 -0.008825242 -0.002543958 0.2662087 0.047037736 -0.076443486 0.08822121 0.014794625
0.00946442 -0.004497951 0.10612223 -0.073274255 0.03345135 -0.078520976 0.062857285 -0.11059147
-0.0046868115 0.012535585 -0.13519086 0.14758365 0.0053124144 -0.07553622 -0.09048036 0.0642309
0.021802291 -0.0047275806 0.029734313 0.055482525 0.11526467 0.05719664 0.23900418 -0.021434823
-0.016347535 0.083160125 0.10674256 0.00625985 -0.07927979 -0.051961012 -0.09984717 -0.068798855
00000000: 8655 03bc 8102 cdba 1ad7 ebbc d65a 933d
00000010: 1b5c a33d eecf 9a3c 7316 67bd 8557 7c3c
00000020: 198c d5bd e1c5 733d 510e dbbd 22a2 e3bc
00000030: 7c07 97bc 0534 fc3b 3903 603d 458c 6dbc
00000040: 57d2 343d 7ae6 85bd 9c76 c0bd 8c8a eabd
00000050: 12f5 04bc c74c e53d 51b7 cc3c cce9 fd3d
00000060: 64f3 c4bd eeb2 29bd 16a6 e3bc 8be8 ea3d
00000070: c861 38bd 32cd 893d 82a2 b0bd 4eea 7e3d
00000080: b3d6 d6bc c09e c53d 8b08 d83d ec6b afbd
00000090: b896 013d ab6d b0bb 8a4d 65bd deeb 07bc
000000a0: 685f 11bd 2886 cd3c 1964 d3bd e4a4 44be
000000b0: d5fd 443d 5e43 8bbd 424a 17bb 6cb5 113d
000000c0: 42a1 d43d a980 b2bb 143f febd b010 f3bd
000000d0: 50f2 a1bc 0d95 0f3e 6ebb a2bd f099 b83d
000000e0: 5581 fc3c 6f1f 1ebd f43a ddbd 66f5 37bd
000000f0: 4ce1 e4bc 7a19 ccbc 4121 bfbd f45b 9c3c
00000100: eeb5 8dbb 18e7 0cbd 1233 45be 0dad cb3c
00000110: 23e8 15bc 28a9 883d e62c 4dbd 7603 b13c
00000120: 1d99 0abe bb3d 113e 661f a13d 7c6c 4a3d
00000130: 2a8e 173c 8f9d 1dbc a0fc a6bd 2ab0 203d
00000140: f3f4 a5bd be18 48bb b667 dc3d 278b c9bd
00000150: 7be3 a6bd e2de 453d 4960 0cbe a78c bf3d
00000160: ca1a c0bd 8199 c9bd 6adc 68be 0744 323e
00000170: 6bfe 4b3d 20fd 90bd 68cd 20be 9aa0 8b3d
00000180: e6e7 cebd 590d 643c 73f7 54bc cc97 7f3b
00000190: 769e 46bd 7169 2f3e 067d 51bd 45bf 813d
000001a0: dd01 18bd 079a c53d 9b0a 403e 7256 92bd
000001b0: bb6c dfbb 4e80 7cbd 12bb cb3c 4090 4f3c
000001c0: 6578 573d 155d bfbd ab8b 91bd 2e78 21be
000001d0: d975 803c 707b afbd 011f d03c eb47 fdbc
000001e0: beff 053b 1b55 06be 1ed3 623c 2131 0a3d
000001f0: ee9e cfbd 3d33 9ebc 116a 023e 4c05 033e
00000200: 58a3 b3bd 756c 96bd 12fb 32be 1e18 2f3c
00000210: 14ff 163d 35d0 163e b21c b6bb 6bcd a1bc
00000220: d495 703d 2a48 5abc 4981 5fbd 5bb3 c63c
00000230: b631 6fbd bb17 193d 1a98 df3d 7c6a 3bbe
00000240: 08ee 35bd 6880 0ebe 97d0 0cbe c8b4 013c
00000250: 92da 58bd bd8c 913d cea5 b2bd 02dc 583e
00000260: 4498 36bd 4e15 ff3d 0f31 823d ea55 1abe
00000270: 8fbb ac3d caf6 313e 4c09 96bd e37b f3bd
00000280: b73c b7bd 84f0 edbd 6e26 e73d 55bb 06bd
00000290: 4d76 5abe 8076 1b3d 438e 2cbd 8956 9dbc
000002a0: 3c36 d13d 47ee 9cbc fe8a 503e 650e 0abe
000002b0: bf59 2fbe 32d2 9b3d 0ee0 363d a6af 0dbe
000002c0: 6a64 033d 1e9e c6bd e694 833d 0778 823d
000002d0: ff1e 8b3d c0e4 21bd df3c 1e3d e924 51bb
000002e0: a3ea a13c 0a34 f6bd 8813 7abd 4ce4 903c
000002f0: dcf8 2abd 8477 34bd 5255 40bc a0f3 7a3c
00000300: db7a 09be 5bfe 303d 2f85 2f3d f871 30be
00000310: cf8c 4e3d a992 23bd 2266 c1bd fde8 a2bb
00000320: 6c8d 953d a55d 4fbe 3ddf 2c3c ee16 363c
00000330: 0ab4 09be 9aad b5bd 4a89 b8bd 081d 1abd
00000340: 37df 28bd 19ea 553d cc04 5e3c 0393 4abd
00000350: dc4f 4a3c 6612 70bd 5088 073e 411b 7e3b
00000360: 8ed8 cc3b bf97 10bc 88b8 26bb 824c 883e
00000370: a4aa 403d 678e 9cbd 52ad b43d 2865 723c
00000380: a810 1b3c 8c63 93bb 9d56 d93d d010 96bd
00000390: 4804 093d 9bcf a0bd 52bb 803d c87d e2bd
000003a0: d393 99bb 0e62 4d3c 796f 0abe 2b20 173e
000003b0: c313 ae3b bcb2 9abd c44d b9bd 7d8b 833d
000003c0: b89a b23c d2e9 9abb 6095 f33c a541 633d
000003d0: e20f ec3d 0647 6a3d 83bd 743e 1598 afbc
000003e0: 44eb 85bc db4f aa3d d89b da3d 6e1f cd3b
000003f0: 715d a2bd 12d5 54bd ac7c ccbd 6ae6 8cbd
