experiment/digit_problem/exp/version_1/checkpoints/best.ckpt (torch, 447969 bytes, 16 tensors)

_problem._r._cls_token f4 [1, 1, 128]
0	0x3bfe9d89	0.0077702445
1	0xbba8608c	-0.0051384624
2	0x3c84006e	0.016113486
3	0xba83832e	-0.0010033601
4	0x3b08240a	0.0020773434
5	0x3bcc64fd	0.0062376247
6	0x3b525027	0.0032091232
7	0x3b1ff817	0.0024409348
8	0x3b4fdd9a	0.0031717778
9	0x3c665662	0.014058681
10	0xbbb6e3aa	-0.005581339
11	0x3ba82c95	0.0051322677
12	0x3911a6cd	0.00013890416
13	0x3bdcd600	0.006739378
14	0x3c46a7dd	0.012124983
15	0x3b73c63c	0.0037197014
16	0xbba4d261	-0.005029962
17	0xbb0da683	-0.0021614141
18	0x3ae7d0c9	0.0017686124
19	0xba20243b	-0.00061089144
20	0xbb73f8aa	-0.0037227073
21	0x3bffadab	0.0078026853
22	0xbadf768a	-0.0017048877
23	0xbb8fb8ae	-0.004386029
24	0xb9a34bf2	-0.00031146366
25	0x3a5c8c36	0.0008413227
26	0xbba4aaf2	-0.005025261
27	0xbc0ac946	-0.008470839
28	0xba1f8c65	-0.0006086289
29	0xbbdd3cc7	-0.00675163
30	0x38218358	3.8507715e-05
31	0xbab293d1	-0.0013624375
32	0xbb2b977b	-0.0026182819
33	0xb9e52cdf	-0.00043711715
34	0xbbf901aa	-0.0075990753
35	0xbc479a76	-0.012182822
36	0xbbc4bdaa	-0.006004055
37	0x3b0f3e8e	0.0021857354
38	0xbc386b10	-0.011255994
39	0xbbbdbeee	-0.005790583
40	0x3af5bb65	0.0018747865
41	0xbbc50ba2	-0.0060133496
42	0x3b488f21	0.003060289
43	0xbaa945b5	-0.0012914451
44	0xbba3857e	-0.0049902787
45	0xba8ba39e	-0.001065362
46	0xbbd035f8	-0.00635409
47	0x3bea364d	0.0071475864
48	0xbc150d53	-0.009097415
49	0x3c3d9399	0.011570835
50	0x3bdfcf4d	0.006830132
51	0xbbc2db95	-0.0059465864
52	0xbc3c5db4	-0.01149695
53	0xba67e7a5	-0.00088464684
54	0xbaf7f181	-0.0018916578
55	0xbc0fcc48	-0.008776732
56	0xbc33029b	-0.010925914
57	0x3b4d3e4c	0.003131765
58	0x3bfeece8	0.0077797063
59	0xbb81d98e	-0.003962702
60	0xbad8cec6	-0.0016541115
61	0x3a4028c7	0.0007330295
62	0xbad33a5e	-0.0016115417
63	0x3aebac6b	0.0017980462
64	0x3c2d6cba	0.010585004
65	0x3affe723	0.001952384
66	0xbc5547d6	-0.013017615
67	0x3bb03e53	0.0053785234
68	0xbc33cc14	-0.010973949
69	0xbad9f0c3	-0.0016627539
70	0xbada168f	-0.0016638803
71	0xbabdfaff	-0.0014494358
72	0x3b4aa347	0.0030920075
73	0xbb9a1949	-0.0047027213
74	0xbbfcf8f9	-0.0077201095
75	0x3b8e7c8e	0.004348344
76	0x3c98498f	0.018589763
77	0x3bfba5c9	0.0076796752
78	0xbba0711e	-0.004896297
79	0x395ce711	0.00021066914
80	0xbc8b0b12	-0.016973052
81	0x3c031b5c	0.008002128
82	0x3b13ce02	0.002255321
83	0x3b81885c	0.003953023
84	0xbb7f2d41	-0.0038936886
85	0xbbacff8e	-0.005279488
86	0xbb92b80f	-0.004477508
87	0x3c4bf42d	0.012448353
88	0xbc0e1b34	-0.008673478
89	0x3b85551e	0.0040689847
90	0xbc0bfc0f	-0.008543982
91	0xb960dc7e	-0.00021444444
92	0x3b0e30f8	0.0021696668
93	0x3bebc875	0.007195527
94	0xbc17dd8a	-0.009269128
95	0x3b55cd26	0.0032623499
96	0x3a8ada9b	0.0010593714
97	0x39edfd37	0.00045392822
98	0x3ab53dc9	0.0013827618
99	0xbbbd9e87	-0.00578672
100	0x3c6dd6a8	0.01451651
101	0xbad2b9cf	-0.0016077104
102	0xbc05acac	-0.008158844
103	0x3b26ceb0	0.0025452785
104	0xba891a8f	-0.0010460186
105	0x3b9bdaac	0.0047562923
106	0xbc0897b3	-0.008336949
107	0x3c8ef494	0.017450608
108	0x3c7103cd	0.014710379
109	0xbbf589ff	-0.007493257
110	0xbbdbf1bc	-0.0067121666
111	0xbb82e9de	-0.0039951643
112	0x3b5f1f31	0.003404569
113	0x3beadf58	0.007167738
114	0x3c2c1e5e	0.010505287
115	0xb99d723e	-0.0003003049
116	0x3ba4843b	0.005020646
117	0x39e3a4bc	0.0004341955
118	0x3adab3f0	0.0016685706
119	0xbac4bb2e	-0.0015009397
120	0xbc641573	-0.0139211295
121	0x3bdfc7d2	0.0068292404
122	0xbc2b6a61	-0.010462374
123	0xbc83625c	-0.016038112
124	0x3bb0acdd	0.0053917007
125	0x3b92e99c	0.004483415
126	0x3c9306ad	0.01794752
127	0xbb895aea	-0.004191746

_problem._r._pos_embed f4 [1, 17, 128]
0	0x3bfe9d89	0.0077702445
1	0xbba8608c	-0.0051384624
2	0x3c84006e	0.016113486
3	0xba83832e	-0.0010033601
4	0x3b08240a	0.0020773434
5	0x3bcc64fd	0.0062376247
6	0x3b525027	0.0032091232
7	0x3b1ff817	0.0024409348
8	0x3b4fdd9a	0.0031717778
9	0x3c665662	0.014058681
10	0xbbb6e3aa	-0.005581339
11	0x3ba82c95	0.0051322677
12	0x3911a6cd	0.00013890416
13	0x3bdcd600	0.006739378
14	0x3c46a7dd	0.012124983
15	0x3b73c63c	0.0037197014
16	0xbba4d261	-0.005029962
17	0xbb0da683	-0.0021614141
18	0x3ae7d0c9	0.0017686124
19	0xba20243b	-0.00061089144
20	0xbb73f8aa	-0.0037227073
21	0x3bffadab	0.0078026853
22	0xbadf768a	-0.0017048877
23	0xbb8fb8ae	-0.004386029
24	0xb9a34bf2	-0.00031146366
25	0x3a5c8c36	0.0008413227
26	0xbba4aaf2	-0.005025261
27	0xbc0ac946	-0.008470839
28	0xba1f8c65	-0.0006086289
29	0xbbdd3cc7	-0.00675163
30	0x38218358	3.8507715e-05
31	0xbab293d1	-0.0013624375
32	0xbb2b977b	-0.0026182819
33	0xb9e52cdf	-0.00043711715
34	0xbbf901aa	-0.0075990753
35	0xbc479a76	-0.012182822
36	0xbbc4bdaa	-0.006004055
37	0x3b0f3e8e	0.0021857354
38	0xbc386b10	-0.011255994
39	0xbbbdbeee	-0.005790583
40	0x3af5bb65	0.0018747865
41	0xbbc50ba2	-0.0060133496
42	0x3b488f21	0.003060289
43	0xbaa945b5	-0.0012914451
44	0xbba3857e	-0.0049902787
45	0xba8ba39e	-0.001065362
46	0xbbd035f8	-0.00635409
47	0x3bea364d	0.0071475864
48	0xbc150d53	-0.009097415
49	0x3c3d9399	0.011570835
50	0x3bdfcf4d	0.006830132
51	0xbbc2db95	-0.0059465864
52	0xbc3c5db4	-0.01149695
53	0xba67e7a5	-0.00088464684
54	0xbaf7f181	-0.0018916578
55	0xbc0fcc48	-0.008776732
56	0xbc33029b	-0.010925914
57	0x3b4d3e4c	0.003131765
58	0x3bfeece8	0.0077797063
59	0xbb81d98e	-0.003962702
60	0xbad8cec6	-0.0016541115
61	0x3a4028c7	0.0007330295
62	0xbad33a5e	-0.0016115417
63	0x3aebac6b	0.0017980462
64	0x3c2d6cba	0.010585004
65	0x3affe723	0.001952384
66	0xbc5547d6	-0.013017615
67	0x3bb03e53	0.0053785234
68	0xbc33cc14	-0.010973949
69	0xbad9f0c3	-0.0016627539
70	0xbada168f	-0.0016638803
71	0xbabdfaff	-0.0014494358
72	0x3b4aa347	0.0030920075
73	0xbb9a1949	-0.0047027213
74	0xbbfcf8f9	-0.0077201095
75	0x3b8e7c8e	0.004348344
76	0x3c98498f	0.018589763
77	0x3bfba5c9	0.0076796752
78	0xbba0711e	-0.004896297
79	0x395ce711	0.00021066914
80	0xbc8b0b12	-0.016973052
81	0x3c031b5c	0.008002128
82	0x3b13ce02	0.002255321
83	0x3b81885c	0.003953023
84	0xbb7f2d41	-0.0038936886
85	0xbbacff8e	-0.005279488
86	0xbb92b80f	-0.004477508
87	0x3c4bf42d	0.012448353
88	0xbc0e1b34	-0.008673478
89	0x3b85551e	0.0040689847
90	0xbc0bfc0f	-0.008543982
91	0xb960dc7e	-0.00021444444
92	0x3b0e30f8	0.0021696668
93	0x3bebc875	0.007195527
94	0xbc17dd8a	-0.009269128
95	0x3b55cd26	0.0032623499
96	0x3a8ada9b	0.0010593714
97	0x39edfd37	0.00045392822
98	0x3ab53dc9	0.0013827618
99	0xbbbd9e87	-0.00578672
100	0x3c6dd6a8	0.01451651
101	0xbad2b9cf	-0.0016077104
102	0xbc05acac	-0.008158844
103	0x3b26ceb0	0.0025452785
104	0xba891a8f	-0.0010460186
105	0x3b9bdaac	0.0047562923
106	0xbc0897b3	-0.008336949
107	0x3c8ef494	0.017450608
108	0x3c7103cd	0.014710379
109	0xbbf589ff	-0.007493257
110	0xbbdbf1bc	-0.0067121666
111	0xbb82e9de	-0.0039951643
112	0x3b5f1f31	0.003404569
113	0x3beadf58	0.007167738
114	0x3c2c1e5e	0.010505287
115	0xb99d723e	-0.0003003049
116	0x3ba4843b	0.005020646
117	0x39e3a4bc	0.0004341955
118	0x3adab3f0	0.0016685706
119	0xbac4bb2e	-0.0015009397
120	0xbc641573	-0.0139211295
121	0x3bdfc7d2	0.0068292404
122	0xbc2b6a61	-0.010462374
123	0xbc83625c	-0.016038112
124	0x3bb0acdd	0.0053917007
125	0x3b92e99c	0.004483415
126	0x3c9306ad	0.01794752
127	0xbb895aea	-0.004191746
128	0xbe379bbb	-0.179305
129	0x3e3e9c98	0.18614423
130	0x3d00b12c	0.031418964
131	0x3d74fa7f	0.059809204
132	0x3db67e81	0.089108475
133	0x3e2fccf9	0.17168035
134	0x3da733c5	0.08164171
135	0xbd621c07	-0.05520251
136	0x3dccbb50	0.099966645
137	0xbd273858	-0.040825218
138	0x3dd4ff2d	0.104002334
139	0xbdedd126	-0.116121575
140	0xbd0e8cea	-0.034802355
141	0xbb88f4b9	-0.004179564
142	0xba8cb587	-0.0010735252
143	0xbd8a24c9	-0.067452975
144	0xbda2a3a1	-0.07941366
145	0x3d1272d6	0.035754047
146	0x3e4b2baf	0.19840883
147	0xbe19aa37	-0.15006338
148	0x3d1cebaa	0.038310684
149	0x3d7d475b	0.061835628
150	0x3b9e917e	0.0048391214
151	0x3cc0accd	0.023519898
152	0x3e03ac93	0.128588
153	0xbdb878ab	-0.090073906
154	0xbd391922	-0.045189984
155	0x3cee009e	0.029053029
156	0x3d624d95	0.05524977
157	0x3de456e2	0.11149384
158	0xbe5c6e91	-0.21526553
159	0x3d352efc	0.04423426
160	0x3e41d9ad	0.18930693
161	0xbc964e0a	-0.018347759
162	0x3c5da86f	0.013528927
163	0xbd649a6f	-0.05581134
164	0x3e9a4708	0.30132318
165	0x3c6bd88b	0.01439489
166	0xbc9c289c	-0.019062333
167	0x3d0e9858	0.034813255
168	0x3d3f6805	0.04673006
169	0xbde577a0	-0.11204457
170	0x3db1ffa4	0.08691338
171	0x3dffa475	0.124825396
172	0x3d864218	0.06555575
173	0xbd221954	-0.039574936
174	0x3e131b42	0.14365867
175	0x3e586a8f	0.21134399
176	0xbda068d3	-0.07832494
177	0x3dd8005a	0.10546942
178	0xbd9b274f	-0.07575857
179	0xbe1c366c	-0.15255135
180	0xbcb5547a	-0.022135008
181	0x3ca56da3	0.02019388
182	0x3d0403da	0.032230236
183	0x3d3cc97f	0.0460906
184	0x3c96c324	0.018403597
185	0xbddacff0	-0.10684192
186	0xbca2eaf9	-0.019887434
187	0xbd6e0133	-0.058106612
188	0xbb5b73f6	-0.0033485866
189	0x3d19911a	0.037491895
190	0x3e4d6033	0.20056228
191	0x3d6d91d7	0.05800041
192	0x3da46c1e	0.08028434
193	0xbd5a834d	-0.053347874
194	0x3e2b1b25	0.16709574
195	0xbdcae8c6	-0.09907679
196	0xbd3d1968	-0.046166807
197	0xbcd48f88	-0.025947347
198	0xbd7c299c	-0.06156312
199	0x3dec7cc4	0.11547235
200	0x3e8e07f0	0.2774043
201	0x3e1b073a	0.15139475
202	0x3dc5dc53	0.09661164
203	0x3d3b10f4	0.045670465
204	0xbcde5d23	-0.02714402
205	0x3d3a87be	0.04553961
206	0x3de69321	0.11258531
207	0xbdb34cbe	-0.08754872
208	0x3dc5bd02	0.09655191
209	0x3e245083	0.16046338
210	0x3da6e6c4	0.08149484
211	0xbe1241a3	-0.14282851
212	0xbe8ae37e	-0.27126688
213	0x3d306863	0.0430683
214	0x3cd34c33	0.02579317
215	0x3e475787	0.19466983
216	0x3e0f8ebd	0.14019294
217	0x3e442b7e	0.19157216
218	0xbd20f98f	-0.039300498
219	0xbe2ba8b0	-0.16763568
220	0xbdec9efa	-0.1155376
221	0x3d7c149b	0.06154309
222	0xbdc015b7	-0.09379142
223	0xbd758dbf	-0.059949633
224	0xbd8fc4f6	-0.07019989
225	0xbe5ab019	-0.21356238
226	0x3cd0dc42	0.025495652
227	0xbd7f5365	-0.06233539
228	0x3df265d7	0.11835831
229	0x3dc7bfea	0.097534016
230	0xbbb179b0	-0.0054161176
231	0xbe632478	-0.2218188
232	0xbd4cf88c	-0.05004172
233	0x3dff9671	0.12479866
234	0xbbdf8cb2	-0.006822192
235	0xbdd23e91	-0.1026584
236	0x3d96c99e	0.07362674
237	0x3d88c6d6	0.0667855
238	0xbe12da72	-0.14341143
239	0x3cb5c496	0.022188466
240	0xbde3ac40	-0.111168385
241	0x3c6f9ff7	0.014625541
242	0xbdcc5d55	-0.09978739
243	0x3c57446f	0.013138874
244	0xbe3c7a0f	-0.18405937
245	0xbddb6f1c	-0.10714552
246	0xbda21526	-0.0791419
247	0x3da837ed	0.08213792
248	0x3da332f8	0.07968706
249	0xbce3e088	-0.027817026
250	0x3e407aeb	0.1879689
251	0x3d9b35ea	0.07578643
252	0x3e167c66	0.14695892
253	0x3c05972b	0.008153717
254	0xbcabdf1e	-0.020980414
255	0x3d9390bc	0.0720534

_problem._r._patch_embedding.0.weight f4 [128, 1, 7, 7]
0	0xbe2e69d6	-0.1703256
1	0x3cbf9432	0.023386095
2	0x3e145560	0.14485693
3	0xbb090ae7	-0.002091104
4	0x3e3e84c3	0.18605332
5	0x3d8c88e5	0.06862048
6	0x3eb67b52	0.3564096
7	0xbe2b6c38	-0.16740501
8	0x3d574f6a	0.05256597
9	0x3d9084ba	0.070565656
10	0x3d4028f0	0.04691404
11	0x3baa478f	0.0051965187
12	0x3c414eff	0.011798619
13	0x3c8bc7d7	0.017063065
14	0xbe290d4d	-0.1650898
15	0xbcc4fa0f	-0.024045018
16	0xbe3486f6	-0.17629609
17	0xbca4de41	-0.02012551
18	0xbd1975b5	-0.03746577
19	0x3d9aa7e2	0.07551552
20	0x3df00ae9	0.11720831
21	0xbe9931d2	-0.29920822
22	0xbe100af0	-0.14066672
23	0xbe0b1c68	-0.13585055
24	0x3d90d2a0	0.070714235
25	0x3da82b36	0.08211367
26	0xbd46b7ca	-0.04851512
27	0xbe21c6ec	-0.15798539
28	0x3e1616ba	0.14657107
29	0xbd26c8d4	-0.04071887
30	0x3e0939af	0.13400911
31	0xbe240209	-0.16016401
32	0xbe90b3ae	-0.28262085
33	0xbcf0654d	-0.029345179
34	0xbe17e070	-0.1483171
35	0xbd90d806	-0.07072453
36	0x3d05c63b	0.03265975
37	0xbd032ba2	-0.032024033
38	0x3dc7c73d	0.097547986
39	0x3d362cb8	0.04447624
40	0x3dcfcb58	0.101462066
41	0xbd8a49da	-0.06752367
42	0x3cfffcee	0.031248536
43	0x3ddd6d54	0.10811868
44	0x3dd5d853	0.10441651
45	0xbc598388	-0.013275988
46	0x3e0ed270	0.13947463
47	0xbd80cb7b	-0.06288811
48	0xbd91d55d	-0.07120774
49	0xbe9a43d4	-0.30129874
50	0xbde22a67	-0.11043244
51	0xbb58e68d	-0.0033096403
52	0x3d5b5063	0.05354346
53	0xbb46a616	-0.0030311397
54	0xbcce9849	-0.0252191
55	0xbc8dd2e7	-0.01731248
56	0x3d8269e6	0.06367855
57	0x3cdd0406	0.026979458
58	0x3c83c367	0.016084386
59	0xbcdf82a8	-0.027283981
60	0xbcdfc821	-0.027317109
61	0x3c93852a	0.018007834
62	0xbbe46c44	-0.006970914
63	0x3df6bedb	0.120481215
64	0xbce70b43	-0.028203612
65	0x3dbb81b3	0.091555975
66	0xbe10e514	-0.14149886
67	0xbba1971c	-0.0049313437
68	0xbd43df93	-0.04782064
69	0x3e35245d	0.17689653
70	0xbde6bc23	-0.11266353
71	0xbe818e98	-0.25304103
72	0xbd8f6216	-0.0700113
73	0xbd60e5cf	-0.054906663
74	0xbc93d8e3	-0.018047756
75	0x3da8b65e	0.08237909
76	0x3e5b1ee3	0.21398501
77	0xbd333049	-0.04374722
78	0x3d88d9c3	0.0668216
79	0xbe1820cb	-0.1485626
80	0xbe0701eb	-0.13184325
81	0x3d43c534	0.04779549
82	0xbda1d32c	-0.07901606
83	0x3d46aeb9	0.048506472
84	0x3e0f6dd4	0.1400674
85	0x3e3b8198	0.18311155
86	0x3e8d5a09	0.27607754
87	0x3e8aab21	0.27083686
88	0x3e44ca24	0.19217736
89	0x3e43747b	0.19087403
90	0x3d939893	0.072068356
91	0xbd3244d1	-0.04352266
92	0xbdd786fd	-0.10523794
93	0x3dabf1d5	0.08395735
94	0xbd375387	-0.044757392
95	0x3dab513b	0.08365103
96	0xbc93929d	-0.018014247
97	0x3ca2e0bc	0.019882552
98	0xbc80370a	-0.015651245
99	0xbd047693	-0.032339644
100	0x3d6c7056	0.05772432
101	0xbda21b0b	-0.07915314
102	0x3e0c7b7b	0.13718979
103	0x3db115e4	0.086467534
104	0xbd74f15f	-0.059800502
105	0x3cff47a9	0.0311621
106	0x3d8052bc	0.0626578
107	0x3cb654b1	0.02225718
108	0xbdeba0c5	-0.11505274
109	0x3e18a08f	0.14904998
110	0x3dd84206	0.10559468
111	0xbda56cd3	-0.08077397
112	0xbe33a9e1	-0.17545272
113	0x3d1cad69	0.038251314
114	0xbd3a09c1	-0.04541946
115	0x3ddb504d	0.107086755
116	0x3d0e983a	0.034813143
117	0xbd79b0f3	-0.060959768
118	0xbe003e05	-0.12523659
119	0x3d9532c7	0.07285076
120	0x3c7f3500	0.015576601
121	0x3d6feffc	0.058578476
122	0x3e54f298	0.20795667
123	0x3d956858	0.072952926
124	0x3d81e8de	0.06343244
125	0xbe264af3	-0.16239528
126	0x3d0873b7	0.03331348
127	0x3c64619b	0.013939287
128	0x3d9f1e28	0.07769424
129	0xbd819b05	-0.06328396
130	0xbdceb411	-0.10092939
131	0xbd0ac800	-0.03388214
132	0x3e106c11	0.14103724
133	0x3d7235cc	0.059133336
134	0xbdcfdebe	-0.101499066
135	0x3d86bcdd	0.065789916
136	0xbdac1e7b	-0.08404251
137	0xbe26f038	-0.16302574
138	0xbd7bb4c7	-0.0614517
139	0xbc07f074	-0.008297075
140	0xbdcbcc66	-0.09951095
141	0x3e40632d	0.18787833
142	0xbd18cc56	-0.037304245
143	0xbd55b59b	-0.052175146
144	0x3e037308	0.1283685
145	0xbc12db1a	-0.008963371
146	0xbe0840f8	-0.13306034
147	0x3d8f297c	0.069903344
148	0xbdc6567d	-0.09684465
149	0x3d22ec68	0.039776236
150	0x3ca37810	0.019954711
151	0xbdc021d1	-0.0938145
152	0x3cd55a3d	0.026044006
153	0x3da306ca	0.07960279
154	0xbd0ad12b	-0.033890884
155	0x3d776846	0.060402177
156	0x3d2f8c20	0.042858243
157	0xbcf0db16	-0.029401343
158	0xbd4abe2c	-0.04949777
159	0xbd59ac46	-0.05314281
160	0x3e140da4	0.14458328
161	0xbe0339ab	-0.12814967
162	0x3df798b1	0.120896704
163	0x3a6e3d88	0.00090881484
164	0xbd863252	-0.065525666
165	0xbd8d2335	-0.06891481
166	0xbda795a5	-0.08182839
167	0x3e20e1a1	0.1571107
168	0xbdd0b79c	-0.10191271
169	0xbdacecbd	-0.08443592
170	0xbdc896c0	-0.09794378
171	0x3ccc103c	0.024910085
172	0xbd9cc23d	-0.076542355
173	0x3de824db	0.113351546
174	0xbe02acd8	-0.12761247
175	0xbdd3c2d8	-0.10339898
176	0xbdb32c72	-0.08748712
177	0x3b20fbd2	0.002456416
178	0x3dbaca27	0.09120589
179	0x3ca0df8d	0.019637847
180	0x3d6a16e7	0.057150748
181	0xbdbb44ba	-0.09143968
182	0x3e5ea0c4	0.21741015
183	0x3bf09efa	0.0073431702
184	0x3e0880e4	0.13330418
185	0x3e4df705	0.20113762
186	0x3e25965c	0.16170639
187	0x3dd2a27f	0.102849
188	0xbdd777e5	-0.10520915
189	0x3df25c0e	0.11833964
190	0xbd942ed5	-0.07235495
191	0x3d8aada0	0.067713976
192	0xbe18c4c2	-0.14918807
193	0xbc954fa6	-0.018226456
194	0x3dfd0d3e	0.12356041
195	0x3c7bb7ef	0.015363677
196	0xbc88f55e	-0.016718563
197	0x3d6bf381	0.05760527
198	0xbab8bf86	-0.0014095164
199	0x3de855c6	0.11344485
200	0x3e37c038	0.1794442
201	0x3d7126cb	0.058874886
202	0xbe65d144	-0.2244311
203	0xbc86b7fa	-0.016445149
204	0x3d76824a	0.060182847
205	0xbdd2b8f8	-0.10289186
206	0x3e121151	0.14264418
207	0x3d9a05bd	0.07520626
208	0x3dc6c7e6	0.09706096
209	0xbdd5580f	-0.104171865
210	0x3d3cf933	0.046136092
211	0xbd9e8288	-0.077397406
212	0x3bd39a40	0.006457597
213	0xbd8ae681	-0.067822464
214	0x3dd1b748	0.10240036
215	0x3d99ee57	0.07516163
216	0xbe346fda	-0.17620793
217	0x3d9e9cab	0.07744726
218	0x3e48f85e	0.19625995
219	0x3e1a3223	0.15058188
220	0x3e9a93a7	0.30190775
221	0x3b34b484	0.0027573416
222	0x3d791017	0.06080636
223	0xbe196f29	-0.1498381
224	0x3dadf64e	0.084942445
225	0x3d198ba6	0.037486695
226	0x3df87d03	0.12133219
227	0x3d8256b6	0.06364195
228	0x3d460628	0.048345715
229	0x3d766082	0.06015063
230	0x3e01b8d6	0.12668166
231	0xbd929d8a	-0.071589544
232	0xbd2a07d8	-0.041511387
233	0xbd51da23	-0.051233422
234	0xbddb64f1	-0.107126124
235	0x3bd3834d	0.0064548613
236	0xbe14a944	-0.14517695
237	0xbdd65930	-0.1046623
238	0x3e05920d	0.13043995
239	0xbd189629	-0.03725258
240	0xbd73fe54	-0.059568718
241	0xbd89c6a7	-0.06727343
242	0x3da78db5	0.08181325
243	0xbd85747e	-0.0651636
244	0x3bf78ed4	0.0075548682
245	0xbe688856	-0.22708258
246	0x3d8c572f	0.068525665
247	0xbe081b85	-0.13291748
248	0x3d4af250	0.049547493
249	0x3e5c8dce	0.21538469
250	0x3c2980da	0.010345662
251	0x3eb24ee0	0.34825802
252	0xbdcadf5e	-0.09905885
253	0x3cbb88f0	0.022892445
254	0xbd5112d5	-0.05104335
255	0xbc0a96c7	-0.0084588

_problem._r._patch_embedding.0.bias f4 [128]
0	0xbe8add41	-0.27121928
1	0x3e9476a2	0.2899676
2	0xbdb25165	-0.08706931
3	0x3dbb6aff	0.09151267
4	0x3e3f5047	0.18682967
5	0x3e00c289	0.1257421
6	0x3e260436	0.16212544
7	0xbe9c679f	-0.30547807
8	0x3e9b9219	0.303849
9	0xbe3b0a95	-0.18265755
10	0x3dc0339c	0.09384844
11	0xbec351f6	-0.3814847
12	0xbe141bcc	-0.14463729
13	0xbdef06d2	-0.11671223
14	0xbc87cfdd	-0.01657861
15	0xbe071a59	-0.13193645
16	0xbead61e2	-0.3386374
17	0xbd8efab2	-0.0698141
18	0x3ed7a769	0.4211991
19	0xbe4d4ec6	-0.20049581
20	0x3e681ea5	0.2266794
21	0x3dd081fe	0.10181044
22	0xbdae9306	-0.08524136
23	0x3e0acded	0.13555117
24	0x3c1a7674	0.0094276555
25	0xbe1c687f	-0.15274237
26	0x3bc7f2ae	0.0061019277
27	0x3e733d23	0.2375379
28	0x3bd4b807	0.0064916643
29	0x3cc5162a	0.02405842
30	0xbdf34bde	-0.11879705
31	0xbc3a0585	-0.011353855
32	0x3ec430c6	0.3831846
33	0x3c7534a5	0.014966165
34	0x3e1f7104	0.15570456
35	0xbdd4e64e	-0.1039549
36	0x3f1fbd92	0.62398636
37	0xbd8d7d52	-0.069086686
38	0xbdbdcac6	-0.092671916
39	0x3e72430a	0.23658386
40	0xbc8dbe91	-0.017302783
41	0xbd9f0b74	-0.077658564
42	0x3e43e1a5	0.19129045
43	0x3e18c458	0.14918649
44	0x3e044f35	0.1292084
45	0x3cfbbb9e	0.030729111
46	0x3ed14dc1	0.40879634
47	0x3e74ce60	0.23906851
48	0xbde226c3	-0.110425495
49	0x3e042886	0.12906083
50	0x3c5aee2f	0.013362451
51	0xbd686a1f	-0.05674183
52	0xbd64dc5d	-0.055874217
53	0xbc90cf5e	-0.017677005
54	0xbb4caae6	-0.0031229793
55	0x3e87c407	0.26516744
56	0x3e14ff77	0.14550577
57	0xbe7cf3b5	-0.24702342
58	0xbddb0cc4	-0.10695794
59	0x3df9e955	0.12202708
60	0xbcbc2c0d	-0.022970224
61	0xbe12206e	-0.14270183
62	0x3eb4424e	0.35206836
63	0x3d6648fb	0.056221943
64	0xbd9d8864	-0.0769203
65	0xbdc30689	-0.09522731
66	0x3ebeead8	0.37288547
67	0xbdf9ab58	-0.12190884
68	0x3d7cbb9d	0.06170236
69	0xbe884f48	-0.26622987
70	0xbc4844d7	-0.012223444
71	0x3ea8dd4c	0.32981336
72	0x3ec68595	0.3877379
73	0x3de59a5f	0.112110846
74	0xbd3293d1	-0.043598
75	0xbc097fc6	-0.00839228
76	0xbe74b383	-0.23896603
77	0xbd8fb058	-0.07016057
78	0x3e8a25b5	0.26981893
79	0xbdd46e8c	-0.10372648
80	0x3ea3f9ad	0.32026425
81	0x3bbd157c	0.0057703834
82	0x3e8cd532	0.27506405
83	0xbea2026a	-0.31642467
84	0xbf014f31	-0.5051146
85	0x3d3c6e9f	0.046003934
86	0x3e24ed1f	0.1610608
87	0x3ec5e8f5	0.38654295
88	0x3e4c8a8e	0.1997473
89	0x3e47341b	0.1945347
90	0xbdd70b05	-0.10500149
91	0xbe8ba980	-0.27277756
92	0xbe8e8fd3	-0.27844104
93	0xbd8371b1	-0.06418169
94	0x3d195a31	0.03743953
95	0x3dc3d304	0.095617324
96	0xbd855f83	-0.06512358
97	0xbe98b959	-0.2982891
98	0xbd9ca312	-0.07648291
99	0xbe1a3cbc	-0.15062231
100	0xbe471f82	-0.19445613
101	0x3ea1788f	0.3153729
102	0xbd28a0cb	-0.04116897
103	0xbdd375ef	-0.103252284
104	0xbc40c5da	-0.0117659215
105	0x3e01c7a0	0.12673807
106	0xbdaf45a2	-0.08558203
107	0xbe607628	-0.21920073
108	0x3e587f77	0.21142374
109	0xbd961989	-0.07329089
110	0x3d3f3721	0.046683434
111	0x3e5c5674	0.21517354
112	0xbdaf6880	-0.08564854
113	0x3bec99b8	0.007220473
114	0xbde1f9c2	-0.11033966
115	0xbd17176b	-0.036887567
116	0xbe85cb72	-0.2613178
117	0xbcab31c9	-0.020897763
118	0x3c9feb4c	0.019521378
119	0xbc48dac3	-0.012259188
120	0x3e1ec1af	0.15503572
121	0xbddbca2f	-0.10731923
122	0x3e5f4670	0.21804214
123	0x3d70481b	0.058662515
124	0x3e8c5a2b	0.27412543
125	0xbdd4bf1f	-0.10388016
126	0xbe360f4b	-0.17779271
127	0x3dff21ba	0.12457605

_problem._r._attn.in_proj_weight f4 [384, 128]
0	0xbdca9521	-0.09891725
1	0xbc11b47a	-0.008893127
2	0x3d9458a6	0.07243471
3	0xbd173c4d	-0.03692274
4	0x3dac359c	0.08408663
5	0xbc7394e9	-0.014867046
6	0x3b53bb89	0.0032307825
7	0xbd18680f	-0.037208613
8	0xbd63c357	-0.055606212
9	0x3dbb445c	0.09143898
10	0xbdb6aee5	-0.08920077
11	0xbc65e7ce	-0.014032317
12	0xbcd5a402	-0.026079182
13	0xbdcda1b3	-0.10040607
14	0x3d9ae811	0.075637944
15	0x3dc62676	0.096753046
16	0xbd63b788	-0.05559495
17	0xbdd5961a	-0.1042902
18	0x3d879067	0.066193394
19	0xbbfab6ea	-0.0076511996
20	0x3dc463ab	0.09589323
21	0xbbbdf6ea	-0.0057972567
22	0xbc13d1a5	-0.009022151
23	0xbd8cde15	-0.06878296
24	0xbdcd89e3	-0.100360654
25	0xbc8e9e20	-0.017409384
26	0x3d661c84	0.05617954
27	0xbd516b6f	-0.051127847
28	0xbd3cdb74	-0.046107724
29	0xbd723eca	-0.05914191
30	0xbd862a37	-0.065510206
31	0xbdca0bf8	-0.09865564
32	0xbd93e518	-0.072214305
33	0x391d99a9	0.0001502993
34	0xbd349c2c	-0.04409425
35	0x3d8b6919	0.06807155
36	0x3d4b5c9a	0.04964886
37	0xbd403761	-0.046927813
38	0xbda51a7a	-0.08061691
39	0xbc41daba	-0.011831934
40	0xbdbde53e	-0.0927224
41	0xbdae0802	-0.08497621
42	0xbd0b3f00	-0.03399563
43	0xbdb37aef	-0.08763682
44	0x3bcdc45a	0.0062795104
45	0x3d2fad21	0.042889718
46	0xbdacdb60	-0.0844028
47	0x3dc18622	0.09449412
48	0x3c006dd3	0.007838684
49	0xbd00aa28	-0.031412274
50	0x3d082c56	0.033245407
51	0xbca25e59	-0.01982038
52	0xbd5288c5	-0.051399965
53	0x3da3f083	0.08004858
54	0xbcf31a16	-0.029675525
55	0xbdbc5af3	-0.09197035
56	0xbc34e776	-0.011041513
57	0xbd2e8973	-0.04261155
58	0xbdb86217	-0.09003084
59	0xbb04f714	-0.0020288872
60	0x3d9e8d10	0.07741749
61	0x3ce65e33	0.02812109
62	0xbd29fa9f	-0.041498777
63	0x3d9432e2	0.072362676
64	0xbd55cbe3	-0.052196395
65	0xbb0d1f39	-0.0021533503
66	0x3d3abdc4	0.04559113
67	0xbd2fb7aa	-0.042899765
68	0xbd5e4097	-0.054260816
69	0x3d04c9a1	0.03241885
70	0xbd042c32	-0.03226871
71	0xbdda9feb	-0.10675033
72	0x3d704466	0.05865898
73	0x3dcc2ab1	0.0996908
74	0x3d8236d6	0.063581154
75	0x3d359596	0.04433211
76	0xbdc98843	-0.09840443
77	0x3ca90ef3	0.020637011
78	0xbdaaf989	-0.08348376
79	0xbdba2de8	-0.09090787
80	0xbdaf2a07	-0.08552938
81	0x3d59805e	0.053100936
82	0xbd8fb2af	-0.07016503
83	0xbd87604b	-0.06610163
84	0xbc499c30	-0.012305304
85	0x3b8d9be6	0.004321563
86	0xbd8c5eda	-0.06854029
87	0x3d8f74dc	0.07004711
88	0xbd400586	-0.046880268
89	0x3d20f9d7	0.039300766
90	0xbdaaa150	-0.08331549
91	0x3db2e109	0.08734328
92	0xbd63ae10	-0.05558592
93	0xbd966ffb	-0.07345577
94	0xbcf5a937	-0.029987914
95	0xbd19b778	-0.037528485
96	0x3c3882b1	0.011261628
97	0xbd15bd1e	-0.03655731
98	0xbd952dc7	-0.07284122
99	0x3dd83e79	0.10558791
100	0x3dd0d7fe	0.10197447
101	0xbd387c81	-0.04504061
102	0x3dd00bc8	0.10158497
103	0x3db49c3d	0.088188626
104	0x3d5438e5	0.05181207
105	0xbd7d799b	-0.06188355
106	0xba2310b9	-0.00062204484
107	0x3bb4d1f4	0.0055181924
108	0x39f425ba	0.00046567415
109	0xbdcea69e	-0.100903735
110	0x3c6a6b1f	0.014307766
111	0xbda05f88	-0.07830721
112	0xbdd0ab04	-0.10188869
113	0xbd8b7e77	-0.06811231
114	0x3d4ced43	0.050030958
115	0x3dabd733	0.08390655
116	0xbd2c24b8	-0.042027205
117	0x3dbeaabe	0.0930991
118	0x3dd23e48	0.102657855
119	0x3d3f126e	0.046648435
120	0xbd4e86e6	-0.050421618
121	0x3dad9992	0.08476557
122	0xbdb7adc8	-0.08968693
123	0xbc92d39a	-0.017923165
124	0xbb0e4457	-0.0021708214
125	0x3dbd9f34	0.09258881
126	0xbb030d4b	-0.0019996937
127	0x3d0188f6	0.031624757
128	0x3cb0f3d7	0.021600647
129	0xbda3642c	-0.07978091
130	0xbcc33ea9	-0.02383359
131	0xbd2f2f2f	-0.042769607
132	0xbd8fac53	-0.0701529
133	0xbdc983eb	-0.098396145
134	0x3daae934	0.08345261
135	0xbad60123	-0.0016327243
136	0xbcb0c765	-0.021579454
137	0xbca05ba7	-0.019574953
138	0xbdcda0ea	-0.100404575
139	0x3da14c9e	0.07875942
140	0xbd118d80	-0.035535336
141	0x3da8e2a5	0.08246354
142	0x3c866d45	0.016409526
143	0x3d2a73bf	0.04161429
144	0x3d944c5b	0.07241126
145	0x3db05934	0.08610764
146	0xbd120cf2	-0.035656877
147	0x3b3c8cfc	0.0028770557
148	0xbdc623b6	-0.0967478
149	0xbdbd9484	-0.09256843
150	0xbd9af0f2	-0.07565488
151	0xbd9742dc	-0.07385799
152	0xbdcb9fbc	-0.09942576
153	0x3b2cb63a	0.0026353733
154	0xbd95e210	-0.073185086
155	0x3d9bd20d	0.076084234
156	0xbd9e1798	-0.07719344
157	0xbd05ddf5	-0.032682378
158	0x3dbbf757	0.09178036
159	0x3da43157	0.08017223
160	0x3d0539c0	0.032525778
161	0xbcb8e5b8	-0.022570476
162	0xbd8465bf	-0.06464719
163	0xbc470376	-0.012146821
164	0xbb43c05e	-0.0029869298
165	0xbce16b2a	-0.02751692
166	0x3b7acef7	0.0038270333
167	0x3dc9e3e8	0.09857923
168	0x3d106805	0.03525545
169	0x3dbef09e	0.09323238
170	0x3dc505aa	0.09620221
171	0xbdba8e79	-0.09109206
172	0x3c1e4f3f	0.009662448
173	0x3aecb1fc	0.0018058415
174	0x3dbb8519	0.09156246
175	0x3d917568	0.071024716
176	0x3d8354f8	0.06412691
177	0xbdcfb554	-0.101420075
178	0x3db6b0ab	0.089204155
179	0x3d802729	0.06257469
180	0xbdb8e828	-0.09028655
181	0x3d63cda3	0.055616032
182	0x3da3c8f9	0.07997317
183	0xbc304d4b	-0.010760616
184	0x3dcf36a1	0.101178415
185	0x3daf5194	0.08560482
186	0xbb737f7e	-0.0037154849
187	0x3c9e91e8	0.019356683
188	0xbce4c3bf	-0.02792537
189	0x3d7f1065	0.062271494
190	0x3da6ad97	0.081385784
191	0xbcd4e97b	-0.025990238
192	0x3cb4c238	0.022065267
193	0x3dc1b0c2	0.09457542
194	0x3d617266	0.05504074
195	0x3c0152c2	0.007893266
196	0xbd06b5a4	-0.03288807
197	0xbdcb81c5	-0.09936861
198	0xbd67dbc7	-0.05660608
199	0xbc9ad50d	-0.018900419
200	0xbd32dd48	-0.04366806
201	0xbc6c14e1	-0.014409275
202	0xbc9eef12	-0.019401107
203	0xbdc4a7c3	-0.096023105
204	0xbd7a5aad	-0.06112163
205	0x3d6f47d9	0.05841813
206	0xbd635099	-0.055496786
207	0x3cd1175c	0.025523834
208	0x3ddafccb	0.10692748
209	0x3dbb1df4	0.091365725
210	0xbd797d91	-0.060910765
211	0x3d6a9db6	0.05727931
212	0xbd5772e6	-0.05259981
213	0x3d35e51c	0.04440795
214	0x3da9b76e	0.082869396
215	0xbcc4fec6	-0.024047267
216	0xbc6190f9	-0.013767474
217	0xbb0485f5	-0.0020221446
218	0x3dc4fe2a	0.096187904
219	0x3c6ddef1	0.014518485
220	0xbb182641	-0.002321616
221	0xbd034b2c	-0.03205411
222	0x3d6eb231	0.058275405
223	0xbd1abacc	-0.0377758
224	0x3c8e07ec	0.017337762
225	0x3d866dc9	0.065639086
226	0x3cf36e24	0.029715605
227	0x3d62e243	0.05539156
228	0xbd906d84	-0.070521384
229	0xbd25fe56	-0.040525757
230	0x3cce4858	0.02518098
231	0xbcf8235d	-0.0302903
232	0x3cbafbbf	0.02282512
233	0x3dbda1c0	0.09259367
234	0xbcdf8435	-0.02728472
235	0xbca4c6d3	-0.020114338
236	0xbd0590ef	-0.032608923
237	0x3d9eff11	0.07763494
238	0x3da483ac	0.08032927
239	0x3d3985c0	0.04529357
240	0xbd9b248d	-0.07575331
241	0x3dbb86ff	0.09156608
242	0xbc682411	-0.014168755
243	0xbdcb7f16	-0.09936349
244	0xbde310fb	-0.11087223
245	0xbd6cf2f5	-0.05784889
246	0x3dc80c37	0.09767955
247	0xbd895eba	-0.06707521
248	0x3d94f9bf	0.07274198
249	0x3d9cdb3e	0.07659005
250	0xbd9e5f27	-0.077329926
251	0x3dd3994e	0.10331975
252	0x3da1c1f2	0.0789832
253	0xbd1b661b	-0.037939172
254	0xbd84ba0a	-0.06480797
255	0x3de50587	0.11182695

_problem._r._attn.in_proj_bias f4 [384]
0	0xbd0a5b97	-0.033778753
1	0x3da0f291	0.07858766
2	0x3c51315d	0.012768117
3	0x3cd5ea4f	0.026112704
4	0xbdd7dc8f	-0.10540115
5	0x3cea49b8	0.028599605
6	0xbd8fc605	-0.07020191
7	0x3d759b71	0.059962694
8	0x3d440571	0.04785675
9	0x3d114b85	0.03547241
10	0x3de55741	0.11198283
11	0xbd52ac29	-0.051433716
12	0x3e0d399c	0.13791507
13	0xbd034847	-0.03205135
14	0x3d63c484	0.055607334
15	0x3d3cc1c1	0.046083216
16	0x3dce184c	0.10063228
17	0xbe080c17	-0.13285862
18	0x3d825e3d	0.06365631
19	0x3e1258f2	0.14291742
20	0x3dddbc87	0.10826974
21	0xbd81f550	-0.06345618
22	0xbdb26465	-0.08710555
23	0xbd8e05a6	-0.06934671
24	0x3d970afc	0.07375142
25	0xbd842c9b	-0.0645382
26	0x3bf78be2	0.007554517
27	0xbd8c0d60	-0.068384886
28	0x3e0b37f9	0.1359557
29	0xbc3a46a3	-0.01136938
30	0x3dca9c6e	0.09893118
31	0xbd9d6f0f	-0.07687198
32	0xba9ad0ce	-0.0011811496
33	0xbd04fd74	-0.032468274
34	0xbe0ef9d8	-0.13962495
35	0x3da8515c	0.08218643
36	0xbc5c3ee1	-0.013442726
37	0xbcad60ef	-0.021164386
38	0xbd7d5e29	-0.061857376
39	0x3c10f5fe	0.008847712
40	0x3e5a420b	0.21314256
41	0xbc91a3ad	-0.017778242
42	0x3d60912c	0.054825947
43	0x3d81af3a	0.0633225
44	0xbd1e272b	-0.038611572
45	0xbd92b4ce	-0.07163392
46	0x3c54345f	0.012951939
47	0x3d46abc0	0.048503637
48	0x3da99091	0.08279527
49	0x3e60eb75	0.2196482
50	0xbd2a96ce	-0.041647725
51	0xbd5853a8	-0.052814156
52	0x3d72544c	0.059162423
53	0x3e08cee3	0.13360171
54	0xbd420194	-0.047364786
55	0x3cd87929	0.026424961
56	0x3e523e7a	0.20531645
57	0x3e1f992a	0.15585771
58	0xbcb0fa64	-0.02160377
59	0x3df6fc06	0.120597884
60	0x3aeb9fb9	0.0017976678
61	0xbd21e061	-0.039520625
62	0x3d687ef7	0.056761708
63	0x3e1d2192	0.15344837
64	0xbd884cc8	-0.0665527
65	0xbd942545	-0.07233671
66	0x3e80c11e	0.25147337
67	0xbd4c7f62	-0.04992617
68	0xbd9f6102	-0.07782175
69	0xbe320d78	-0.1738795
70	0xbd50357b	-0.050832253
71	0xbbc932ff	-0.0061401124
72	0x3da8d877	0.082444124
73	0x3e1ac9de	0.15116069
74	0xbb76d78b	-0.0037665095
75	0x3e06562d	0.13118811
76	0xbd4db91d	-0.050225366
77	0x3d6b690a	0.05747322
78	0x3e5d53d4	0.21614009
79	0xbc522b49	-0.012827703
80	0xbc2ce420	-0.010552436
81	0xbc71507e	-0.0147286635
82	0xbd0af059	-0.03392062
83	0x3d7e707c	0.062118992
84	0x3e33b8de	0.1755099
85	0x3b304996	0.002689933
86	0x3ccc5870	0.024944514
87	0xbdd8cdf1	-0.10586155
88	0x3dabecc9	0.083947726
89	0xbdcfc924	-0.101457864
90	0xbcb3f582	-0.021967653
91	0xbe3acd66	-0.18242416
92	0x3d37f61d	0.044912446
93	0x3d7d288e	0.061806254
94	0xbdafba8f	-0.08580505
95	0x3b0af3ca	0.0021202439
96	0x3e498183	0.19678311
97	0xbdf6df94	-0.12054363
98	0xbd7acaa2	-0.061228402
99	0x3c2cf4c1	0.010556401
100	0xbd54ce46	-0.05195453
101	0xbce1bd70	-0.027556151
102	0x3d38bca0	0.04510176
103	0x3e0833e1	0.1330104
104	0x3d498f76	0.04920908
105	0x3d25b85e	0.04045903
106	0xbd694c9b	-0.056957822
107	0x3d30266c	0.043005392
108	0x3d3abbac	0.045589134
109	0xbddacec6	-0.1068397
110	0xbd0582fa	-0.032595612
111	0x3c03707a	0.008022422
112	0xbd5eedc5	-0.054425973
113	0xbdce2f18	-0.10067576
114	0xbddfa997	-0.109210186
115	0x3e68b273	0.22724323
116	0x3db8ef27	0.0902999
117	0xbe5fb4c1	-0.21846296
118	0xbdf9b065	-0.12191848
119	0xbd795e00	-0.06088066
120	0x3e1df914	0.15427047
121	0xbd9bf91d	-0.07615874
122	0xbd8019c7	-0.06254917
123	0x3bbe033b	0.005798725
124	0xbbfe76db	-0.0077656335
125	0xbc2a3400	-0.010388374
126	0x3a269ccc	0.0006355762
127	0x3d8a7afb	0.06761738
128	0x2ff303af	4.420406e-10
129	0x2ffa8a3a	4.557295e-10
130	0xaf14c484	-1.3530338e-10
131	0xafcc566b	-3.7168787e-10
132	0x2e177433	3.443663e-11
133	0x300e3ba2	5.174404e-10
134	0x3064b961	8.3209356e-10
135	0xb11500bb	-2.168277e-09
136	0xb0a9f93e	-1.2367207e-09
137	0xb0959dcd	-1.0886027e-09
138	0x30514822	7.6136264e-10
139	0x2fb7007f	3.3287859e-10
140	0xb13c0cd0	-2.7364884e-09
141	0xb0bc0da0	-1.3682673e-09
142	0xaf3b32c4	-1.7025586e-10
143	0x30f02677	1.7473231e-09
144	0xaf4893da	-1.8242421e-10
145	0xb0a62252	-1.2087844e-09
146	0xb18387f7	-3.828059e-09
147	0xb10fefed	-2.094562e-09
148	0xb1625938	-3.2938043e-09
149	0xafadad54	-3.1591674e-10
150	0x307d64a1	9.2183866e-10
151	0xb036093d	-6.622434e-10
152	0xb1920d08	-4.2506407e-09
153	0x2fc94130	3.6608006e-10
154	0x3095a7b5	1.0888842e-09
155	0xae1fc6d6	-3.6329016e-11
156	0x2eb91cda	8.417951e-11
157	0xaf06e1bd	-1.2267427e-10
158	0xb12e6a67	-2.5380815e-09
159	0x2f35deeb	1.654105e-10
160	0x2f1c14f0	1.4195556e-10
161	0x30c1a52a	1.4089541e-09
162	0x30614693	8.1954815e-10
163	0x3105e5c1	1.9484647e-09
164	0x2f76cd48	2.24465e-10
165	0xac8cd8f2	-4.003125e-12
166	0xafc378bd	-3.5556083e-10
167	0xb004b69d	-4.828083e-10
168	0xb00bf865	-5.0920895e-10
169	0xaf9caa57	-2.8497268e-10
170	0x3054e650	7.7452444e-10
171	0xafd5ecb6	-3.8912668e-10
172	0xb0d29694	-1.5322308e-09
173	0xb106d7ac	-1.9622162e-09
174	0xb01934f3	-5.573632e-10
175	0xaeb38ffd	-8.165555e-11
176	0xb028451f	-6.121627e-10
177	0xb120b8d6	-2.3388131e-09
178	0x30ade655	1.2652871e-09
179	0xb0c5e844	-1.439965e-09
180	0xb066368c	-8.375103e-10
181	0x31416ebd	2.8148144e-09
182	0x2ed68861	9.755819e-11
183	0xb09f586e	-1.1593906e-09
184	0xb0e32026	-1.6525561e-09
185	0x31294ec5	2.4637512e-09
186	0xaf1d60bb	-1.4313432e-10
187	0xb0a18fb2	-1.1755132e-09
188	0x2fdf71ec	4.064441e-10
189	0xb047951b	-7.260767e-10
190	0x2f3d58ed	1.7221043e-10
191	0xb199bfda	-4.474697e-09
192	0x2f890648	2.4924618e-10
193	0xb04858b1	-7.2885614e-10
194	0x316c2cc9	3.4367977e-09
195	0x310d8652	2.0594553e-09
196	0xb013c5a6	-5.3759164e-10
197	0xb189be80	-4.008882e-09
198	0x2f35c7e3	1.6532868e-10
199	0xaf404119	-1.7485426e-10
200	0xb1a0b0e4	-4.676723e-09
201	0x2e53fa9a	4.8198424e-11
202	0x2fc9d580	3.6713388e-10
203	0xb1a0669c	-4.668278e-09
204	0x30da9ae9	1.5905616e-09
205	0x2f8cad23	2.5588873e-10
206	0x313877b2	2.6843563e-09
207	0xafbc046a	-3.4200137e-10
208	0xb02e3d1b	-6.338767e-10
209	0x300ef473	5.200668e-10
210	0x3046738a	7.219617e-10
211	0xb14bee98	-2.9676013e-09
212	0xb1667b39	-3.353945e-09
213	0xb0433d5a	-7.102777e-10
214	0xb060a6fb	-8.172802e-10
215	0x30394525	6.740087e-10
216	0xb11ced23	-2.2835784e-09
217	0x2f35c929	1.653332e-10
218	0x2f01fced	1.1822339e-10
219	0xaf1e9847	-1.4424116e-10
220	0xb02a39c4	-6.192773e-10
221	0xaf839b6e	-2.39392e-10
222	0xb02f3f88	-6.375491e-10
223	0xaf9439b4	-2.6962044e-10
224	0xb07feda5	-9.310617e-10
225	0xb0d4ef54	-1.5493051e-09
226	0x30c9bb12	1.4677843e-09
227	0xafff3f83	-4.6429358e-10
228	0x304ac771	7.3770595e-10
229	0x308c5ae2	1.0212171e-09
230	0xb01a08e5	-5.6037514e-10
231	0x313899a7	2.6862865e-09
232	0x2f41ec37	1.7637168e-10
233	0xafb394d8	-3.266567e-10
234	0x2f03146d	1.1921637e-10
235	0x3039a542	6.7537453e-10
236	0xb093ff85	-1.0768281e-09
237	0x312ede22	2.54466e-09
238	0x300d6413	5.1437715e-10
239	0x2eba7c2b	8.4803574e-11
240	0xb096e995	-1.0980324e-09
241	0xb0b82749	-1.3398928e-09
242	0x309e40b2	1.15144e-09
243	0xb030f9c4	-6.4383365e-10
244	0x3114399d	2.1569584e-09
245	0x31d076c1	6.0670975e-09
246	0xb0379df1	-6.679946e-10
247	0x30c22e50	1.4128521e-09
248	0x30ab834a	1.2479202e-09
249	0x310c5586	2.0421296e-09
250	0xb11094aa	-2.1039264e-09
251	0xaf0db9f7	-1.2889943e-10
252	0xae63486d	-5.167815e-11
253	0x2fb5e4f0	3.3086378e-10
254	0x30d22be9	1.5291991e-09
255	0xb0515a2a	-7.616189e-10

_problem._r._attn.out_proj.weight f4 [128, 128]
0	0xbdc2864f	-0.094982736
1	0x3dd62133	0.10455551
2	0xbdd3cb9e	-0.10341571
3	0x3e0c37b3	0.13693123
4	0xbc88ea9b	-0.016713431
5	0xbdf782af	-0.12085473
6	0xbc8bfd27	-0.017088486
7	0x3bcdb1f2	0.0062773162
8	0x3d807129	0.062715836
9	0xbd332a60	-0.043741584
10	0x3c04ab0d	0.008097422
11	0x3d9b3003	0.07577517
12	0xbdfe44e2	-0.12415482
13	0xbe38a256	-0.18030676
14	0x3cfa608e	0.030563619
15	0x3df29798	0.118453205
16	0xbdc77d2b	-0.09740671
17	0xbdecbf96	-0.115599796
18	0x3d95d610	0.0731622
19	0xbdb05a11	-0.08610929
20	0xbd967298	-0.07346076
21	0x3ca2a2a2	0.01985294
22	0x3b9e906b	0.0048389933
23	0xbd1f42be	-0.03888201
24	0x3db1acc4	0.086755306
25	0xbd449428	-0.047992855
26	0xbdb4efa2	-0.08834769
27	0xbd854b57	-0.065085106
28	0xbd7482b5	-0.059694964
29	0xbdd1d386	-0.10245423
30	0x3d59e9a7	0.053201344
31	0x3d88f78d	0.066878416
32	0x3c8329aa	0.016011078
33	0xbca569dc	-0.02019208
34	0xbceac6a5	-0.028659174
35	0xbd39d284	-0.04536678
36	0xbe15dd69	-0.14635243
37	0xbd34ca3e	-0.044138186
38	0xbdaace6b	-0.08340152
39	0x3dcf8468	0.10132676
40	0x3da949d0	0.08266032
41	0x3c9637ac	0.018337093
42	0x3dc27300	0.09494591
43	0xbd10b4e2	-0.035328753
44	0x3d726c80	0.059185505
45	0x3c4bb749	0.012433835
46	0xbd9aaed3	-0.07552876
47	0x3dadbc26	0.08483152
48	0xbd9e597d	-0.07731912
49	0xbc62bfc8	-0.0138396695
50	0x3d57524b	0.052568715
51	0x3d6b4024	0.057434216
52	0xbdada19a	-0.08478089
53	0xbcd810ba	-0.026375163
54	0xbd332046	-0.04373195
55	0xbc739b98	-0.014868639
56	0xbcc0ae46	-0.0235206
57	0x3d053438	0.032520503
58	0xbd8420b3	-0.064515494
59	0x3d37d17d	0.044877518
60	0xbd6f9813	-0.05849464
61	0x3be784f2	0.007065409
62	0x3cf2e93b	0.029652229
63	0x3e29a805	0.16568
64	0xbdb7efcd	-0.08981285
65	0xbd00a1bf	-0.031404253
66	0x3d805204	0.06265643
67	0xbe472c8b	-0.19450586
68	0x3e0c926b	0.13727729
69	0xbdeddb73	-0.11614122
70	0xbd3aadf3	-0.045576047
71	0x3db9cfd0	0.0907284
72	0xbe4f21ca	-0.20227733
73	0x3d56f7c2	0.052482374
74	0xbe15bb4c	-0.1462223
75	0x3c2258e7	0.009908891
76	0xbd05d8b7	-0.03267738
77	0x3cfd7593	0.030939853
78	0x3a64ca73	0.0008727677
79	0x3dda19bf	0.10649442
80	0x3d2754aa	0.040852226
81	0xbc35ed6d	-0.01110397
82	0xbdc08fe4	-0.09402445
83	0x3c0b7bab	0.008513371
84	0x3d5ef2c2	0.05443073
85	0x3d320567	0.043462183
86	0xbd9a49e3	-0.07533624
87	0xbd815932	-0.06315841
88	0x3cbeb9e1	0.023281993
89	0xbe1984c6	-0.14992055
90	0x3c41299b	0.011789705
91	0x3dd310f9	0.10305972
92	0x3d990bc2	0.07472946
93	0x3bb86e4f	0.005628384
94	0xbdf87a86	-0.121327445
95	0x3d933cb6	0.07189314
96	0xbad6b5be	-0.0016381068
97	0x3d98dc15	0.07463852
98	0x3b1c75b3	0.0023873865
99	0xbe1faa98	-0.1559242
100	0x3c9d5961	0.019207658
101	0x3c726be9	0.014796236
102	0xbcb165bb	-0.021654954
103	0xbd6dad48	-0.058026582
104	0xbdbfa0b0	-0.093568206
105	0xbce0d209	-0.027443903
106	0x3d56b88e	0.0524221
107	0xba91a276	-0.0011111039
108	0x3c5e32eb	0.0135619445
109	0xbd8cd494	-0.068764836
110	0xbda21dc9	-0.07915837
111	0xbdf7e2ad	-0.12103782
112	0xbe22495c	-0.15848297
113	0x3e184615	0.14870484
114	0xbd80f234	-0.062961966
115	0x3d9dc1b8	0.077029645
116	0x3d62729c	0.05528508
117	0xbd50eadc	-0.05100523
118	0x3c0c6046	0.008567875
119	0xbdf8fcf4	-0.12157622
120	0xbcc5aef7	-0.024131281
121	0xbdae601f	-0.085144274
122	0x3c1f15a5	0.00970975
123	0xbdab600e	-0.0836793
124	0x3c014a26	0.0078912135
125	0xbc9d69ab	-0.019215425
126	0xbcc55854	-0.02408997
127	0x3b95d4f1	0.0045725037
128	0x3cedaa78	0.02901195
129	0x3bf38e25	0.0074327164
130	0x3d4e3b8a	0.05034975
131	0x3d12011f	0.0356456
132	0x3d23f3d0	0.04002744
133	0xbb847af6	-0.0040429784
134	0x3d1904f5	0.037358243
135	0x3d700243	0.058595907
136	0xbb7ddde6	-0.0038736998
137	0x3e17c487	0.14821063
138	0xbdbf24ea	-0.09333213
139	0x3e4a9d8c	0.19786662
140	0x3e1adc21	0.15123035
141	0x3dbe7a0a	0.09300621
142	0xbdb7ca27	-0.089741044
143	0xbd37ec6b	-0.0449032
144	0x3dbf23cc	0.093329996
145	0x3cc9cdcb	0.024634263
146	0xbe1602c9	-0.146495
147	0x3d96a923	0.07356479
148	0x3dbe61e6	0.092960164
149	0x3e1136a5	0.14181001
150	0x3cf9e8b6	0.030506473
151	0x3b9bf630	0.0047595724
152	0xbe18aae1	-0.14908935
153	0x3dba33a0	0.09091878
154	0xbd1af56b	-0.037831705
155	0xbc0283e3	-0.007966015
156	0x3e02879e	0.12747046
157	0x3df02ccc	0.11727294
158	0xbda28f5a	-0.079374984
159	0x3d6b3a1d	0.057428468
160	0xbd2d308d	-0.04228263
161	0x3dbc56b1	0.091962226
162	0x3e19d1cb	0.15021436
163	0x3ca70189	0.020386474
164	0x3d6d0eff	0.05787563
165	0xbcaeace3	-0.021322673
166	0xbd8a3d65	-0.06749991
167	0xbcf2f35b	-0.029657057
168	0x3d833026	0.06405668
169	0x3d202507	0.039097812
170	0xbda1aaec	-0.07893929
171	0xbcaddf45	-0.021224627
172	0x3de69356	0.11258571
173	0xbded8ec5	-0.11599497
174	0xbda96962	-0.08272053
175	0xbd3a21e1	-0.045442466
176	0xbe19a70b	-0.15005128
177	0x3dab699a	0.08369751
178	0x3d6b0cbb	0.057385188
179	0x3c997079	0.018730389
180	0xbd43856c	-0.047734663
181	0x3be7717a	0.007063088
182	0x3c8a0a7a	0.016850699
183	0xbdb98033	-0.09057655
184	0x3d5c2781	0.05374861
185	0xbcc100a8	-0.023559883
186	0xbdc8ae94	-0.09798923
187	0xbd417a52	-0.047235794
188	0xbca20136	-0.019775968
189	0xbdae2fc3	-0.085052036
190	0x3ddaf4e9	0.10691244
191	0xbdb518cf	-0.088426225
192	0x3c3b9e1d	0.011451271
193	0x3e2eb06e	0.1705949
194	0x3d97d723	0.07414081
195	0x3d35d9ea	0.044397272
196	0xbdbe29dc	-0.09285328
197	0x3d0f924c	0.03505163
198	0x3d4205d0	0.047368824
199	0x3d88a00f	0.06671154
200	0xbcadeaf5	-0.0212302
201	0x3bdb06d9	0.006684166
202	0xbd5346d8	-0.051581234
203	0xbd832705	-0.06403927
204	0x3e03b50d	0.12862034
205	0x3deaf6c1	0.11472846
206	0x3c89337e	0.016748186
207	0x3e205e8a	0.15661064
208	0x3d04d691	0.03243119
209	0xbe15216d	-0.14563532
210	0x3e11c34a	0.14234653
211	0x3cf8cf00	0.030372143
212	0x3dc8c4cd	0.09803162
213	0xbd3d2f8e	-0.04618793
214	0xbcdec1bb	-0.027191987
215	0x3d9476df	0.07249235
216	0xbd07339c	-0.033008203
217	0xbdaa5cea	-0.08318503
218	0xbd5db25c	-0.054125175
219	0x38a06e38	7.6499244e-05
220	0xbe1fe91f	-0.15616272
221	0xbdb28a20	-0.087177515
222	0xbd6f5aab	-0.058436077
223	0x3e2fb37a	0.17158309
224	0x3dbb1283	0.0913439
225	0x3cedd1ea	0.029030759
226	0xbe12840c	-0.14308184
227	0xbdab44b4	-0.083627135
228	0xbd51fe6b	-0.051268023
229	0x3e13ace9	0.14421429
230	0x3cecd6eb	0.028911075
231	0xbd98d2f7	-0.07462113
232	0x3d8d7ab6	0.06908171
233	0xbe194201	-0.14966585
234	0x3dfdc0d0	0.12390292
235	0x3cf2c69e	0.029635724
236	0xbe2ceb9e	-0.16886756
237	0xbaa6a1dc	-0.0012713033
238	0x3db13d60	0.086542845
239	0xbd060d0e	-0.032727294
240	0x3cac6d3f	0.021048186
241	0xbdf36059	-0.11883611
242	0xbcaa3507	-0.020777239
243	0x3d941a04	0.072315246
244	0x3d13fee6	0.036131762
245	0x3de6bac0	0.112660885
246	0x3b1ef82b	0.0024256806
247	0x3d8872d8	0.0666253
248	0x3de6acea	0.112634495
249	0xbd96d0fa	-0.07364078
250	0xbe0ea5d8	-0.13930452
251	0xbd69dabc	-0.057093367
252	0x3d963cf1	0.073358424
253	0x3cab2cea	0.02089544
254	0x3d34f80a	0.04418186
255	0x3db05b0e	0.08611117

_problem._r._attn.out_proj.bias f4 [128]
0	0x3d1c94e0	0.038227916
1	0x3cbb15d2	0.022837553
2	0x3da17a02	0.07884599
3	0xbc54df42	-0.012992682
4	0x3d3893b8	0.04506275
5	0x3d746b7d	0.05967282
6	0xbd23c644	-0.039984003
7	0xbd68ea34	-0.05686398
8	0x3d7ce460	0.061741233
9	0xbcdba055	-0.02680985
10	0xbe0497cb	-0.1294853
11	0x3cc8b1ce	0.024498846
12	0xbd30ba84	-0.043146625
13	0xbde3f2e8	-0.11130315
14	0xbc0f9d17	-0.0087654805
15	0x3d97451b	0.07386228
16	0xbe302954	-0.17203265
17	0xbe10b4e6	-0.14131507
18	0x3e060118	0.13086355
19	0xbd558644	-0.05213
20	0x3b310d5a	0.0027016015
21	0x3dba1379	0.09085745
22	0xbd94a901	-0.072587974
23	0x3cc8ac06	0.02449609
24	0xbd9363f6	-0.071968004
25	0xbcbd5ffc	-0.023117058
26	0x3e157110	0.14593911
27	0x3ce51e39	0.027968513
28	0x3d5773d3	0.052600693
29	0xbdd17c0e	-0.1022874
30	0xbd3def62	-0.04637087
31	0x3dd6798e	0.104724035
32	0x3d888739	0.06666417
33	0xbd97cbc3	-0.07411911
34	0xbd787067	-0.06065407
35	0xbd4cd51f	-0.050007936
36	0xbb24621b	-0.002508289
37	0x3d04ae46	0.032392763
38	0x3d8b159d	0.06791232
39	0xbd66b790	-0.056327403
40	0x3df4fada	0.11961909
41	0x3d411459	0.047138546
42	0x3dfe816a	0.124270275
43	0xbc5f3ab9	-0.01362484
44	0x3d07cc6d	0.03315394
45	0xbdf17565	-0.11789969
46	0x3ccb3e2a	0.024809916
47	0xbddd0fc2	-0.10794021
48	0xbcd6b89c	-0.026211075
49	0xbe198c23	-0.14994864
50	0x3a8c538e	0.0010706054
51	0xbe30dc5d	-0.17271562
52	0xbde10771	-0.109877475
53	0xbd743599	-0.059621427
54	0x3e1328c6	0.14371023
55	0x3becf4ad	0.007231316
56	0xbcef118f	-0.029183177
57	0xbd4541ef	-0.048158582
58	0x3e242641	0.16030218
59	0x3e262a20	0.16227007
60	0xbd9b3ea5	-0.07580308
61	0x3ddd1f32	0.10796966
62	0xbd5f82be	-0.054568045
63	0xbd95f205	-0.07321552
64	0xbdac5770	-0.08415115
65	0x3cdb6717	0.026782556
66	0xbd478e68	-0.048719794
67	0xbdb5fd91	-0.088862546
68	0xbd8e509e	-0.0694897
69	0xbc35dce8	-0.011100031
70	0x3d4209b2	0.047372527
71	0xbda8bd6e	-0.08239256
72	0x3e31d260	0.17365408
73	0xbd305746	-0.04305198
74	0x3d76c15d	0.060243
75	0x3defbb5b	0.11705657
76	0xbdd6ec6f	-0.10494315
77	0x3d3a9028	0.045547634
78	0x3e20a9a5	0.15689714
79	0x3d6be309	0.057589564
80	0x3dd3bbf2	0.10338582
81	0xbba053c9	-0.0048928005
82	0x3df1da61	0.118092306
83	0xbc91a9b3	-0.017781114
84	0xbd267954	-0.04064305
85	0x3cbe9091	0.023262294
86	0xbc426cce	-0.011866761
87	0x3d51f498	0.051258653
88	0xbd5eacba	-0.054363944
89	0xbd7b7f10	-0.061400473
90	0xbdde50f4	-0.10855284
91	0x3d6ab556	0.05730184
92	0x3e21c276	0.15796837
93	0x3beafaeb	0.007171025
94	0xbd773b05	-0.06035902
95	0xbd22fad9	-0.03979001
96	0xbdce5b57	-0.100760154
97	0x3e064545	0.13112362
98	0x3dc4181c	0.09574911
99	0xbde59f45	-0.11212019
100	0x3d44b131	0.048020545
101	0xbbc08a0a	-0.0058758305
102	0xbe19da7d	-0.15024753
103	0x3b931e70	0.0044897124
104	0xbdd4fbe2	-0.10399605
105	0x3db5387e	0.08848666
106	0xbe3282c2	-0.17432693
107	0xbd66e3d1	-0.056369606
108	0x3d53a929	0.051674996
109	0xbda13163	-0.07870748
110	0xbdf64602	-0.12025072
111	0x3b6ee1dc	0.003645054
112	0x3e114240	0.14185429
113	0xbda59cb3	-0.08086529
114	0x3bd059b8	0.0063583516
115	0xbdfffe83	-0.12499716
116	0x3c66d103	0.014087918
117	0xbda7d2bd	-0.08194492
118	0x3cb84ee3	0.022498554
119	0xbe36bedc	-0.17846245
120	0x3d4860c6	0.048920415
121	0xbd98423b	-0.074345075
122	0x3c88452c	0.016634546
123	0xbe155758	-0.145841
124	0xbde54bea	-0.1119612
125	0xbdce0ce1	-0.1006105
126	0xbdb4fc25	-0.08837155
127	0xbd919abf	-0.071095936
