experiment/digit_classifier/version_7/checkpoints/best.ckpt (torch, 451492 bytes, 17 tensors)

_problem._r1._cls_token f4 [1, 1, 128]
0	0xba789174	-0.00094821234
1	0x3a718425	0.00092131115
2	0xba5d4963	-0.00084414164
3	0xbad566c7	-0.001628124
4	0x3b0ae4a7	0.0021193416
5	0x3acf28f8	0.0015805056
6	0xbafa8f49	-0.0019116189
7	0x39560ce3	0.00020413431
8	0x37e34c5f	2.7096072e-05
9	0x3ac21160	0.0014806204
10	0x39f5dc53	0.00046894196
11	0x39618e82	0.0002151076
12	0xb9bc88ec	-0.0003596017
13	0xb9851b43	-0.00025388048
14	0xb9987248	-0.00029076845
15	0xb9ae105f	-0.00033200064
16	0xb9cc0fc5	-0.0003892166
17	0x3a43b5e2	0.00074657623
18	0x398c8419	0.000268013
19	0xbaa9be3d	-0.0012950372
20	0xbac79954	-0.001522819
21	0x3ade90d2	0.0016980416
22	0xb8daa84a	-0.00010426396
23	0x3ae69e62	0.0017594809
24	0xb89b126d	-7.394408e-05
25	0x3a7cce32	0.00096437626
26	0x3ab66cc7	0.0013917916
27	0x396fc8ed	0.00022867667
28	0xbaf16de2	-0.0018419588
29	0x3ac81883	0.0015266094
30	0xb79b1d3f	-1.8491059e-05
31	0x3a5c55c3	0.00084051135
32	0x3a4d18ff	0.0007823854
33	0x3ac60fe4	0.0015110937
34	0x3a6eb2f2	0.00091056444
35	0x39d74085	0.00041056066
36	0xba2d6e6e	-0.00066158816
37	0xb989b9c9	-0.00026269097
38	0xba1ffed0	-0.00061033387
39	0x3aca9309	0.0015455197
40	0xb91b9ef5	-0.00014841168
41	0xb8a74eb2	-7.977839e-05
42	0xb9db29e4	-0.00041802146
43	0x39d9179c	0.00041407056
44	0xbaef3590	-0.0018250216
45	0xb98f5b3c	-0.0002734306
46	0xb9395d60	-0.0001767776
47	0xba2b6893	-0.0006538715
48	0xbab3ac1f	-0.0013707912
49	0x39d29965	0.0004016861
50	0xb90a8ef3	-0.00013213958
51	0xba64c092	-0.0008726205
52	0xb98f8da5	-0.0002738062
53	0x3b4c6d4b	0.0031193073
54	0x3a9edf80	0.0012121052
55	0xba04cf96	-0.0005066333
56	0x3a73c192	0.00092985586
57	0x38cebcdb	9.8580225e-05
58	0xb9db717e	-0.00041855493
59	0xba257d76	-0.00063129456
60	0x3aa46d98	0.0012544869
61	0x395964d6	0.00020732297
62	0xb9ae7f75	-0.0003328283
63	0xba4e991a	-0.000788109
64	0xba80791f	-0.0009801722
65	0x387f929e	6.0933286e-05
66	0xba1fb27f	-0.00060919666
67	0xbb042b9c	-0.0020167595
68	0xbab00c6a	-0.0013431434
69	0xba9bba6b	-0.0011881118
70	0xb982c13a	-0.00024939497
71	0xbabd94ed	-0.0014463939
72	0x3a3febb6	0.00073211954
73	0xba85e84b	-0.0010216323
74	0xba2682be	-0.00063518796
75	0x38e4f534	0.0001091756
76	0x3a83f88f	0.0010068583
77	0x3a151db6	0.0005688326
78	0xb94a2f4d	-0.00019281842
79	0xbb9425f4	-0.004521126
80	0x38f0a9b8	0.000114757044
81	0xbabbdd06	-0.0014332838
82	0xb9a11fda	-0.00030732044
83	0xb93e43cf	-0.00018145073
84	0x39ef1d6c	0.00045607553
85	0xbb0dab4b	-0.002161699
86	0x3736eefa	1.0903686e-05
87	0x38d1f9d6	0.00010012432
88	0x3a96ad2c	0.0011495701
89	0xbb19caa0	-0.0023466721
90	0xba4f5b45	-0.00079100236
91	0xb9845b43	-0.00025244997
92	0x3a8ce281	0.0010748656
93	0xb7d007b4	-2.479912e-05
94	0xba1bb1de	-0.0005939285
95	0x3a90a793	0.0011036269
96	0xb8eaf70b	-0.00011204005
97	0x39a202d3	0.00030901152
98	0xba005cfa	-0.0004896667
99	0x3986df52	0.00025724858
100	0xba690061	-0.0008888301
101	0x398cf1e8	0.00026883115
102	0x3a33aca3	0.0006854033
103	0x39861549	0.0002557433
104	0x3a9833db	0.0011612134
105	0x39e0b94b	0.00042862663
106	0x3a19025c	0.00058368384
107	0x39986331	0.00029065603
108	0x38c1b4d7	9.236641e-05
109	0x3a9fb516	0.0012184705
110	0x3a9a7301	0.0011783541
111	0xb838cb4b	-4.405835e-05
112	0x38334261	4.2738746e-05
113	0x3a56d83c	0.00081956736
114	0x3a82d52d	0.0009981744
115	0xba9189a2	-0.001110364
116	0x3a575750	0.00082146097
117	0xba1ea782	-0.0006052182
118	0xb9155dcd	-0.00014244691
119	0xb9974eca	-0.00028859667
120	0xba5069bc	-0.0007950326
121	0xb95636ef	-0.00020429095
122	0xba02382e	-0.0004967478
123	0x3932ac31	0.00017039549
124	0xba006204	-0.0004897418
125	0x3ab369b8	0.0013688123
126	0xba1ff282	-0.0006101505
127	0x3a7bbd52	0.0009603101

_problem._r1._pos_embed f4 [1, 17, 128]
0	0xba789174	-0.00094821234
1	0x3a718425	0.00092131115
2	0xba5d4963	-0.00084414164
3	0xbad566c7	-0.001628124
4	0x3b0ae4a7	0.0021193416
5	0x3acf28f8	0.0015805056
6	0xbafa8f49	-0.0019116189
7	0x39560ce3	0.00020413431
8	0x37e34c5f	2.7096072e-05
9	0x3ac21160	0.0014806204
10	0x39f5dc53	0.00046894196
11	0x39618e82	0.0002151076
12	0xb9bc88ec	-0.0003596017
13	0xb9851b43	-0.00025388048
14	0xb9987248	-0.00029076845
15	0xb9ae105f	-0.00033200064
16	0xb9cc0fc5	-0.0003892166
17	0x3a43b5e2	0.00074657623
18	0x398c8419	0.000268013
19	0xbaa9be3d	-0.0012950372
20	0xbac79954	-0.001522819
21	0x3ade90d2	0.0016980416
22	0xb8daa84a	-0.00010426396
23	0x3ae69e62	0.0017594809
24	0xb89b126d	-7.394408e-05
25	0x3a7cce32	0.00096437626
26	0x3ab66cc7	0.0013917916
27	0x396fc8ed	0.00022867667
28	0xbaf16de2	-0.0018419588
29	0x3ac81883	0.0015266094
30	0xb79b1d3f	-1.8491059e-05
31	0x3a5c55c3	0.00084051135
32	0x3a4d18ff	0.0007823854
33	0x3ac60fe4	0.0015110937
34	0x3a6eb2f2	0.00091056444
35	0x39d74085	0.00041056066
36	0xba2d6e6e	-0.00066158816
37	0xb989b9c9	-0.00026269097
38	0xba1ffed0	-0.00061033387
39	0x3aca9309	0.0015455197
40	0xb91b9ef5	-0.00014841168
41	0xb8a74eb2	-7.977839e-05
42	0xb9db29e4	-0.00041802146
43	0x39d9179c	0.00041407056
44	0xbaef3590	-0.0018250216
45	0xb98f5b3c	-0.0002734306
46	0xb9395d60	-0.0001767776
47	0xba2b6893	-0.0006538715
48	0xbab3ac1f	-0.0013707912
49	0x39d29965	0.0004016861
50	0xb90a8ef3	-0.00013213958
51	0xba64c092	-0.0008726205
52	0xb98f8da5	-0.0002738062
53	0x3b4c6d4b	0.0031193073
54	0x3a9edf80	0.0012121052
55	0xba04cf96	-0.0005066333
56	0x3a73c192	0.00092985586
57	0x38cebcdb	9.8580225e-05
58	0xb9db717e	-0.00041855493
59	0xba257d76	-0.00063129456
60	0x3aa46d98	0.0012544869
61	0x395964d6	0.00020732297
62	0xb9ae7f75	-0.0003328283
63	0xba4e991a	-0.000788109
64	0xba80791f	-0.0009801722
65	0x387f929e	6.0933286e-05
66	0xba1fb27f	-0.00060919666
67	0xbb042b9c	-0.0020167595
68	0xbab00c6a	-0.0013431434
69	0xba9bba6b	-0.0011881118
70	0xb982c13a	-0.00024939497
71	0xbabd94ed	-0.0014463939
72	0x3a3febb6	0.00073211954
73	0xba85e84b	-0.0010216323
74	0xba2682be	-0.00063518796
75	0x38e4f534	0.0001091756
76	0x3a83f88f	0.0010068583
77	0x3a151db6	0.0005688326
78	0xb94a2f4d	-0.00019281842
79	0xbb9425f4	-0.004521126
80	0x38f0a9b8	0.000114757044
81	0xbabbdd06	-0.0014332838
82	0xb9a11fda	-0.00030732044
83	0xb93e43cf	-0.00018145073
84	0x39ef1d6c	0.00045607553
85	0xbb0dab4b	-0.002161699
86	0x3736eefa	1.0903686e-05
87	0x38d1f9d6	0.00010012432
88	0x3a96ad2c	0.0011495701
89	0xbb19caa0	-0.0023466721
90	0xba4f5b45	-0.00079100236
91	0xb9845b43	-0.00025244997
92	0x3a8ce281	0.0010748656
93	0xb7d007b4	-2.479912e-05
94	0xba1bb1de	-0.0005939285
95	0x3a90a793	0.0011036269
96	0xb8eaf70b	-0.00011204005
97	0x39a202d3	0.00030901152
98	0xba005cfa	-0.0004896667
99	0x3986df52	0.00025724858
100	0xba690061	-0.0008888301
101	0x398cf1e8	0.00026883115
102	0x3a33aca3	0.0006854033
103	0x39861549	0.0002557433
104	0x3a9833db	0.0011612134
105	0x39e0b94b	0.00042862663
106	0x3a19025c	0.00058368384
107	0x39986331	0.00029065603
108	0x38c1b4d7	9.236641e-05
109	0x3a9fb516	0.0012184705
110	0x3a9a7301	0.0011783541
111	0xb838cb4b	-4.405835e-05
112	0x38334261	4.2738746e-05
113	0x3a56d83c	0.00081956736
114	0x3a82d52d	0.0009981744
115	0xba9189a2	-0.001110364
116	0x3a575750	0.00082146097
117	0xba1ea782	-0.0006052182
118	0xb9155dcd	-0.00014244691
119	0xb9974eca	-0.00028859667
120	0xba5069bc	-0.0007950326
121	0xb95636ef	-0.00020429095
122	0xba02382e	-0.0004967478
123	0x3932ac31	0.00017039549
124	0xba006204	-0.0004897418
125	0x3ab369b8	0.0013688123
126	0xba1ff282	-0.0006101505
127	0x3a7bbd52	0.0009603101
128	0x3e88712b	0.2664884
129	0xbe10e404	-0.14149481
130	0x3db6adb0	0.08919847
131	0x3ec378a0	0.38177967
132	0x3ebe54c3	0.37174043
133	0x3c849000	0.016181946
134	0x3d3f85e8	0.046758562
135	0xbd9cee44	-0.07662633
136	0xbef01c1a	-0.4689644
137	0x3e3522f6	0.17689118
138	0x3eaf984c	0.3429588
139	0x3e9dc663	0.3081542
140	0x3e0435a5	0.12911089
141	0x3d8097df	0.06278967
142	0xbc4c8d4d	-0.012484861
143	0x3c56d1e5	0.013111566
144	0xbec1b019	-0.37829664
145	0x3dd2ae63	0.10287168
146	0x3f07d90b	0.53065556
147	0xbf3883d8	-0.7207618
148	0x3de6514f	0.11245977
149	0x3f25e1da	0.6479775
150	0x3e4635fa	0.19356528
151	0xbcc09415	-0.023508111
152	0xbe968244	-0.2939626
153	0xbd3ae459	-0.045627926
154	0x3f1fd159	0.62428814
155	0xbd0d96d2	-0.03456766
156	0xbe9ca225	-0.30592456
157	0x3df87d94	0.12133327
158	0x3e4cdb31	0.2000549
159	0xbf16d9aa	-0.5892588
160	0x3e43e926	0.19131908
161	0x3ea46445	0.3210775
162	0xbbd8bdfa	-0.006614444
163	0xbc86a40f	-0.016435651
164	0x3b84b29b	0.0040496117
165	0x3e5e8ace	0.21732637
166	0x3e2a7a4a	0.16648212
167	0x3e1c6988	0.15274632
168	0xbd0c5117	-0.03425702
169	0xbcc507c7	-0.02405156
170	0xbdfc6704	-0.12324336
171	0xbeccea3c	-0.40022457
172	0xbe1e12aa	-0.15436807
173	0x3f3d443f	0.7393226
174	0xbbfd3dfb	-0.007728336
175	0x3e2ab579	0.16670789
176	0xbdc6b280	-0.09702015
177	0x3e9043cf	0.28176734
178	0x3e333c02	0.1750336
179	0xbe1cea38	-0.15323722
180	0x3e06a587	0.13149081
181	0x3d2e20d7	0.042511787
182	0xbd254ef3	-0.040358495
183	0xbee05e5d	-0.43821993
184	0x3d8991c0	0.06717253
185	0x3d4eb95d	0.050469745
186	0xbecc967d	-0.39958563
187	0xbe0119d8	-0.12607515
188	0xbd70a40b	-0.058750194
189	0x3da941b8	0.08264488
190	0x3d8f3197	0.069918804
191	0x3eae65a9	0.34061936
192	0xbf4366a7	-0.7632851
193	0x3ea927a2	0.3303805
194	0x3e71c888	0.23611653
195	0xbebef800	-0.37298584
196	0x3d010ff0	0.03150934
197	0xbd79a057	-0.060943928
198	0x3f459c90	0.7719202
199	0xbe33a586	-0.17543611
200	0x3e4e42ae	0.20142624
201	0xbeb4b30b	-0.3529285
202	0x3cf48577	0.029848797
203	0xbccb784f	-0.024837641
204	0xbd6f1b6a	-0.058375753
205	0xbde58854	-0.11207643
206	0xbf3f5a31	-0.74746996
207	0xbe2b73bb	-0.16743366
208	0xbe9128ee	-0.2835154
209	0xbd1d5233	-0.03840847
210	0xbd921c1b	-0.07134267
211	0x3e400920	0.18753481
212	0xbea35d8e	-0.31907314
213	0x3e2b9a56	0.16758093
214	0x3ddbe99c	0.10737917
215	0x3f125425	0.57159644
216	0x3d18ac22	0.037273534
217	0xbf5226dc	-0.82090545
218	0x3e8427f1	0.25811723
219	0x3d00b203	0.031419765
220	0xbe09ef79	-0.13470258
221	0xbe2c8a76	-0.16849694
222	0xbe855114	-0.2603842
223	0x3ebb4fb3	0.36584243
224	0x3d4de924	0.05027117
225	0x3e3ab159	0.18231715
226	0xbe70f601	-0.23531343
227	0x3ea27543	0.3173009
228	0xbe006133	-0.12537079
229	0x3e588e9e	0.21148154
230	0x3dda5f7b	0.10662743
231	0xbe4b2511	-0.19838358
232	0xbe49096a	-0.19632497
233	0xbe9cc147	-0.3061621
234	0x3e006453	0.1253827
235	0xbed968ae	-0.42462677
236	0xbc865408	-0.016397491
237	0x3d8ad43a	0.0677876
238	0xbda85541	-0.08219386
239	0xbec4a41f	-0.38406464
240	0x3e1da409	0.15394606
241	0xbdcd7e96	-0.1003391
242	0x3e34055e	0.17580172
243	0xbda6836b	-0.08130535
244	0x3e237ff1	0.15966775
245	0xbf9ad9a7	-1.2097672
246	0xbe029d2c	-0.12755269
247	0xbd2b4181	-0.041810516
248	0xbe9f4a80	-0.31111526
249	0xbef024cd	-0.46903077
250	0x3dcafc18	0.09911364
251	0x3d7026ba	0.058630683
252	0xbe72eb9e	-0.23722693
253	0x3eae1036	0.33996743
254	0x3de0f85f	0.10984873
255	0xbe8dbd0c	-0.27683294

_problem._r1._patch_embedding.0.weight f4 [128, 1, 7, 7]
0	0x3d88838b	0.06665715
1	0x3c486cef	0.012233003
2	0x3e08681b	0.13320963
3	0x3d022b54	0.031779602
4	0xbcd05600	-0.025431633
5	0x3d2745b5	0.040837962
6	0xbe1a7add	-0.15085931
7	0x3c14d63c	0.009084281
8	0xbd490fd7	-0.04908737
9	0x3cfedec7	0.031112088
10	0x3b9cfdff	0.004791021
11	0xbd9b9991	-0.0759765
12	0x3ddb2a2e	0.107014045
13	0xbc70a0d4	-0.014686782
14	0xbd64e502	-0.05588246
15	0xbd702572	-0.05862946
16	0x3dd911eb	0.10599121
17	0x3d65cd14	0.05610378
18	0xbdae8f3a	-0.08523412
19	0xbd0eeb7f	-0.034892555
20	0xbda4a6d7	-0.08039635
21	0x3d871bbd	0.065970875
22	0x3c6b8c39	0.014376693
23	0x3dd5bbdf	0.10436224
24	0x3dbffe0b	0.09374627
25	0x3e188a65	0.14896543
26	0x3b15be47	0.002284901
27	0x3d28242c	0.04105012
28	0xbddbbf33	-0.10729828
29	0x3dd54ac6	0.104146525
30	0xbcb51642	-0.02210534
31	0x3d141673	0.03615422
32	0xbe1780e0	-0.14795256
33	0xbe2e1e27	-0.1700369
34	0xbdad927c	-0.08475205
35	0x3d897615	0.067119755
36	0xbc367fe7	-0.011138893
37	0x3d3aa309	0.04556564
38	0x3c56510f	0.013080849
39	0x3d235d74	0.039884046
40	0xbda65959	-0.081225105
41	0xbd50bacd	-0.050959397
42	0x3d875b29	0.06609184
43	0x3d7fa9ad	0.062417675
44	0x3cb85196	0.02249984
45	0xbd90e2ce	-0.070745096
46	0x3de92e13	0.11385741
47	0xbce16a08	-0.02751638
48	0x3e40a4ab	0.18812816
49	0x3d82fb0a	0.06395538
50	0xbdc92c32	-0.09822883
51	0x3dddd0cf	0.10830843
52	0xbcbefb2c	-0.023313127
53	0x3b8a6d85	0.0042244815
54	0xbd768d37	-0.060193267
55	0xbe000050	-0.12500119
56	0x3dd7e954	0.10542551
57	0x3df88263	0.12134244
58	0x3e013315	0.12617142
59	0xbd5cc09d	-0.053894628
60	0xbd872953	-0.06599679
61	0x3d54a8e7	0.05191889
62	0x3d9f50cb	0.07779082
63	0x3e068c17	0.13139378
64	0x3d9fbdba	0.07799859
65	0x3daac6b3	0.0833868
66	0xbd83399f	-0.06407475
67	0xbd810cca	-0.063012674
68	0x3d07bb11	0.033137385
69	0x3e042810	0.12905908
70	0x3da5c3bb	0.08093973
71	0xbd985e21	-0.07439829
72	0x3daf26bd	0.085523106
73	0xbc84cbff	-0.016210554
74	0xbba814e5	-0.005129444
75	0x3d6e7cc4	0.058224455
76	0x3de04214	0.109501034
77	0xbaad2e30	-0.0013212617
78	0xbe03c464	-0.12867886
79	0xbcba09dd	-0.022709781
80	0xb90c8ed8	-0.00013404654
81	0xbdd6cd3e	-0.104883656
82	0xbd63617a	-0.055512883
83	0xbd1e90a4	-0.03871216
84	0x3e25e732	0.16201475
85	0x3c9ea9ab	0.019368013
86	0x3dcf32f1	0.10117138
87	0x3dbee660	0.09321284
88	0x3d423d7d	0.04742192
89	0xbbcadba5	-0.0061907344
90	0x3d017550	0.03160602
91	0x3cb52667	0.022113038
92	0x3ba3cd24	0.00499882
93	0xbde40c73	-0.11135187
94	0x3beed8ca	0.007289027
95	0x3ba02ed6	0.004888396
96	0x3c246573	0.010033953
97	0x3da44062	0.080200925
98	0xbd251187	-0.04029992
99	0x3d1a90a3	0.037735593
100	0xbd28449a	-0.04108105
101	0x3d25f00b	0.040512126
102	0xbc903efc	-0.017608158
103	0x3dcc2eb2	0.09969844
104	0xbe13b5f8	-0.14424884
105	0xbbb8f975	-0.005644972
106	0x3d9cd66a	0.07658084
107	0x3d98b3c6	0.07456164
108	0xbc9a4171	-0.018830033
109	0x3d195972	0.037438817
110	0x3d994654	0.07484117
111	0xbd6c5e35	-0.05770703
112	0x3dcb50b2	0.09927501
113	0xbde474b0	-0.11155069
114	0xbc83b91c	-0.016079478
115	0x3cb2c1c7	0.021820916
116	0xbdfa64d2	-0.12226261
117	0xbc31dbae	-0.010855598
118	0x3c7481ed	0.014923555
119	0x3d742508	0.05960563
120	0x3db77db7	0.08959525
121	0xbd1f8afe	-0.038950913
122	0x3dc9382a	0.098251656
123	0xbd684838	-0.0567095
124	0x3c271360	0.01019749
125	0xbcba9164	-0.022774406
126	0x3b838f5a	0.0040148916
127	0xbda53e34	-0.08068505
128	0x3da5711b	0.08078214
129	0xbe0a292e	-0.13492271
130	0x3d5a3c5c	0.05328022
131	0xbd291d46	-0.041287683
132	0xbd8ff872	-0.07029809
133	0x3dace71a	0.084425166
134	0xbd83b3df	-0.06430792
135	0x3dea70b2	0.11447276
136	0xbcec5897	-0.028850837
137	0x3ce75fd1	0.028243931
138	0x3cfd636d	0.030931199
139	0x3decb5cd	0.11558113
140	0xbd639873	-0.05556531
141	0x3cd9d26e	0.026589599
142	0xbd4a3eb3	-0.0493762
143	0xbd9a7ac5	-0.07542948
144	0x3ca3901a	0.019966174
145	0xbde17250	-0.110081315
146	0x3df86d3a	0.12130208
147	0xbc2b9daf	-0.010474606
148	0xbd9bf39c	-0.07614824
149	0x3d761ffd	0.0600891
150	0x3d99a332	0.0750183
151	0xbc474f3c	-0.012164887
152	0xbd863c66	-0.06554489
153	0xbd3a2b46	-0.045451425
154	0x3d195fc1	0.037444834
155	0x3e094cbf	0.13408183
156	0xbc4d1b23	-0.012518677
157	0xbd110197	-0.035401907
158	0xbdd9dcc5	-0.106378116
159	0x3d2fd908	0.042931587
160	0x3d9fc068	0.078003705
161	0x3d77d9a1	0.06051028
162	0x3d1238b1	0.035698596
163	0x3cf5adad	0.029990042
164	0x3cb909db	0.022587707
165	0xbbe72217	-0.0070536244
166	0xbbe1cb07	-0.006890658
167	0x3c6b55d7	0.0143637275
168	0x3d86bc11	0.065788396
169	0x3d2ddf28	0.042449147
170	0x3d9eb4e9	0.077493496
171	0x3dd191b3	0.10232868
172	0x3d5bdb18	0.05367574
173	0x3cece83f	0.028919337
174	0xbcf17a46	-0.02947725
175	0x3d822312	0.063543454
176	0xbad40629	-0.0016176152
177	0x3db54144	0.08850339
178	0xbce33ca1	-0.027738871
179	0x3bb55e4d	0.005534923
180	0x3d4c1e66	0.049833678
181	0x3cc81fa4	0.02442915
182	0x3e37025a	0.17871991
183	0x3da9940d	0.082801916
184	0x3e0431c9	0.12909617
185	0x3dd38086	0.10327248
186	0x3d857bb0	0.06517732
187	0x3bb1b192	0.0054227794
188	0x3d854ca9	0.065087624
189	0x3e56f4da	0.20991841
190	0x3d13341c	0.035938367
191	0x3e322b14	0.17399246
192	0x3d626a68	0.05527726
193	0x3d328359	0.043582294
194	0x3d671877	0.056419816
195	0x3dee6121	0.116396196
196	0x3da92862	0.082596555
197	0x3d678512	0.05652339
198	0xbda3935f	-0.07987093
199	0x3da6d676	0.08146374
200	0xbd3a222e	-0.045442753
201	0xbd0dc94c	-0.0346158
202	0xbde9f3dd	-0.11423466
203	0xbd920656	-0.07130115
204	0xbbc6c6ff	-0.0060662027
205	0xbd3ccf9a	-0.04609642
206	0x3dc2d5a3	0.09513404
207	0x3cf39e3e	0.029738542
208	0x3d44961c	0.047994718
209	0x3d8c9bc0	0.068656445
210	0x3d0a3b2e	0.033747844
211	0x3da21263	0.07913663
212	0x3e0b7268	0.13617861
213	0xbd8f38cd	-0.06993256
214	0xbcdeceda	-0.027198244
215	0x3e07c88b	0.13260095
216	0x3df0a395	0.11749951
217	0xbca5c5c8	-0.020235911
218	0xbd8be34e	-0.06830464
219	0xbd52eec9	-0.051497255
220	0xbdd86485	-0.105660476
221	0x3cf7c545	0.030245433
222	0x3ceb1a9e	0.028699216
223	0xbc934ef1	-0.017981978
224	0xbdf814f6	-0.12113373
225	0x3d63c463	0.05560721
226	0xbde45f61	-0.111510046
227	0xbe3e10b7	-0.18561064
228	0xbd5479a1	-0.051873807
229	0xbcd64598	-0.026156232
230	0xbd119e2c	-0.035551235
231	0xbc9c39b3	-0.019070482
232	0xbbbe6c0b	-0.0058112196
233	0x3d8d3ced	0.06896386
234	0x3bff7043	0.007795365
235	0x3c86122a	0.016366083
236	0x3b20b83d	0.0024523877
237	0xbd9e72f5	-0.0773677
238	0x3d9be676	0.07612316
239	0xbd03fe5e	-0.032225005
240	0xbda6a23e	-0.08136414
241	0xbd5a8a14	-0.053354338
242	0x3d53fa8d	0.051752616
243	0x3b68c9b4	0.0035520615
244	0xbb4368e4	-0.0029817158
245	0x3d5c1fee	0.053741388
246	0xbd8c5643	-0.068523906
247	0x3dab4060	0.08361888
248	0x3db2701f	0.08712792
249	0xbe0ad1d2	-0.13556603
250	0xbda46d4d	-0.0802866
251	0xbe1b15a3	-0.15144973
252	0x3de17967	0.11009484
253	0x3d922565	0.07136039
254	0x3c425a20	0.011862308
255	0xbd0456fd	-0.03230952

_problem._r1._patch_embedding.0.bias f4 [128]
0	0x3cf03760	0.02932328
1	0x3d977aad	0.073964454
2	0xbd13104c	-0.035904214
3	0x3e411865	0.18856962
4	0xbd960764	-0.073256284
5	0xbd87ced6	-0.06631248
6	0x3da1aa5b	0.07893821
7	0x3cf78e18	0.030219123
8	0xbd9afdde	-0.075679526
9	0x3d768ed1	0.060194794
10	0x3d9567e6	0.07295208
11	0x3e09f6a0	0.13472986
12	0xbd89b50f	-0.06723987
13	0xbdab0c48	-0.08351952
14	0x3d632361	0.05545366
15	0x3bd60a3e	0.0065319827
16	0xbdc43c00	-0.095817566
17	0x3e30e5df	0.17275189
18	0x3d8a5f1d	0.06756423
19	0xbe518644	-0.20461375
20	0x3d018f71	0.031630937
21	0x3e2a4e3d	0.16631408
22	0x3e191883	0.14950757
23	0x3ddff26b	0.109349094
24	0xbccbb4c1	-0.024866464
25	0x3d82f995	0.0639526
26	0xbd828530	-0.0637306
27	0xbe05116b	-0.12994926
28	0xbd90021e	-0.07031654
29	0x3d1be8b4	0.03806372
30	0x3d1b254e	0.037877373
31	0xbe11c27d	-0.14234348
32	0x3d8307a6	0.06397943
33	0x3cb4350c	0.021997951
34	0x3bfbbcf9	0.0076824394
35	0x3aeb11dc	0.00179344
36	0x3d5d420d	0.05401807
37	0x3d2b795c	0.041863784
38	0x3e0bc808	0.13650525
39	0x3dcae9ba	0.09907861
40	0xbce86d7d	-0.02837252
41	0xbddaaca1	-0.106774576
42	0x3d12982b	0.03578965
43	0xbe1147c7	-0.14187537
44	0xbdb209f7	-0.08693307
45	0x3e1da990	0.15396714
46	0xbd8e8f00	-0.06960869
47	0x3dba9d24	0.091120034
48	0xbc8c178b	-0.01710107
49	0x3db57f26	0.08862142
50	0x3dbee544	0.09321073
51	0xbe061b17	-0.13096271
52	0x3dc711f4	0.09720221
53	0x3d6bb18e	0.057542376
54	0x3de455a8	0.1114915
55	0xbd4a6b53	-0.04941876
56	0xbdc0e464	-0.09418562
57	0xbdef543e	-0.1168599
58	0xbdde63e4	-0.108588964
59	0xbce627a7	-0.02809508
60	0xbdab7190	-0.0837127
61	0x3ca62be7	0.020284606
62	0x3d832764	0.064039975
63	0x3e32eae2	0.17472413
64	0xbd8330c1	-0.064057834
65	0x3e38cccb	0.18046872
66	0x3d3201dd	0.04345881
67	0xbd0d926c	-0.034563467
68	0x3dbbf1cb	0.09176978
69	0xbd80a377	-0.062811784
70	0x3dd615ca	0.10453375
71	0xbcf6190e	-0.030041244
72	0xbd9be61c	-0.07612249
73	0xbc926be9	-0.017873721
74	0x3dbcd210	0.09219754
75	0xbd838900	-0.06422615
76	0xbd6e2f55	-0.058150608
77	0xbd04186e	-0.03224986
78	0xbdcc7cb8	-0.09984726
79	0xbcd93072	-0.026512358
80	0xbd0e574b	-0.034751218
81	0x3dbb3202	0.091403976
82	0xbd858fec	-0.065215915
83	0x3ddcbbcf	0.10778009
84	0xbcd25732	-0.025676344
85	0x3dc164a8	0.09443027
86	0x3d43e7f9	0.04782865
87	0x3e485d26	0.19566783
88	0xbd9792b9	-0.07401032
89	0xbe4d148d	-0.20027371
90	0x3d8d2703	0.068922065
91	0xbc45cf01	-0.012073279
92	0xbe17229b	-0.14759295
93	0x3c4c4ae8	0.012469031
94	0xbd06c653	-0.03290398
95	0x3df31469	0.11869127
96	0xbd3b7e83	-0.045774948
97	0xbcde4dc8	-0.027136698
98	0xbd2ccc8f	-0.04218727
99	0x3dbc20fd	0.091859795
100	0xbd19e609	-0.037572894
101	0x3de82328	0.113348305
102	0xbd13b483	-0.03606082
103	0xbe0b6204	-0.13611609
104	0xba8d24f8	-0.0010768464
105	0xbdee8232	-0.116459265
106	0xbdc16dc8	-0.09444767
107	0xbe05c9d6	-0.13065276
108	0x3d671102	0.056412704
109	0x3c818e91	0.015815051
110	0x3b25fc15	0.0025327255
111	0xbba45fbe	-0.005016296
112	0xbb96b421	-0.0045991098
113	0xbd776dde	-0.060407512
114	0xbdba0da0	-0.0908463
115	0xb95be41f	-0.00020970449
116	0x3dcf254e	0.10114537
117	0xbc1069c1	-0.008814276
118	0xbd67bff4	-0.056579545
119	0xb9708cc1	-0.00022940619
120	0xbe0edf6e	-0.13952419
121	0xbdbc9e59	-0.0920989
122	0xbdb000c1	-0.08593894
123	0xbdbd2927	-0.09236365
124	0xbe1feb74	-0.15617162
125	0xbcf0713f	-0.029350875
126	0x3c400fe6	0.0117225405
127	0xbce70753	-0.028201735

_problem._r1._attn.in_proj_weight f4 [384, 128]
0	0xbc2a8f93	-0.010410207
1	0x3bd2f63c	0.006438045
2	0xbd66c04b	-0.05633573
3	0xbb7fa0a3	-0.003900566
4	0xbc861e56	-0.016371887
5	0x3c0e957a	0.00870263
6	0x3b7d9d39	0.0038698448
7	0xbc4e6431	-0.01259713
8	0xbb53b26d	-0.0032302395
9	0xbce4a43a	-0.02791034
10	0x3d2d0f98	0.0422512
11	0x3bc5829a	0.006027532
12	0x3ca587c3	0.020206338
13	0xbdb15fa9	-0.08660824
14	0xbb48a674	-0.0030616792
15	0x3d0b8b6c	0.03406851
16	0xbc1eed7b	-0.009700174
17	0xbc4f0d1f	-0.012637406
18	0xbd0baa52	-0.034097977
19	0xbd1e5fd0	-0.038665593
20	0x3c062e18	0.008189701
21	0x3ba8d1c7	0.0051519605
22	0x3d02559a	0.031819917
23	0x3d01d28d	0.031694937
24	0xbcd7a96e	-0.026325908
25	0xbb3901a9	-0.002822975
26	0xbc44da7d	-0.012014982
27	0x3d906148	0.07049805
28	0xbc2e4f34	-0.010639001
29	0x3d36a79d	0.044593442
30	0x3d6fd92d	0.058556724
31	0xbd2dd979	-0.042443726
32	0x39bbab7c	0.00035795185
33	0xbd24c2be	-0.040224783
34	0xbc98ee15	-0.018668214
35	0xbd543c26	-0.051815175
36	0xbc42e06c	-0.011894327
37	0x3cbdc508	0.02316524
38	0x3d029b50	0.0318864
39	0x3ad7f4ca	0.0016476151
40	0x3c124eb3	0.008929896
41	0x3d9125a2	0.07087256
42	0xbd6df64c	-0.058096215
43	0x3d8093f7	0.06278222
44	0x3c246acf	0.010035231
45	0xbd2e8931	-0.042611305
46	0xbd2b6c90	-0.04185158
47	0xbcabbfa6	-0.020965409
48	0xbcf7388a	-0.030178327
49	0x3d09c370	0.03363365
50	0x3cb7bc38	0.022428617
51	0x3d268e82	0.04066325
52	0x3c9a1ff6	0.018814068
53	0x3d121765	0.035666842
54	0x3c99a16b	0.018753728
55	0xbcd0b756	-0.025478046
56	0xbd1097d5	-0.03530105
57	0x3c10db6a	0.008841375
58	0x3ce68fe9	0.028144794
59	0xbd175d15	-0.036954004
60	0x3ae126f3	0.0017177745
61	0xbc947eb3	-0.018126821
62	0x3d475f70	0.048675
63	0xbd463815	-0.048393328
64	0xbc56a8c4	-0.01310176
65	0xbbef9a3b	-0.007312087
66	0x3cad7f85	0.02117897
67	0x3caab779	0.02083944
68	0xbb907c8d	-0.004409379
69	0xbcfc3826	-0.030788492
70	0xbc4bbe86	-0.012435561
71	0xbc8c2573	-0.0171077
72	0xbc923acf	-0.017850308
73	0x3d0ce6f3	0.034399938
74	0xbcd00459	-0.025392698
75	0x3cbec788	0.023288503
76	0x3c33c114	0.010971326
77	0xbc368b13	-0.011141556
78	0x3d0ce062	0.034393676
79	0x3cda1b1f	0.02662426
80	0x3ab9eb11	0.0014184435
81	0x3cb9e74f	0.022693304
82	0xbca45036	-0.020057779
83	0x3c3af360	0.011410564
84	0x3ce44602	0.027865414
85	0xbcb1293f	-0.021626113
86	0xbcbfdda5	-0.023421118
87	0xbb0465ad	-0.0020202205
88	0x3ada0ecc	0.001663649
89	0x3bd910b8	0.0066243075
90	0x3cac63ec	0.02104374
91	0x3bd75e5a	0.006572527
92	0x3b185c36	0.0023248321
93	0xbc99d049	-0.018776076
94	0xbd095602	-0.03352929
95	0xbd0e740a	-0.034778632
96	0x3d1c91ab	0.038224857
97	0xbcb3f540	-0.02196753
98	0xbd2bd63b	-0.041952353
99	0x3d84678e	0.06465064
100	0xbc5fa121	-0.013649256
101	0x3d407424	0.04698576
102	0x3d0cb84c	0.034355447
103	0xbcf5f13c	-0.030022256
104	0xbdbd5224	-0.09244183
105	0x3c73f12d	0.014889044
106	0xbc9687e2	-0.01837534
107	0xbd31b4ef	-0.043385442
108	0x3c3cd95a	0.01152643
109	0xbcc86b8e	-0.024465349
110	0xbc0603d5	-0.008179625
111	0x3ccac47a	0.02475189
112	0x3cdc6f62	0.02690858
113	0xbc7384f7	-0.014863244
114	0x3c953cf6	0.018217545
115	0xbd410ab4	-0.047129348
116	0x3bb1cdcb	0.0054261438
117	0x3cef62d8	0.029221937
118	0xbcfa0235	-0.03051863
119	0xbcaface4	-0.021444745
120	0x3c108dd1	0.008822874
121	0xbca1f0fd	-0.019768232
122	0x3c5d9a3d	0.013525543
123	0xbbcc5aa3	-0.0062363907
124	0xbced1a47	-0.028943194
125	0xbb75a106	-0.003748001
126	0x3c506d43	0.0127213625
127	0xbcfc3507	-0.030787004
128	0x3d02a375	0.031894166
129	0xbcc19745	-0.023631701
130	0xbc6eebb3	-0.014582562
131	0xbd84f447	-0.06491905
132	0xbaff80d5	-0.0019493351
133	0xbcaaa713	-0.02083162
134	0x3d947634	0.07249108
135	0xbd1aafb5	-0.037765224
136	0xbd78d982	-0.060754307
137	0xbd474eb0	-0.048659027
138	0xbce0a3d4	-0.02742187
139	0x3c84d9e3	0.016217178
140	0x3c870949	0.01648392
141	0x3d863d78	0.06554693
142	0x3dfa77b0	0.1222986
143	0xbd53dfb8	-0.051727027
144	0x3d25944a	0.040424623
145	0xbcd76cc5	-0.026296983
146	0xbd5f6ff0	-0.05455011
147	0xbd9aea16	-0.075641796
148	0x3c1e13e2	0.009648295
149	0x3d6a88e1	0.057259444
150	0xbb7cb7ad	-0.0038561628
151	0x3d38bc3a	0.04510138
152	0xbc32d4e2	-0.010915013
153	0xbd626174	-0.05526872
154	0x3dd3843e	0.103279576
155	0x3d9d70da	0.0768754
156	0x3c7b2830	0.015329406
157	0x3d251f8a	0.04031328
158	0xbd0a8119	-0.033814523
159	0x3d313156	0.04325994
160	0xbd304d37	-0.043042388
161	0x3da12984	0.078692466
162	0xbc86b783	-0.016444927
163	0x3d0a74c1	0.03380275
164	0x3d8c4634	0.06849328
165	0xbbabdf98	-0.0052451603
166	0xbc98a68d	-0.018634105
167	0x3c471cd1	0.012152866
168	0xbd46404e	-0.04840117
169	0xbd09106a	-0.03346292
170	0xbc8563f0	-0.016283005
171	0x3c65e4c1	0.01403159
172	0x3ca64abe	0.020299312
173	0x3b867495	0.004103253
174	0x3d9b285d	0.07576058
175	0xbda49e8c	-0.08038053
176	0x3cc0495b	0.023472479
177	0xbda3a3e0	-0.07990241
178	0xbd3f6523	-0.04672731
179	0xbce59123	-0.028023308
180	0xbdd7b097	-0.10531729
181	0xbc0f34ad	-0.008740586
182	0x3d301dda	0.04299722
183	0x3b9edd3e	0.0048481515
184	0x3a8ca36d	0.0010729857
185	0x3c4bd4c9	0.012440869
186	0x3d669365	0.05629291
187	0xbdda5523	-0.1066077
188	0x3c9f4b6b	0.019445142
189	0xbdb32671	-0.087475665
190	0x3d82efc9	0.06393392
191	0xbce19f1e	-0.027541693
192	0xbd7764bd	-0.060398806
193	0x3c677607	0.014127261
194	0xbdb02211	-0.08600248
195	0xbdb64426	-0.08899717
196	0x3bfa3ead	0.007636866
197	0x3c1db861	0.009626479
198	0xbd04a9c1	-0.032388452
199	0x3d1c7c3e	0.038204424
200	0x3d6334fa	0.055470444
201	0x3cea1388	0.028573766
202	0x3d3e2b33	0.046427917
203	0x3dbd5826	0.092453286
204	0x3cee73ef	0.029108016
205	0x3e0823d1	0.13294913
206	0x3d06fea6	0.032957695
207	0x3d253a40	0.040338755
208	0x3d856704	0.06513789
209	0x38468e26	4.7339265e-05
210	0x3d4e1b85	0.050319213
211	0x3cddbea2	0.02706844
212	0xbb9a5b70	-0.004710607
213	0xbdabec96	-0.083947346
214	0xbbdb0fa7	-0.0066852155
215	0xbcedaf1f	-0.029014168
216	0x3d959b63	0.07305028
217	0x3d649328	0.0558044
218	0xbd593774	-0.0530314
219	0xbdc134a4	-0.094338685
220	0x3de380ae	0.11108528
221	0xbd3f5141	-0.04670835
222	0x3d617bcb	0.0550497
223	0xbbb4ce0c	-0.0055177268
224	0x3bb9f44a	0.0056748735
225	0xbd8e8cc8	-0.06960446
226	0x3d89112a	0.06692727
227	0xbcabbcda	-0.020964075
228	0xbd1a1e5b	-0.037626605
229	0xbdd3be01	-0.10338975
230	0x3b7e6700	0.0038818717
231	0x3ccd16f7	0.025035365
232	0xbcec7230	-0.028863043
233	0x3c79bff4	0.015243519
234	0x3d4d2a2c	0.050089046
235	0xbd2a177c	-0.041526303
236	0x3c8a46d0	0.01687947
237	0xbd2e2098	-0.042511553
238	0xbdacf56e	-0.084452495
239	0xbd589f76	-0.05288645
240	0x3d53c7c3	0.05170418
241	0xbda14642	-0.07874729
242	0x3cfdf7ff	0.031002043
243	0xbc3c967c	-0.011510488
244	0xbb08bfb7	-0.0020866224
245	0x3db997d8	0.09062165
246	0xbc30380e	-0.010755552
247	0xbc96db5b	-0.018415144
248	0x3cc19004	0.023628242
249	0x3d7227ab	0.05911986
250	0x3d015f2b	0.0315849
251	0xbab7b8a3	-0.0014016818
252	0x3c53efde	0.012935607
253	0x3db34b9e	0.08754657
254	0xbd677d56	-0.056516014
255	0x3c2cb2ef	0.010540708

_problem._r1._attn.in_proj_bias f4 [384]
0	0x39c32171	0.00037218214
1	0x3cdb2dba	0.026755203
2	0x3dfd9b85	0.123831786
3	0xbb09e335	-0.0021039967
4	0x3a610f35	0.0008585335
5	0xbd5b5eb8	-0.053557128
6	0xba857cda	-0.0010184303
7	0xba8dc2e7	-0.0010815532
8	0xb9277f98	-0.00015973893
9	0xba024787	-0.0004969765
10	0x3dab6e1b	0.0837061
11	0x3c1afcf5	0.009459724
12	0x3a246a40	0.0006271936
13	0xba1d8e13	-0.00060102454
14	0xbb243bfe	-0.0025060172
15	0x3ab66b1a	0.0013917417
16	0x3e040eed	0.12896319
17	0xba6823fc	-0.000885546
18	0xbc72b860	-0.014814466
19	0xbd7c72e1	-0.061632995
20	0xba5ab1e8	-0.000834255
21	0xbdd364df	-0.10321974
22	0x39b7c226	0.00035049132
23	0x3a43492b	0.00074495625
24	0x3dab3cb5	0.08361188
25	0xbd3dd9eb	-0.0463504
26	0x3d6448b2	0.05573339
27	0xb8181f35	-3.6268688e-05
28	0x3de5eb94	0.112265736
29	0xba8c65c4	-0.0010711481
30	0x3d8fd2b3	0.070226096
31	0xbdddf7e4	-0.10838297
32	0xb9f27dd0	-0.00046251575
33	0xb9822002	-0.0002481938
34	0x3b1eda92	0.0024239165
35	0x3b23786d	0.0024943606
36	0xba68b861	-0.0008877572
37	0xbdbb8655	-0.09156481
38	0xb7c3fa2d	-2.3362309e-05
39	0xbd8b9b30	-0.06816709
40	0x392f17a6	0.0001669811
41	0xb99eeb2f	-0.00030311334
42	0x3a865f5f	0.0010251811
43	0xb9b9f79a	-0.00035470427
44	0x3725755d	9.862092e-06
45	0xb9dc8394	-0.00042059703
46	0x3d97e656	0.0741698
47	0xbb23cc82	-0.0024993722
48	0x3a9de100	0.0012045205
49	0xb96572d8	-0.00021881924
50	0xbdcb4bf5	-0.09926597
51	0xbd9ed87c	-0.07756135
52	0x3b1d9b0f	0.002404872
53	0xbdcb681a	-0.09931965
54	0xbda3740c	-0.079811186
55	0xba75c74a	-0.00093757047
56	0x3ad3925f	0.0016141644
57	0x3aa0ff1a	0.0012283057
58	0xba183262	-0.00058058475
59	0x3a138002	0.00056266796
60	0xba206bec	-0.0006119597
61	0xbdc79fee	-0.09747301
62	0xb88505c1	-6.343006e-05
63	0xbd83172f	-0.06400906
64	0xb9f0cedc	-0.0004593049
65	0xbd9631f4	-0.073337466
66	0x3ad254db	0.0016047017
67	0xba4383b7	-0.0007458287
68	0xba79394f	-0.0009507136
69	0xb9c10600	-0.000368163
70	0xbacdd89b	-0.0015704812
71	0xbae6fd1c	-0.001762304
72	0xbd481be6	-0.04885473
73	0x39b807c7	0.0003510101
74	0x3b896401	0.0041928296
75	0x39906970	0.00027544377
76	0x37ea8fb7	2.7961896e-05
77	0x39622bc5	0.00021569345
78	0x3a5c5622	0.0008405169
79	0x3d89ab72	0.06722154
80	0x39c37020	0.00037276838
81	0x3a9bf0fc	0.001189738
82	0x3a96960e	0.0011488812
83	0xbca87f4f	-0.020568518
84	0x390ea252	0.00013602644
85	0xbad8ea43	-0.0016549308
86	0xbd5b73d6	-0.053577267
87	0xbae117eb	-0.0017173266
88	0x3d9a3f33	0.075315855
89	0x3d9cec27	0.0766223
90	0x3b09925d	0.002099178
91	0x3afb8d47	0.0019191884
92	0x3d9601c5	0.07324556
93	0xb9169272	-0.0001435967
94	0xba4930bd	-0.0007674804
95	0x39dc65e4	0.00042037584
96	0xbacab3ed	-0.0015464999
97	0x3a6fa516	0.0009141726
98	0xbdd1b091	-0.102387555
99	0xbd141339	-0.036151145
100	0xbafb905a	-0.00191928
101	0x397c5c33	0.0002406694
102	0xb9f5e8c5	-0.00046903468
103	0x3daee3fb	0.085395776
104	0xbab3f304	-0.001372904
105	0x38984532	7.2608134e-05
106	0x3dc0847c	0.094002694
107	0x39996335	0.0002925635
108	0x399db711	0.0003008177
109	0x3dc6e991	0.09712518
110	0x3a741a19	0.000931175
111	0x3ab85986	0.0014064766
112	0x3a5f5e14	0.00085207936
113	0xbdb4a899	-0.0882122
114	0x3c622dfe	0.013804911
115	0x3aca72d9	0.0015445604
116	0xba9b5535	-0.0011850955
117	0x3a76237c	0.0009389443
118	0xbdef4ed7	-0.116849594
119	0x3dee57a4	0.1163781
120	0xb90b10f2	-0.00013262386
121	0x3d84993f	0.06474542
122	0x3ac63c71	0.0015124214
123	0x3d97330f	0.073827855
124	0xb9b7a679	-0.00035028512
125	0x3917e329	0.00014485106
126	0x3a0180a2	0.0004940127
127	0x3a9bf514	0.00118986
128	0x3a960d11	0.0011447986
129	0xbaf43814	-0.0018632435
130	0xbbeef605	-0.0072925114
131	0xb92127ee	-0.00015369031
132	0xba093667	-0.0005234242
133	0x3c6bdc33	0.014395761
134	0x390191de	0.00012356738
135	0x3aa4e08a	0.0012579125
136	0x398e7fe9	0.0002717965
137	0xbb0e8d7a	-0.0021751807
138	0xbc418f4d	-0.011813951
139	0xbc177cc3	-0.009246054
140	0x39b9344b	0.0003532491
141	0xbbb4d2ea	-0.005518307
142	0xb91fb43d	-0.00015230566
143	0xba4590d4	-0.00075365347
144	0xba01b7a5	-0.00049483246
145	0xba7ce33e	-0.0009646899
146	0x3c48b66a	0.012250522
147	0x3c166931	0.009180353
148	0x3a638ee9	0.0008680658
149	0x3b84af32	0.004049205
150	0xbb86e328	-0.0041164346
151	0x3a071bed	0.00051540026
152	0xbb8783c0	-0.004135579
153	0x3c15f899	0.009153509
154	0x3b1344d7	0.0022471452
155	0xbb2e4249	-0.0026589802
156	0xbaac5340	-0.0013147369
157	0xb99842a4	-0.0002904135
158	0x389be1a1	7.4330026e-05
159	0x3c6a4450	0.0142985135
160	0xba2576c8	-0.000631195
161	0x3a0a97b8	0.000528689
162	0xb9c28bf1	-0.00037106828
163	0xbb2fc21b	-0.0026818577
164	0x3adacc75	0.0016693013
165	0x3cbf219a	0.023331452
166	0xb97b5af6	-0.00023971111
167	0xb9a1a607	-0.00030832013
168	0xb980ea19	-0.0002458848
169	0xba638191	-0.00086786697
170	0x3b2a4df4	0.0025986405
171	0x3ae71ebb	0.001763306
172	0xbac35549	-0.0014902736
173	0xb9eb94bf	-0.00044933517
174	0xbc0f1a68	-0.008734323
175	0xbaba78cd	-0.0014226675
176	0x3b12a811	0.0022378007
177	0xb7ed9453	-2.832167e-05
178	0xbb6db987	-0.0036273913
179	0xba98e9d9	-0.0011666372
180	0x3a3f14f6	0.0007289195
181	0x3bde68ed	0.0067874105
182	0x3a72c9d9	0.0009261645
183	0xb7f43972	-2.9113817e-05
184	0x3a5d6c5b	0.0008446627
185	0x39db44e7	0.0004182227
186	0xba6fa101	-0.0009141118
187	0xb9a6212e	-0.00031686708
188	0xbaa634fb	-0.0012680584
189	0x3bd06d33	0.006360674
190	0xbaa2cabc	-0.0012420039
191	0x3bc44b12	0.0059903944
192	0xb9bca0e0	-0.00035978016
193	0xba7c94c2	-0.0009635204
194	0xba564423	-0.00081736053
195	0x39b7a3a5	0.00035026405
196	0x39a485b8	0.00031380146
197	0x3a5c3a8c	0.0008401058
198	0xbba34acb	-0.0049832813
199	0xb9b96e08	-0.0003536793
200	0x3ace75ed	0.0015751697
201	0x3b19956e	0.0023435014
202	0xbac69a77	-0.0015152235
203	0x37d5d0a6	2.5488738e-05
204	0x39b170a8	0.00033844006
205	0x3a1185d0	0.00055512507
206	0xba150931	-0.00056852686
207	0xbbd5fea8	-0.0065306015
208	0x3a35097c	0.00069060153
209	0xb9983452	-0.0002903068
210	0xbb912cd6	-0.0044303937
211	0x3afa8501	0.0019113125
212	0x3a3fb4a1	0.00073129876
213	0x3a1b115e	0.00059153687
214	0xba9df554	-0.0012051263
215	0xb8f93b85	-0.000118843316
216	0xbbfed840	-0.007777244
217	0xbb117f92	-0.0022201282
218	0x397a9454	0.00023897114
219	0xba89d3ac	-0.0010515354
220	0xbaf92992	-0.0019009581
221	0xba86e295	-0.0010290915
222	0xbbcbc4aa	-0.0062185125
223	0x38b66911	8.6980064e-05
224	0x3a29756a	0.00064643344
225	0xbba97f03	-0.0051726117
226	0xbbe17d30	-0.0068813786
227	0x39837327	0.00025072062
228	0x3a490ae2	0.0007669163
229	0xbb9b1a24	-0.004733341
230	0x3a134ffd	0.0005619524
231	0xba9a9a44	-0.0011795242
232	0xb94b5d8d	-0.00019394439
233	0x39982456	0.00029018772
234	0xbc20ccfb	-0.009814496
235	0xba4aa6a7	-0.00077305216
236	0x3ae298a7	0.0017287926
237	0xbc273f85	-0.010208015
238	0x395c95b0	0.00021036598
239	0x3a5ffbcb	0.0008544295
240	0x39cb88fe	0.00038821244
241	0x3c652427	0.01398567
242	0x3b8b2ee2	0.004247532
243	0xbb5238d8	-0.0032077339
244	0xb93da85a	-0.0001808716
245	0xb9e39036	-0.0004340426
246	0x3ca33be9	0.019926028
247	0x3a90e108	0.0011053393
248	0x39a862b6	0.00032117002
249	0xbbe1f509	-0.0068956655
250	0x3a5f4e4c	0.0008518442
251	0xbbe880fe	-0.007095455
252	0x38fd6281	0.00012082328
253	0x3b068aaa	0.0020529428
254	0x3aa84d2f	0.0012840385
255	0xbb04fca4	-0.0020292187

_problem._r1._attn.out_proj.weight f4 [128, 128]
0	0xbdf7230c	-0.120672315
1	0xbd8db2a0	-0.06918836
2	0x3da752ad	0.08170066
3	0xbd2b9189	-0.04188684
4	0x3c69c93c	0.014269169
5	0xbdac5bac	-0.084159225
6	0x3cfdc0b4	0.030975677
7	0x3d2e3a18	0.04253587
8	0xbdaaaff1	-0.083343394
9	0xbe57dc61	-0.21080162
10	0x3cdffab2	0.02734122
11	0x3dfd1bbf	0.12358808
12	0xbd82b202	-0.063816085
13	0x3e004e54	0.1252988
14	0xbd690e98	-0.056898683
15	0x3d9cac56	0.07650058
16	0x3c80663d	0.015673751
17	0x3ccf8cff	0.025335787
18	0x3d4780cc	0.048706815
19	0xbe16dd75	-0.14732917
20	0x3dbd6edd	0.09249661
21	0xbda82717	-0.08210581
22	0xbccc5858	-0.02494447
23	0x3e26e636	0.16298756
24	0x3ec6105c	0.38684356
25	0x3d923a30	0.07140005
26	0xbe01d7e3	-0.1268001
27	0x3dc811d5	0.09769026
28	0xbc8cf356	-0.017205875
29	0x3c93160a	0.017954845
30	0xbd3facb6	-0.04679557
31	0x3e342194	0.17590934
32	0xbc9196e7	-0.017772151
33	0x3e17fb92	0.1484206
34	0x3da48357	0.080328636
35	0xbdbe71bb	-0.09299036
36	0xbd200b56	-0.03907331
37	0xbd38a9a7	-0.045083668
38	0x3e93e0f4	0.28882563
39	0x3e11a3f2	0.14222696
40	0xbe0ea015	-0.13928254
41	0xbd9026d5	-0.070386566
42	0x3be8a6e9	0.0070999754
43	0xbcda1716	-0.026622336
44	0x3d341cbe	0.043972723
45	0x3db39707	0.087690406
46	0x3dc9e99d	0.09859011
47	0x3d685838	0.056724757
48	0x3e38760d	0.18013783
49	0x3e3c6760	0.1839881
50	0x3e515432	0.20442274
51	0x3de31f52	0.11089958
52	0xbc246dd8	-0.010035954
53	0x3e38b7f6	0.18038926
54	0xbd728871	-0.059212152
55	0x3e134395	0.14381249
56	0x3c334a56	0.010943016
57	0xbd9eae46	-0.07748084
58	0x3da0b595	0.07847134
59	0x3aeba32a	0.0017977704
60	0x3db9164e	0.090374574
61	0x3d308050	0.04309112
62	0x3d24b354	0.040210083
63	0xbddda12a	-0.10821755
64	0xbd0e2909	-0.034707103
65	0xbdc1479f	-0.09437489
66	0xbd13d2d2	-0.036089726
67	0x3d0e65fb	0.034765225
68	0xbe85016b	-0.25977644
69	0xbda61b81	-0.08110715
70	0xbe2c45f2	-0.16823557
71	0x3e410f60	0.18853521
72	0x3e235a5e	0.15952441
73	0x3dd547a0	0.10414052
74	0xbd039127	-0.03212085
75	0x3e60c004	0.21948248
76	0x3decb03c	0.115570515
77	0xbe42d34f	-0.1902592
78	0xbd6ad7ea	-0.057334818
79	0xbe5ad77f	-0.21371268
80	0xbcf05a05	-0.0293398
81	0x3b192358	0.0023367014
82	0x3d3b7736	0.045767985
83	0xbe0194ac	-0.1265437
84	0xbd58a12b	-0.052888077
85	0x3d018b2a	0.031626858
86	0x3e2a3dfe	0.1662521
87	0xbe2d9909	-0.1695291
88	0x3d3bf3a3	0.045886647
89	0x3d5a93a1	0.053363446
90	0x3d4dd241	0.050249342
91	0xbdcb5ccc	-0.09929809
92	0xbd617eca	-0.055052556
93	0xbe8f7552	-0.28019196
94	0xbd4387de	-0.047736995
95	0x3c6adea9	0.014335313
96	0x3d05ed08	0.032696754
97	0xbe523c59	-0.20530833
98	0xbe91d091	-0.28479436
99	0x3e625d8e	0.22106001
100	0xbd964e5a	-0.07339163
101	0x3e90725e	0.28212255
102	0x3d524717	0.051337328
103	0x3cb0ac92	0.021566663
104	0x3d7f1616	0.062276922
105	0xbdd6e202	-0.10492326
106	0xbcb7bdac	-0.02242931
107	0x3c0a3309	0.008435019
108	0xbdb2a17d	-0.08722208
109	0xbd4cdd38	-0.05001566
110	0xbbb00ba7	-0.005372483
111	0xbe37c79f	-0.17947243
112	0x3cdd6d1a	0.027029563
113	0xbdea42ab	-0.11438497
114	0xbd6d3bae	-0.057918243
115	0xbd884050	-0.06652892
116	0xbe18fa43	-0.14939217
117	0xbe41e50d	-0.18935032
118	0xbe09eb85	-0.1346875
119	0xbe1e7ec5	-0.15478046
120	0xbd2c6227	-0.042085793
121	0x3e01fccb	0.12694089
122	0xbc068b58	-0.008211933
123	0xbdac7abf	-0.084218495
124	0xbe1fc89e	-0.15603873
125	0xbe2d7298	-0.16938245
126	0x3ec51a7a	0.38496763
127	0xbe1b2f47	-0.15154754
128	0x3c32a37b	0.010903235
129	0x3c395761	0.011312337
130	0xbdaf783d	-0.085678555
131	0x3cb26788	0.021777883
132	0x3c8e30c1	0.017357232
133	0xbc9f7951	-0.019467028
134	0xbd81cd0d	-0.063379385
135	0x3e11e15f	0.14246128
136	0xbe2b7a6d	-0.1674592
137	0x3e47a3bd	0.19496055
138	0xbdfda8dc	-0.12385723
139	0x3bf08805	0.0073404335
140	0xbe14a443	-0.14515786
141	0x3db60b97	0.08888929
142	0xbc10e628	-0.008843936
143	0x3d8667c1	0.06562758
144	0xbe412ef5	-0.18865569
145	0x3e0381b4	0.12842447
146	0x3dc03f9a	0.09387131
147	0xbd353c7b	-0.04424713
148	0xbe80c024	-0.25146592
149	0x3e188253	0.14893465
150	0x3ded8a29	0.115986176
151	0x3dd9aa41	0.106281765
152	0xbc68e508	-0.014214762
153	0xbcfc7359	-0.03081672
154	0x3e1d52e7	0.15363656
155	0xbc874126	-0.016510557
156	0x3e0d8fcb	0.13824384
157	0xbe332702	-0.17495349
158	0x3dd7fa00	0.105457306
159	0x3d18399e	0.037164323
160	0x3d1bcfc6	0.038039945
161	0xbc8784b7	-0.016542776
162	0xbe07d9d6	-0.13266692
163	0x3d2ee998	0.04270324
164	0x3d096ed9	0.03355298
165	0x3d618799	0.055060957
166	0x3d856bf8	0.06514734
167	0x3d7270e0	0.059189677
168	0x3e1042ab	0.14087932
169	0xbd88cb8a	-0.06679447
170	0x3d0c914f	0.034318265
171	0x3e154dab	0.14580409
172	0x3d92382a	0.07139619
173	0x3e0aa2b0	0.13538623
174	0xbde1c338	-0.11023563
175	0x3c72f623	0.014829191
176	0x3c185921	0.009298594
177	0x3e52d5d0	0.20589375
178	0xbd057ce6	-0.032589816
179	0x3d69cace	0.057078175
180	0xbeb0fffc	-0.345703
181	0x3d169292	0.036760874
182	0xbe0b5d80	-0.13609886
183	0xbe316584	-0.17323881
184	0x3da768d7	0.081742935
185	0xbd6c4923	-0.057686936
186	0x3e4d9258	0.20075357
187	0xbc33307f	-0.010936855
188	0xbc2af111	-0.010433451
189	0xbd245869	-0.040123377
190	0xbdcb8890	-0.099381566
191	0x3e3055fb	0.17220299
192	0xbdd16931	-0.10225142
193	0xbd7f9bf7	-0.0624046
194	0xbd665f96	-0.0562435
195	0x3ba0b707	0.004904631
196	0xbe04f163	-0.12982707
197	0x3d498e6b	0.049208086
198	0x3eb19644	0.34684956
199	0x3e27ba2a	0.1637961
200	0x3dfaaaf8	0.12239641
201	0x3e2b1e0f	0.16710685
202	0xbcc4bd77	-0.024016125
203	0x3d16b169	0.036790285
204	0x3de00e2a	0.109402016
205	0xbdfd4e01	-0.12368394
206	0xbc6d38ae	-0.0144788455
207	0xbde70e27	-0.11281996
208	0x3dfb2702	0.122632995
209	0x3c2c3c61	0.010512442
210	0x3d58cf32	0.05293197
211	0xbdc1706c	-0.09445271
212	0x3e3ff796	0.1874679
213	0xbd8af9ea	-0.067859486
214	0x3e06ad41	0.13152029
215	0x3d34ce2b	0.04414193
216	0x3c9e8dd5	0.01935474
217	0xbda480a5	-0.080323495
218	0xbdb27b57	-0.087149315
219	0x3e79cd42	0.24394706
220	0xbcf49757	-0.02985732
221	0x3e0371d4	0.1283639
222	0xbde126c7	-0.10993724
223	0xbb33228e	-0.0027333829
224	0xbe61a1e6	-0.22034416
225	0x3d8466ee	0.06464945
226	0x3b5b6b0d	0.0033480555
227	0xbd3fabc8	-0.046794683
228	0xbd21e710	-0.039527
229	0x3e73ae7a	0.23797026
230	0xbcff052e	-0.0311304
231	0x3dce5f83	0.10076811
232	0x3d18b7bb	0.037284594
233	0xbe5bcbf8	-0.21464527
234	0xbd843acb	-0.06456526
235	0xbdb1b4ca	-0.08677061
236	0xbb0ab245	-0.0021163386
237	0xbe519257	-0.2046598
238	0x3c0ede04	0.008719925
239	0xbdcada3a	-0.09904905
240	0x3ddf6bff	0.109092705
241	0x3dee259b	0.116282664
242	0xbdd00d23	-0.10158756
243	0x3e5dadbf	0.2164831
244	0x3db3d3e0	0.08780646
245	0xbd1944c3	-0.037419092
246	0xbc7fe53f	-0.015618621
247	0xbd290cc2	-0.041271932
248	0x3a8c74c2	0.0010715949
249	0x3cf5e20c	0.030015014
250	0xbd73cacd	-0.059519578
251	0xbe3f10e4	-0.18658787
252	0xbd831580	-0.06400585
253	0xbe1d3351	-0.15351607
254	0xbc26d80c	-0.0101833455
255	0xbc857996	-0.016293328

_problem._r1._attn.out_proj.bias f4 [128]
0	0x3d4c59e6	0.04989042
1	0xbd391421	-0.045185212
2	0x3cabbac9	0.02096309
3	0xbd61b199	-0.05510101
4	0x3cd9ff32	0.026610944
5	0xbd609f09	-0.054839168
6	0xbc0ffccc	-0.008788299
7	0x3cd45a87	0.025922073
8	0x3dbb71f8	0.09152597
9	0xbd8f2b66	-0.069906995
10	0xbdb475ac	-0.08811507
11	0xbd95eadb	-0.07320186
12	0xbe2b7375	-0.16743262
13	0xbd8cd922	-0.06877352
14	0xbdd82ac1	-0.1055503
15	0xbd3aee75	-0.045637567
16	0x3d56a065	0.052399058
17	0xbdb519c3	-0.08842804
18	0x3d1108e7	0.03540888
19	0xbd9a8858	-0.07545537
20	0x3e4dc686	0.20095262
21	0x3c93e09d	0.01805144
22	0x3d63676e	0.05551856
23	0x3ced25fd	0.028948778
24	0xbda8c72f	-0.08241116
25	0xbe2897a5	-0.16464098
26	0x3d4d9017	0.050186243
27	0xbcc76a91	-0.024342807
28	0xbd26e7a6	-0.04074826
29	0x3dea9877	0.114548616
30	0xbd173456	-0.036915146
31	0x3c24ee91	0.010066644
32	0xbdddb45d	-0.10825417
33	0x3d03861b	0.032110315
34	0x3e04cd11	0.12968852
35	0x3dde5a2f	0.10857045
36	0x3d76f861	0.060295466
37	0xbd897b30	-0.06712949
38	0x3dc4ba68	0.09605867
39	0xbbcbbc58	-0.0062175207
40	0x3e26fb20	0.16306734
41	0xbdb437d4	-0.08799711
42	0x3d093b95	0.033504087
43	0x3d5b13ff	0.053485867
44	0x3d668dc5	0.056287546
45	0xbdcb7b81	-0.09935666
46	0xbdb5efd3	-0.088836335
47	0xbe4a2fd7	-0.19744812
48	0x3d2e1dcc	0.042508885
49	0xbda7226d	-0.08160863
50	0xbe3d2f11	-0.18474986
51	0xbca94df8	-0.020667061
52	0xbd2123b8	-0.039340705
53	0x3c947deb	0.018126449
54	0x3d5dce6f	0.05415195
55	0xbda95d87	-0.08269792
56	0xbdaddd99	-0.08489532
57	0xbd1c3597	-0.038137045
58	0xbd346a3d	-0.04404663
59	0x3dd39778	0.10331625
60	0x3d8de000	0.0692749
61	0x3ddf76e6	0.1091135
62	0xbddf5721	-0.109052904
63	0x3c91d453	0.01780144
64	0x3cc8022f	0.024415104
65	0x3df3728c	0.118870825
66	0xbd84c8f3	-0.064836405
67	0x3e2e63d2	0.17030266
68	0xbd1ee437	-0.03879186
69	0xbc08ba0b	-0.008345137
70	0xbd883b62	-0.066519514
71	0x3d8bfb0d	0.068349935
72	0xbd735102	-0.059403427
73	0xbd240a04	-0.040048614
74	0xbd60a3b8	-0.054843634
75	0x3d9d0400	0.076667786
76	0xbdb000cb	-0.08593901
77	0xbcebba47	-0.028775347
78	0x3dafa93c	0.08577201
79	0x3d07778c	0.033072993
80	0xbda84eb8	-0.082181394
81	0x3e3b3365	0.18281324
82	0xbe1f6445	-0.15565594
83	0xbe286e5e	-0.16448352
84	0xbddd8d18	-0.10817927
85	0x3dd3bc32	0.1033863
86	0x3cc207fb	0.023685446
87	0xbc9c0219	-0.019043969
88	0xbcb591da	-0.022164274
89	0xbd9cdcc7	-0.076592974
90	0x3da67e96	0.08129613
91	0x3d9812ff	0.07425498
92	0xbdf766da	-0.12080164
93	0x3c7295bf	0.01480621
94	0x3ca568fc	0.020191662
95	0xbcbdf5fa	-0.02318858
96	0xbdb9c7f8	-0.09071344
97	0x3d349e46	0.044096254
98	0xbcd0a27e	-0.025468107
99	0x3dcd2b1c	0.10017988
100	0x3d24de6f	0.04025119
101	0xbe026c0d	-0.1273653
102	0x3c155687	0.009114868
103	0xbdd1787b	-0.10228058
104	0xbe0dd531	-0.13850857
105	0x3db24cb6	0.08706038
106	0x3dc2899b	0.094989024
107	0x3e0b4ac0	0.13602734
108	0x3e18c61e	0.14919326
109	0xbc19ecd0	-0.009394839
110	0x3e14a38f	0.14515518
111	0xbc9547a4	-0.018222637
112	0x3cf3fbaa	0.029783089
113	0x3dc9d941	0.09855891
114	0xbe1f9c7f	-0.15587042
115	0x3df7e776	0.121046945
116	0x3cfb6a3e	0.030690309
117	0xbdfe13b7	-0.12406104
118	0x3cd341eb	0.025788268
119	0x3d0ef1db	0.03489862
120	0x3da63784	0.081160575
121	0xbd6d86d2	-0.057989903
122	0xbe58afe5	-0.21160848
123	0x3e46ecf7	0.19426332
124	0xbc506c4c	-0.0127211325
125	0xbd95ffa5	-0.07324151
126	0x3cb1e297	0.021714492
127	0xbe14c91a	-0.14529839
