experiment/digit_classifier/version_4/checkpoints/best.ckpt (torch, 446119 bytes, 16 tensors)

_problem._r1._cls_token f4 [1, 1, 128]
-0.8531827 -1.080321 -1.17031 -1.1072415 -0.7802793 -0.9252375 1.1272619 -1.0897169
-0.81251484 1.0609288 0.8228115 0.808044 0.81979114 -1.0996494 1.1536517 0.79693115
-1.0897052 1.0457546 -0.8487814 1.1183169 -0.7866934 -1.0870441 -1.0784993 -0.85151976
-0.83146006 -1.154988 -0.86217004 -0.8224242 -1.084433 1.0751872 -1.1134999 0.8041883
-0.96852285 1.0863302 -0.8100782 -0.97034276 0.9520269 -0.81437707 -1.0614786 -1.1440107
-0.85728383 -0.77519053 1.0518334 -0.83287627 -0.93679184 -0.8816584 1.0489694 0.81563145
-1.1656076 -0.85356164 0.7854888 1.112209 0.80323684 0.9089373 0.8057462 1.08124
1.1166509 -0.9272582 -0.89856505 0.83275473 -1.0765954 1.0854937 1.0851654 0.8199054
-1.1390789 1.0924299 -0.8986783 0.84045553 0.79797244 -1.0619645 -0.8139879 1.0562835
-0.99244714 -0.7898416 1.1155936 -0.8152547 -0.84732515 0.8124653 0.823658 -1.0048356
-0.8600434 1.1430955 -0.7889403 -1.092958 0.76989186 0.99277735 1.0858437 -0.8365166
-1.0715003 0.82135266 1.1151271 1.1244246 -0.84946966 -0.8483372 0.92662597 0.8740889
1.0769396 -1.059584 1.119966 1.104026 -1.1002167 -0.84006125 -1.1250792 -0.87496555
0.8187983 1.1683005 -0.8469237 -1.1270963 -1.138269 0.8405185 0.77652353 0.98934996
1.0559034 1.172419 -0.9576633 0.77761275 0.8455471 0.84464025 1.1484164 -1.1140678
0.9175851 -1.0141689 -1.0297344 0.81840575 -0.994595 0.9317131 0.814214 1.0754489
00000000: 2e6a 5abf f547 8abf b8cc 95bf 17ba 8dbf
00000010: 62c0 47bf 5ddc 6cbf 1e4a 903f d87b 8bbf
00000020: f900 50bf 84cc 873f c6a3 523f f9db 4e3f
00000030: d5dd 513f 50c1 8cbf dcaa 933f ae03 4c3f
00000040: 767b 8bbf 49db 853f bd49 59bf 0225 8f3f
00000050: bd64 49bf 4324 8bbf 440c 8abf 33fd 59bf
00000060: 91da 54bf a6d6 93bf 2db7 5cbf 648a 52bf
00000070: b3ce 8abf bc9f 893f 2a87 8ebf 49df 4d3f
00000080: 1df1 77bf de0c 8b3f 4961 4fbf 6268 78bf
00000090: 09b8 733f 047b 50bf 88de 87bf f16e 92bf
000000a0: f476 5bbf e372 46bf 7aa2 863f 6137 55bf
000000b0: 97d1 6fbf 5db4 61bf a144 863f 39cd 503f
000000c0: a132 95bf 0483 5abf cb15 493f dd5c 8e3f
000000d0: eea0 4d3f 1db0 683f 6245 4e3f 1366 8a3f
000000e0: 6bee 8e3f cb60 6dbf 5c08 66bf 6a2f 553f
000000f0: e1cd 89bf 75f1 8a3f b3e6 8a3f 52e5 513f
00000100: 56cd 91bf bed4 8b3f c80f 66bf 1828 573f
00000110: ec47 4c3f 74ee 87bf 8361 50bf 4c34 873f
00000120: 0411 7ebf 0f33 4abf c5cb 8e3f 88b4 50bf
00000130: 4dea 58bf bafd 4f3f 40db 523f 749e 80bf
00000140: ce2b 5cbf f450 923f fef7 49bf 0ce6 8bbf
00000150: a217 453f a826 7e3f edfc 8a3f f425 56bf
00000160: ec26 89bf 2b44 523f 7cbc 8e3f 25ed 8f3f
00000170: d876 59bf a02c 59bf 5c37 6d3f 4ac4 5f3f
00000180: 28d9 893f 73a0 87bf 0c5b 8f3f b950 8d3f
00000190: e7d3 8cbf 410e 57bf 9802 90bf befd 5fbf
000001a0: c49c 513f df8a 953f fecf 58bf b144 90bf
000001b0: ccb2 91bf 382c 573f 3fca 463f 0a46 7d3f
000001c0: d827 873f d311 963f 6c29 75bf a111 473f
000001d0: c675 583f 583a 583f 4fff 923f c699 8ebf
000001e0: dbe6 6a3f 49d0 81bf 56ce 83bf 0a83 513f
000001f0: c79d 7ebf c084 6e3f 5470 503f 4fa8 893f

_problem._r1._pos_embed f4 [1, 17, 128]
-0.8531827 -1.080321 -1.17031 -1.1072415 -0.7802793 -0.9252375 1.1272619 -1.0897169
-0.81251484 1.0609288 0.8228115 0.808044 0.81979114 -1.0996494 1.1536517 0.79693115
-1.0897052 1.0457546 -0.8487814 1.1183169 -0.7866934 -1.0870441 -1.0784993 -0.85151976
-0.83146006 -1.154988 -0.86217004 -0.8224242 -1.084433 1.0751872 -1.1134999 0.8041883
-0.96852285 1.0863302 -0.8100782 -0.97034276 0.9520269 -0.81437707 -1.0614786 -1.1440107
-0.85728383 -0.77519053 1.0518334 -0.83287627 -0.93679184 -0.8816584 1.0489694 0.81563145
-1.1656076 -0.85356164 0.7854888 1.112209 0.80323684 0.9089373 0.8057462 1.08124
1.1166509 -0.9272582 -0.89856505 0.83275473 -1.0765954 1.0854937 1.0851654 0.8199054
-1.1390789 1.0924299 -0.8986783 0.84045553 0.79797244 -1.0619645 -0.8139879 1.0562835
-0.99244714 -0.7898416 1.1155936 -0.8152547 -0.84732515 0.8124653 0.823658 -1.0048356
-0.8600434 1.1430955 -0.7889403 -1.092958 0.76989186 0.99277735 1.0858437 -0.8365166
-1.0715003 0.82135266 1.1151271 1.1244246 -0.84946966 -0.8483372 0.92662597 0.8740889
1.0769396 -1.059584 1.119966 1.104026 -1.1002167 -0.84006125 -1.1250792 -0.87496555
0.8187983 1.1683005 -0.8469237 -1.1270963 -1.138269 0.8405185 0.77652353 0.98934996
1.0559034 1.172419 -0.9576633 0.77761275 0.8455471 0.84464025 1.1484164 -1.1140678
0.9175851 -1.0141689 -1.0297344 0.81840575 -0.994595 0.9317131 0.814214 1.0754489
0.12031603 0.03746345 0.16330868 -0.1666946 0.022836793 -0.038134716 0.053227197 0.14322639
0.1565075 0.006887901 0.040385675 -0.12137055 0.0012303701 0.14542036 -0.17786366 -0.115770675
0.09498898 -0.20250785 0.05927627 -0.1781699 0.19066864 -0.20180993 -0.18048783 -0.031810794
-0.022177856 -0.050622333 0.016869627 0.15617122 0.13498387 -0.087071404 -0.06389662 -0.041208863
0.18951008 -0.027407408 -0.11775007 -0.1394999 -0.055951152 -0.12082227 -0.19760263 0.01495555
0.13030231 0.10717119 0.18461448 0.10944627 -0.0035828438 -0.03820662 0.1409189 0.07724177
0.08921869 -0.14791034 0.03262182 0.06855863 -0.14089337 -0.005891874 -0.16834792 -0.024470987
-0.087737635 0.1170608 0.026605943 -0.20044947 0.04187312 0.15146844 -0.047801178 -0.04131955
0.10495329 -0.044517294 0.083944835 0.08166265 -0.19050266 -0.010334812 0.15246019 0.15483226
-0.015163973 0.06741145 -0.058658894 0.06402122 0.0019913854 0.13416867 -0.13372368 0.17157777
0.05430835 -0.07226064 -0.039847303 -0.051605113 0.06922984 -0.119472325 0.032395877 -0.105542414
0.1521388 0.12032932 -0.12897015 0.043474123 0.09862378 -0.037400592 -0.0420958 -0.12735629
0.054651104 0.16301167 0.058152184 -0.11324629 0.041668035 -0.0043515945 0.032496437 -0.112400346
-0.10720687 0.2008834 -0.039685354 0.07196409 0.200952 -0.14884283 0.03136379 -0.033426404
-0.17009851 -0.076764405 0.18562488 -0.024584008 -0.08328492 -0.020720014 -0.19617327 0.18872575
0.14019503 0.19093251 -0.1232878 0.040566325 0.09151159 -0.1912386 -0.0692975 -0.20272577
00000000: 2e6a 5abf f547 8abf b8cc 95bf 17ba 8dbf
00000010: 62c0 47bf 5ddc 6cbf 1e4a 903f d87b 8bbf
00000020: f900 50bf 84cc 873f c6a3 523f f9db 4e3f
00000030: d5dd 513f 50c1 8cbf dcaa 933f ae03 4c3f
00000040: 767b 8bbf 49db 853f bd49 59bf 0225 8f3f
00000050: bd64 49bf 4324 8bbf 440c 8abf 33fd 59bf
00000060: 91da 54bf a6d6 93bf 2db7 5cbf 648a 52bf
00000070: b3ce 8abf bc9f 893f 2a87 8ebf 49df 4d3f
00000080: 1df1 77bf de0c 8b3f 4961 4fbf 6268 78bf
00000090: 09b8 733f 047b 50bf 88de 87bf f16e 92bf
000000a0: f476 5bbf e372 46bf 7aa2 863f 6137 55bf
000000b0: 97d1 6fbf 5db4 61bf a144 863f 39cd 503f
000000c0: a132 95bf 0483 5abf cb15 493f dd5c 8e3f
000000d0: eea0 4d3f 1db0 683f 6245 4e3f 1366 8a3f
000000e0: 6bee 8e3f cb60 6dbf 5c08 66bf 6a2f 553f
000000f0: e1cd 89bf 75f1 8a3f b3e6 8a3f 52e5 513f
00000100: 56cd 91bf bed4 8b3f c80f 66bf 1828 573f
00000110: ec47 4c3f 74ee 87bf 8361 50bf 4c34 873f
00000120: 0411 7ebf 0f33 4abf c5cb 8e3f 88b4 50bf
00000130: 4dea 58bf bafd 4f3f 40db 523f 749e 80bf
00000140: ce2b 5cbf f450 923f fef7 49bf 0ce6 8bbf
00000150: a217 453f a826 7e3f edfc 8a3f f425 56bf
00000160: ec26 89bf 2b44 523f 7cbc 8e3f 25ed 8f3f
00000170: d876 59bf a02c 59bf 5c37 6d3f 4ac4 5f3f
00000180: 28d9 893f 73a0 87bf 0c5b 8f3f b950 8d3f
00000190: e7d3 8cbf 410e 57bf 9802 90bf befd 5fbf
000001a0: c49c 513f df8a 953f fecf 58bf b144 90bf
000001b0: ccb2 91bf 382c 573f 3fca 463f 0a46 7d3f
000001c0: d827 873f d311 963f 6c29 75bf a111 473f
000001d0: c675 583f 583a 583f 4fff 923f c699 8ebf
000001e0: dbe6 6a3f 49d0 81bf 56ce 83bf 0a83 513f
000001f0: c79d 7ebf c084 6e3f 5470 503f 4fa8 893f
00000200: 4068 f63d 4673 193d 643a 273e fdb1 2abe
00000210: 3a14 bb3c 2633 1cbd c304 5a3d f0a9 123e
00000220: 8143 203e e7b3 e13b 736b 253d 1f91 f8bd
00000230: 5f44 a13a 13e9 143e e421 36be 2d19 edbd
00000240: 9589 c23d 385e 4fbe adcb 723d 2c72 36be
00000250: a43e 433e 43a7 4ebe cdd1 38be 094c 02bd
00000260: 56ae b5bc 5d59 4fbd 2c32 8a3c 59eb 1f3e
00000270: 3639 0a3e 7e52 b2bd 3bdc 82bd a0ca 28bd
00000280: ee0e 423e 8085 e0bc f326 f1bd 10d9 0ebe
00000290: 092d 65bd ab71 f7bd 5858 4abe 2008 753c
000002a0: f86d 053e 927c db3d 940b 3d3e 5e25 e03d
000002b0: 25ce 6abb 8b7e 1cbd 0b4d 103e ef30 9e3d
000002c0: 4ab8 b63d cf75 17be 759e 053d 7868 8c3d
000002d0: 5a46 10be 9f10 c1bb 6663 2cbe 6177 c8bc
000002e0: caaf b3bd 93bd ef3d b5f4 d93c a042 4dbe
000002f0: 2683 2b3d 8b1a 1b3e 2bcb 43bd b03e 29bd
00000300: c0f1 d63d c457 36bd 45eb ab3d bf3e a73d
00000310: 2113 43be 5853 29bc 861e 1c3e 598c 1e3e
00000320: 5072 78bc 040f 8a3d 4f44 70bd 8f1d 833d
00000330: e781 023b 8363 093e dcee 08be 15b2 2f3e
00000340: 6f72 5e3d 63fd 93bd ed36 23bd e25f 53bd
00000350: 60c8 8d3d e8ad f4bd 8ab1 043d 9f26 d8bd
00000360: 46ca 1b3e 386f f63d c010 04be ec11 323d
00000370: 44fb c93d 5d31 19bd a56c 2cbd b069 02be
00000380: d6d9 5f3d 88ec 263e fc30 6e3d aced e7bd
00000390: 1aac 2a3d d297 8ebb fc1a 053d 2732 e6bd
000003a0: 478f dbbd 61b4 4d3e 1c8d 22bd e961 933d
000003b0: 5cc6 4d3e 416a 18be 5177 003d 20ea 08bd
000003c0: 4e2e 2ebe a836 9dbd 7314 3e3e 6764 c9bc
000003d0: 4991 aabd 05bd a9bc a5e1 48be 5341 413e
000003e0: 498f 0f3e d083 433e 507e fcbd e028 263d
000003f0: 6e6a bb3d 0dd4 43be d9eb 8dbd 5897 4fbe

_problem._r1._patch_embedding.0.weight f4 [128, 1, 7, 7]
-0.51434624 -0.35249397 0.054435693 -0.99698806 -1.6376467 -1.130693 0.8194338 -0.42127514
-0.6437751 -0.9062395 -0.645851 -1.191318 -0.45876676 1.4384236 -0.2417439 -0.08843827
-1.3760796 -1.1149335 -2.2451973 1.6794217 1.2155187 1.4058937 0.059905432 -0.70884436
-0.82721037 0.8633759 0.73262674 0.4398105 1.2640415 -0.26712933 -0.48770607 -0.43084174
0.7752952 0.037626553 -0.31071943 0.120090835 -0.24964412 -0.36062798 2.251023 0.67409134
0.019942796 0.28341672 -0.36369044 -0.27377924 0.027223686 2.2375386 1.0789703 0.5109739
0.40178636 0.09009836 0.3473329 0.5959631 1.6584251 1.2287315 0.1098908 -0.569594
0.0014142185 0.35399684 0.84822106 0.61992747 0.550712 0.37737757 -0.3075614 -0.18807442
-0.21898194 -0.6957421 -0.3690888 0.41853076 0.1877111 -0.7493644 -1.1291834 -1.7531844
-1.579689 -1.1383084 -1.0870218 -0.69282424 -1.0473679 -1.3890406 -1.9125938 -2.2023427
-1.7269915 -0.9809274 -1.1267723 -1.110087 -2.0550256 -2.1247876 -1.9400545 -1.4015268
-0.99907017 -1.2499195 -1.0306855 -2.1495974 -1.8300077 -1.4999924 -1.4696745 -1.1958629
-1.1115626 -0.96235985 -1.4154545 -1.1461829 -0.74015445 -1.7235421 -0.90374005 0.23994464
1.3503104 -1.6963879 -1.4453782 -2.0706558 -1.0654289 0.237128 1.0701975 2.0816104
-1.3860735 -1.6272386 -2.4437559 -0.21143948 -0.38510057 2.496009 0.8821982 1.3999175
-0.45550087 -0.8949616 0.07315935 0.396466 0.10758642 -0.051923003 1.1021235 -0.926247
-1.1353272 -1.1632916 -0.32617378 -0.39486605 -0.32904866 -0.9473381 -1.2151626 -1.0607724
-0.19844669 -0.45113093 -0.48478073 0.5018964 -1.5656662 -1.1733038 -0.71285903 -0.04220402
-0.47585765 -0.097156994 0.85072917 0.38868514 0.6217505 0.8970824 0.36538768 0.33396435
-0.3482973 -0.631117 0.4927647 0.6381409 0.33362812 -0.32390067 -0.5213772 0.026662735
-0.039675836 0.5249629 0.3648982 -1.2013254 -1.5980366 -0.5768607 0.33122244 -0.7591112
-1.181576 -2.0332522 -2.3295608 -1.9925402 -1.262339 -0.86718863 -1.1941712 -1.4993939
-2.3074484 -2.5253625 -2.8192756 -1.2049081 -1.2315795 -1.390666 -2.5526645 -2.3965783
-2.3720963 -1.8752936 -1.1531398 -1.5232077 -0.86840755 -2.6673455 -2.4310265 -2.1925867
-1.701019 -1.5151747 -1.3529074 -0.7245158 -1.9182757 -1.2713726 -0.9657859 -1.4736654
-0.03827333 0.32422894 0.77491456 -1.8068894 -1.578093 -2.2986836 -0.7269272 0.19644743
0.89021623 1.5489395 -1.4392693 -1.2624401 -1.9644209 -0.8731099 -0.35439026 1.9009367
0.37530893 0.6242861 -1.4169872 -1.7232531 -0.74577963 -0.09974249 -0.36026683 -0.4177402
0.09665971 -1.9377595 -2.2016184 -2.0300763 -0.69612706 -0.7747841 -0.86879504 -2.174242
-2.4021025 -1.9872978 -1.0170543 -0.7310533 -0.96418315 -0.19240715 -2.351925 -2.2458396
-1.7221453 -0.8393071 -0.9689225 -0.6875062 0.18159069 0.025739325 0.2530128 0.51957333
-0.21166125 0.25799057 -0.8443879 -0.31872007 0.41874763 0.4641635 0.3373387 -0.6170939
00000000: 32ac 03bf 177a b4be f6f7 5e3d 9c3a 7fbf
00000010: 689e d1bf 8cba 90bf 6ac6 513f 60b1 d7be
00000020: 72ce 24bf 50ff 67bf 7e56 25bf 1c7d 98bf
00000030: 7ae3 eabe 441e b83f b78b 77be 201f b5bd
00000040: 6023 b0bf 24b6 8ebf 50b1 0fc0 4af7 d63f
00000050: 1e96 9b3f 53f4 b33f 665f 753d d376 35bf
00000060: 0fc4 53bf 3406 5d3f 6d8d 3b3f d82e e13e
00000070: 1dcc a13f 2dc5 88be 9cb4 f9be 4a97 dcbe
00000080: bf79 463f 4d1e 1a3d 9e16 9fbe 2ff2 f53d
00000090: b5a2 7fbe 3ba4 b8be c310 1040 4091 2c3f
000000a0: 135f a33c ff1b 913e a235 babe cb2c 8cbe
000000b0: 3504 df3c d533 0f40 b31b 8a3f 2fcf 023f
000000c0: f1b6 cd3e 7d85 b83d 9ed5 b13e 0a91 183f
000000d0: 4647 d43f 1347 9d3f 6e0e e13d ead0 11bf
000000e0: 4c5d b93a 133f b53e 0425 593f 91b3 1e3f
000000f0: 76fb 0c3f a237 c13e b078 9dbe 9596 40be
00000100: cd3c 60be 271c 32bf 35f9 bcbe aa49 d63e
00000110: 5737 403e 58d6 3fbf 1589 90bf 5968 e0bf
00000120: 4033 cabf 17b4 91bf 8823 8bbf ee5c 31bf
00000130: 2710 86bf 15cc b1bf e0cf f4bf 2ff3 0cc0
00000140: 0f0e ddbf 0f1e 7bbf 133a 90bf 5517 8ebf
00000150: 8a85 03c0 85fc 07c0 b553 f8bf 3b65 b3bf
00000160: 10c3 7fbf 5dfd 9fbf 81ed 83bf 0193 09c0
00000170: b13d eabf c0ff bfbf 4b1e bcbf 0912 99bf
00000180: af47 8ebf 375d 76bf 9d2d b5bf 1fb6 92bf
00000190: c37a 3dbf 079d dcbf 825b 67bf 0cb4 753e
000001a0: f9d6 ac3f 3d23 d9bf 2702 b9bf a085 04c0
000001b0: f95f 88bf afd1 723e 3bfc 883f 1b39 0540
000001c0: db6a b1bf 5b49 d0bf 7f66 1cc0 9783 58be
000001d0: e72b c5be 9dbe 1f40 bed7 613f 7f30 b33f
000001e0: 6937 e9be 341c 65bf 92d4 953d 97fd ca3e
000001f0: 4556 dc3d 37ad 54bd 6212 8d3f 861e 6dbf
00000200: 6752 91bf bde6 94bf 4000 a7be e22b cabe
00000210: 1179 a8be c084 72bf 738a 9bbf 64c7 87bf
00000220: 9c35 4bbe a2fa e6be 2e35 f8be 487c 003f
00000230: c067 c8bf d22e 96bf ee7d 36bf 1fde 2cbd
00000240: 9da3 f3be 3ffa c6bd 63c9 593f bd01 c73e
00000250: 0a2b 1f3f 31a7 653f 1814 bb3e 60fd aa3e
00000260: 0654 b2be e290 21bf a84b fc3e 345d 233f
00000270: 4ed1 aa3e 4fd6 a5be fa78 05bf cf6b da3c
00000280: 2183 22bd f863 063f f0d3 ba3e 08c5 99bf
00000290: 778c ccbf 25ad 13bf fd95 a93e 1d55 42bf
000002a0: e23d 97bf ce20 02c0 8617 15c0 8f0b ffbf
000002b0: 5394 a1bf 1300 5ebf 9ada 98bf 24ec bfbf
000002c0: 3cad 13c0 8a9f 21c0 036f 34c0 6e3a 9abf
000002d0: 66a4 9dbf 5801 b2bf db5e 23c0 8a61 19c0
000002e0: 6dd0 17c0 9f09 f0bf 169a 93bf 78f8 c2bf
000002f0: f54f 5ebf cab5 2ac0 f095 1bc0 5753 0cc0
00000300: feba d9bf 3ff1 c1bf 122c adbf de79 39bf
00000310: 0f8a f5bf 56bc a2bf bf3d 77bf 11a1 bcbf
00000320: 7fc4 1cbd 5601 a63e cd60 463f 2748 e7bf
00000330: f4fe c9bf a21d 13c0 e717 3abf 8429 493e
00000340: 36e5 633f a643 c63f fa39 b8bf a397 a1bf
00000350: 2572 fbbf 2184 5fbf a472 b5be e551 f33f
00000360: 7e28 c03e 37d1 1f3f d65f b5bf 8f93 dcbf
00000370: 6aeb 3ebf ca45 ccbd e574 b8be 0be2 d5be
00000380: 87f5 c53d 8108 f8bf 51e7 0cc0 c5ec 01c0
00000390: 6235 32bf 4058 46bf 5a69 5ebf c826 0bc0
000003a0: 0cbc 19c0 c65f febf d62e 82bf 4f26 3bbf
000003b0: b5d4 76bf 6106 45be f085 16c0 d6bb 0fc0
000003c0: 426f dcbf d5dc 56bf 4e0b 78bf 6800 30bf
000003d0: e9f2 393e 47db d23c e58a 813e c202 053f
000003e0: babd 58be 5717 843e ce29 58bf 472f a3be
000003f0: 1766 d63e d7a6 ed3e a8b7 ac3e def9 1dbf

_problem._r1._patch_embedding.0.bias f4 [128]
-0.5326782 -1.2902606 -3.0226042 -1.4276714 -2.8730793 -0.9138576 2.2910051 -0.732732
-2.474921 0.5784807 0.7379165 1.633407 0.9884469 -1.5420218 3.1629698 1.9061393
-1.1534058 0.36995646 -1.6923121 0.48903373 -2.7455473 -1.4337702 -1.0120118 0.5483407
-2.5799053 -1.1566774 -0.9451959 -1.7361431 -2.8792846 3.1077676 -1.6227636 0.1797412
-3.2608507 -0.23371366 -3.2849858 -3.229317 1.3566589 -1.0457114 -1.0784049 -2.922408
-1.0474638 -0.18892992 0.57187 -0.47621563 -1.4276587 -0.6345362 0.31206492 3.052593
-2.2200809 -0.9319643 3.330558 2.5995219 2.459306 0.67668056 1.5499897 0.50362056
-0.1220542 -2.5855415 0.835853 0.9423251 -2.9296267 3.1043262 1.2097739 2.2987459
-0.14516054 0.5975901 -1.6341659 0.87716395 3.2710361 -0.7071139 -0.02733932 0.6124729
-2.196074 0.04315005 0.13058695 -1.4775872 -1.4863396 0.6522747 1.1842602 -0.77511835
-0.4937445 2.2364752 -2.5860193 -0.7012655 1.2479992 3.2153199 0.7654773 -0.63552845
-1.0387843 1.9509047 0.7225023 0.9424108 -0.75936544 -0.40993664 0.43334448 2.441978
0.93739986 -1.6124933 3.2657075 0.6804389 -0.14182398 -0.28858623 -1.3944411 -0.93043494
2.762559 1.8974307 -0.9078024 -0.9132859 -0.17644913 -0.5630113 3.1153595 0.78579617
1.2156863 0.49863532 -2.8037963 0.43172652 0.17282744 0.61517316 -1.2840599 -1.5393672
2.9301233 -2.7921553 -1.8499666 0.9007676 -0.61467445 0.5516297 0.7373406 1.6441138
00000000: 995d 08bf 4227 a5bf 5972 41c0 f0bd b6bf
00000010: 88e0 37c0 92f2 69bf d49f 1240 5394 3bbf
00000020: 1b65 1ec0 5017 143f 19e8 3c3f 7b13 d13f
00000030: db0a 7d3f f860 c5bf 196e 4a40 5ffc f33f
00000040: cda2 93bf ef6a bd3e af9d d8bf a162 fa3e
00000050: 0cb7 2fc0 c885 b7bf 9a89 81bf 0e60 0c3f
00000060: 2b1d 25c0 010e 94bf 5cf8 71bf f039 debf
00000070: 3346 38c0 aae5 4640 b8b6 cfbf 140e 383e
00000080: c7b1 50c0 a252 6fbe 353d 52c0 21ad 4ec0
00000090: 00a7 ad3f dfd9 85bf 2c09 8abf bc08 3bc0
000000a0: 4b13 86bf d876 41be 1366 123f 89d2 f3be
000000b0: 85bd b6bf f770 22bf f9c6 9f3e af5d 4340
000000c0: ce15 0ec0 3695 6ebf dd27 5540 915e 2640
000000d0: 4565 1d40 f03a 2d3f 1066 c63f 47ed 003f
000000e0: 8df7 f9bd 8379 25c0 76fa 553f 383c 713f
000000f0: 017f 3bc0 48ad 4640 dfd9 9a3f a71e 1340
00000100: f7a4 14be aafb 183f 592c d1bf d18d 603f
00000110: a858 5140 6b05 35bf b6f6 dfbc 06cb 1c3f
00000120: 7a8c 0cc0 1bbe 303d 96b8 053e 9421 bdbf
00000130: 6040 bebf 7afb 263f d795 973f 286e 46bf
00000140: 14cc fcbe 6922 0f40 5781 25c0 2386 33bf
00000150: 70be 9f3f cdc7 4d40 52f6 433f feb1 22bf
00000160: e2f6 84bf 3fb7 f93f e9f5 383f d641 713f
00000170: c665 42bf 37e3 d1be 54df dd3e 5e49 1c40
00000180: 70f9 6f3f 2e66 cebf 5a01 5140 3e31 2e3f
00000190: 4e3a 11be 93c1 93be 0c7d b2bf fc30 6ebf
000001a0: c4cd 3040 02df f23f bd65 68bf 1bcd 69bf
000001b0: 15af 34be 8221 10bf 0d62 4740 f029 493f
000001c0: 9c9b 9b3f 214d ff3e 6671 33c0 420b dd3e
000001d0: adf9 303e fd7b 1d3f 135c a4bf fc09 c5bf
000001e0: 2487 3b40 acb2 32c0 b5cb ecbf b598 663f
000001f0: 4e5b 1dbf 9b37 0d3f 5bc2 3c3f 5272 d23f

_problem._r1._attn.in_proj_weight f4 [384, 128]
-0.034063924 0.048030175 0.034199998 0.039939977 -0.052706774 -0.1334973 -0.04562936 0.022432482
-0.05703887 0.094432816 0.042574972 0.030451637 0.050988395 -0.1185398 -0.03710808 0.019926446
-0.118628964 -0.02412481 -0.037237 -0.033565156 -0.023927838 -0.11148949 -0.12650262 0.09688172
0.12228473 0.035587005 0.105866514 -0.03586211 -0.1170284 0.13377011 -0.12700081 0.017126163
-0.11494697 0.10556834 -0.035180215 0.10338278 0.0150703965 -0.015112797 -0.13231033 0.037198525
-0.027389986 -0.02404415 0.08893719 0.12095359 -0.053949058 0.09219643 -0.05249114 -0.123774976
0.0142073175 -0.03759175 0.05810308 -0.053490747 0.05339304 -0.11747679 0.017535457 -0.05652841
-0.04508757 0.10717005 -0.05307132 -0.12245184 0.058738925 -0.052264865 0.12842184 0.047627896
0.05284644 0.10728318 0.050751626 -0.10569018 0.03446983 -0.13053617 -0.044880867 0.08950338
0.104512505 -0.049802233 -0.05501959 0.13556266 0.11143595 0.043646332 -0.11874151 -0.0966296
-0.033470344 -0.022775473 -0.047703285 -0.119163826 0.034020454 0.028000033 0.09874695 0.10322485
-0.0974753 0.03739602 0.1364554 -0.038118318 0.13663363 0.12785245 0.08772145 0.09443273
0.102781996 -0.13308533 0.093731485 -0.032997407 0.052061744 0.12118624 -0.12630804 0.106701545
0.049316563 -0.02946279 -0.029827826 0.023569215 0.049310002 -0.106195375 0.013642816 -0.12424235
-0.035987303 -0.05617434 0.047824834 0.014850167 -0.09650938 -0.10883447 -0.048439633 0.043581218
-0.025642857 0.027749646 -0.13238549 -0.12608996 -0.12843819 -0.10151553 0.030114641 0.13473082
-0.028312093 0.04360287 0.036761045 0.032859925 -0.049988434 0.07790469 -0.02371098 0.020482123
-0.06277074 -0.109051876 0.046285283 0.058043964 0.05544143 0.10154669 -0.021822196 0.0238202
0.10397886 -0.06365981 -0.054157034 -0.06595715 -0.04131186 0.103075266 0.089172184 -0.08572856
-0.08454518 0.028838085 -0.065278694 -0.020613983 0.10867261 -0.06570005 0.07745391 0.05280546
0.085243195 -0.07214273 -0.06458507 -0.079469144 0.06832366 -0.046821494 0.08249201 0.04585699
-0.051623024 -0.042646695 -0.08953665 -0.078122094 -0.041570146 -0.09303966 -0.024455704 0.06859863
0.051716167 -0.06641354 0.030604742 -0.04639589 0.022894714 0.09819354 0.05489756 -0.032789268
-0.048475727 -0.0856276 -0.026709646 0.06276673 0.048862636 -0.059105325 -0.06636616 0.03385486
0.024729036 -0.08190138 0.03283171 0.055575043 0.03049764 0.087865055 -0.05146354 -0.07045299
-0.066828035 -0.031481452 -0.03024356 -0.06334927 -0.07405947 0.06575411 0.09643142 0.0862755
-0.03849715 -0.0355446 -0.019908035 0.09494373 0.033443253 0.028062135 -0.08293937 -0.09282662
0.10497519 0.05994163 -0.10743397 -0.06299661 -0.06424724 -0.1079991 -0.07176141 -0.08308789
-0.08027862 0.06553262 -0.07301548 -0.03821047 0.034134466 -0.10417798 0.094123706 -0.07176442
0.02970765 -0.039849225 -0.028313773 0.033266254 0.051286455 0.082400255 0.02772008 0.07774704
-0.023101006 -0.06336455 0.05539752 0.029577943 0.09585851 0.105864264 -0.05617004 0.0290559
-0.051789142 0.05837056 0.0953298 0.08872171 0.07937062 0.107465185 0.022288503 -0.08854421
00000000: 9d86 0bbd 4abb 443d 4c15 0c3d 1a98 233d
00000010: 0fe3 57bd 84b3 08be dae5 3abd 53c4 b73c
00000020: 97a1 69bd fe65 c13d 1863 2e3d b675 f93c
00000030: 35d9 503d ffc4 f2bd a4fe 17bd c93c a33c
00000040: bef3 f2bd 65a1 c5bc d385 18bd 9e7b 09bd
00000050: 5004 c4bc 9a54 e4bd e789 01be ec69 c63d
00000060: 6b70 fa3d aec3 113d 8bd0 d83d 26e4 12bd
00000070: 96ac efbd 08fb 083e 800c 02be 2b4c 8c3c
00000080: 5169 ebbd 3734 d83d 2119 10bd 5aba d33d
00000090: d3e9 763c aa9b 77bc 5c7c 07be 7b5d 183d
000000a0: f760 e0bc 3df8 c4bc b424 b63d 84b6 f73d
000000b0: b0f9 5cbd 7bd1 bc3d f300 57bd bc7d fdbd
000000c0: cfc5 683c cff9 19bd 7ffd 6d3d 1d19 5bbd
000000d0: a9b2 5a3d ac97 f0bd 85a6 8f3c 568a 67bd
000000e0: bead 38bd f97b db3d 5061 59bd 08c8 fabd
000000f0: 3a98 703d af13 56bd 0481 033e 7815 433d
00000100: 8275 583d 49b7 db3d f0e0 4f3d 1874 d8bd
00000110: 3d30 0d3d 46ab 05be 00d5 37bd 8c4d b73d
00000120: a70a d63d 6dfd 4bbd 395c 61bd f0d0 0a3e
00000130: 8838 e43d 7fc6 323d c02e f3bd bde5 c5bd
00000140: 3318 09bd a193 babc 8564 43bd 2a0c f4bd
00000150: 0859 0b3d 5360 e53c d73b ca3d 8d67 d33d
00000160: 21a1 c7bd 922c 193d f7ba 0b3e f421 1cbd
00000170: b0e9 0b3e c1eb 023e 4ea7 b33d f265 c13d
00000180: 5e7f d23d 8547 08be 4bf6 bf3d 4a28 07bd
00000190: b23e 553d 7e30 f83d e556 01be 5786 da3d
000001a0: 2a00 4a3d f35b f1bc 7c59 f4bc 3a14 c13c
000001b0: 49f9 493d f67c d9bd 1e86 5f3c c672 febd
000001c0: 6c67 13bd 1117 66bd f9e3 433d 1d4e 733c
000001d0: b6a6 c5bd 9be4 debd a368 46bd 3882 323d
000001e0: f810 d2bc 3a53 e33c 1090 07be ba1d 01be
000001f0: 4d85 03be 60e7 cfbd fbb2 f63c e0f6 093e
00000200: c3ee e7bc ec98 323d c092 163d 2198 063d
00000210: acc0 4cbd 7e8c 9f3d 873d c2bc 20ca a73c
00000220: f28d 80bd 9756 dfbd a395 3d3d 82bf 6d3d
00000230: 8e16 633d b6f7 cf3d 76c4 b2bc 9422 c33c
00000240: def2 d43d 1360 82bd c4d3 5dbd 8b14 87bd
00000250: a036 29bd 2019 d33d e89f b63d 7592 afbd
00000260: 0626 adbd d93d ec3c d6b0 85bd a8de a8bc
00000270: bf8f de3d bf8d 86bd 28a0 9e3d 8a4a 583d
00000280: fc93 ae3d 91bf 93bd 2d45 84bd b8c0 a2bd
00000290: 46ed 8b3d e5c7 3fbd 92f1 a83d 8ad4 3b3d
000002a0: aa72 53bd 4dae 2ebd fe5e b7bd 7afe 9fbd
000002b0: 7545 2abd 948b bebd 5457 c8bc 707d 8c3d
000002c0: 55d4 533d d203 88bd ccb6 fa3c 9e09 3ebd
000002d0: b28d bb3c b219 c93d 44dc 603d 0a4e 06bd
000002e0: 7c8e 46bd 865d afbd 30ce dabc d88b 803d
000002f0: 3024 483d 6d18 72bd fbea 87bd 65ab 0a3d
00000300: 8c94 ca3c e9bb a7bd 8b7a 063d a8a2 633d
00000310: 30d6 f93c 98f2 b33d 6fcb 52bd a849 90bd
00000320: 23dd 88bd b2f2 00bd 58c1 f7bc 43bd 81bd
00000330: 7eac 97bd 17aa 863d d67d c53d 36b1 b03d
00000340: 30af 1dbd 3797 11bd 2d16 a3bc dc71 c23d
00000350: cbfb 083d 90e2 e53c 1edc a9bd e21b bebd
00000360: 3bfd d63d 5b85 753d 5706 dcbd 5e04 81bd
00000370: 0f94 83bd a22e ddbd a5f7 92bd fc29 aabd
00000380: 1e69 a4bd f735 863d 2489 95bd 9582 1cbd
00000390: 95d0 0b3d 445b d5bd eec3 c03d 39f9 92bd
000003a0: 755d f33c f138 23bd 49f2 e7bc 3242 083d
000003b0: bf11 523d 77c1 a83d 3915 e33c d739 9f3d
000003c0: 523e bdbc 46c5 81bd 83e8 623d 714d f23c
000003d0: 7751 c43d 5dcf d83d 8e12 66bd a406 ee3c
000003e0: da20 54bd f815 6f3d 453c c33d bab3 b53d
000003f0: 108d a23d b516 dc3d 6196 b63c ab56 b5bd

_problem._r1._attn.in_proj_bias f4 [384]
-0.05084326 0.019578654 0.11711856 0.003827379 0.107886896 0.100594334 0.11983594 0.13640995
-0.15519014 0.12035337 -0.12481096 0.025296701 0.051427476 -0.08204328 -0.10702234 -0.1506186
0.13889341 0.096445896 -0.15455274 0.1483444 -0.1327112 0.13698433 -0.12803642 0.13496731
-0.1518035 -0.16257614 -0.08758622 -0.019696672 -0.1424127 0.13775347 -0.11265312 0.14371422
0.026044693 0.11051659 0.11473668 0.13097349 -0.14935736 -0.14215778 -0.19792867 -0.14386113
-0.09916231 0.08666053 -0.1491852 -0.13640763 -0.12234096 0.1297718 -0.108492084 -0.14592658
-0.11854322 -0.11809601 0.048943773 -0.11007454 0.12761064 0.15336415 0.14250597 -0.12040429
0.10333263 0.14854978 0.1876651 -0.113391705 0.036780506 -0.029910218 0.15214741 -0.103936255
-0.059462182 0.2013299 0.0964364 0.18673503 -0.15711635 0.12394811 0.11112125 0.116314515
0.12665561 0.15539461 0.19094251 -0.11965571 0.14391959 -0.09145118 0.13553217 0.124892645
0.1518039 -0.10393954 0.14544097 0.01986693 0.13952689 0.10025316 -0.10958899 0.07505571
0.14284536 0.10758626 0.115819186 0.16507977 0.12524348 -0.13170925 0.120480694 0.009653859
-0.12654762 0.15051249 -0.05570246 0.12351612 -0.15237698 0.06991753 -0.14067301 0.12016032
-0.13168934 -0.14190494 0.11066155 0.18355346 0.0054097264 0.1542409 0.0957765 0.12413929
0.00067252654 -0.043518454 -0.11748536 -0.14248507 0.12002334 -0.13623057 -0.12237065 -0.14304106
-0.023951357 0.13915385 0.12613933 0.12092055 0.11101175 -0.1458095 0.1406121 0.118767954
0.089457855 -0.09515437 -0.098272994 -0.09321135 -0.08251037 -0.09361838 -0.08934581 -0.091252424
0.08936417 -0.09205301 0.09370466 -0.091868035 0.088380635 0.08209617 0.09042628 0.08609938
-0.09887028 -0.097442046 0.08776777 -0.095378615 0.09538181 -0.09322735 0.08154646 -0.08877348
0.079911254 0.09374701 0.086526036 -0.09014651 0.089404 -0.08598988 0.09045886 -0.089932315
-0.08941351 -0.089290135 -0.091372766 -0.0964824 0.09487706 0.08731916 0.08898449 0.092515565
0.08543861 -0.085160054 0.090477 0.08514902 0.08619506 -0.08627655 0.08814395 0.08952296
0.085142285 0.08986622 0.095504664 0.09461564 -0.09473113 -0.08718018 -0.08787797 0.08147893
-0.08180893 -0.08502943 -0.08867238 0.09169618 -0.09654499 0.09236323 -0.07947215 0.08940835
0.09560345 -0.08826342 -0.08476427 -0.09136076 0.10022193 -0.087210014 -0.089555874 -0.078421794
0.08820856 -0.095261924 -0.08783263 0.07624922 -0.08650988 0.08124369 -0.09059226 -0.09324803
-0.0912946 0.08935913 -0.08991191 -0.08905599 -0.085772075 -0.09289386 0.09209349 -0.09201606
-0.0898784 -0.079480335 -0.09107733 -0.087482885 -0.095236056 0.094495535 -0.08231704 0.09020862
0.0947584 -0.09054277 0.09759485 -0.08671265 0.09068132 -0.098596126 0.09000438 -0.0820717
0.07879723 0.08424464 -0.08599294 -0.09109286 -0.08965472 -0.08980901 -0.090851314 -0.0874007
-0.09208175 0.09571302 0.07664146 0.09677626 -0.09498574 0.098650634 0.09100887 0.10415121
0.08946172 -0.087141976 -0.09471757 -0.09283369 -0.080475755 0.09541227 -0.091311336 -0.09296593
00000000: 0641 50bd 6a63 a03c dbdb ef3d c4d4 7a3b
00000010: cef3 dc3d 6704 ce3d 8c6c f53d 0daf 0b3e
00000020: 2aea 1ebe d47b f63d e39c ffbd 073b cf3c
00000030: 9ea5 523d 4f06 a8bd 872e dbbd c33b 1abe
00000040: 133a 0e3e 6d85 c53d 1343 1ebe 98e7 173e
00000050: 72e5 07be 9f45 0c3e fb1b 03be df34 0a3e
00000060: 6072 1bbe 5c7a 26be 6760 b3bd ea5a a1bc
00000070: a3d4 11be 3f0f 0d3e aeb6 e6bd d229 133e
00000080: ae5b d53c 8656 e23d 11fb ea3d ea1d 063e
00000090: 23f1 18be cf91 11be d0ad 4abe 5550 13be
000000a0: 9c15 cbbd 137b b13d 01c4 18be 71ae 0bbe
000000b0: e68d fabd e6e2 043e 1931 debd c76d 15be
000000c0: cac6 f2bd 52dc f1bd 4479 483d c36e e1bd
000000d0: 5dac 023e 7e0b 1d3e 16ed 113e 8696 f6bd
000000e0: 0fa0 d33d 6f1d 183e 482b 403e e939 e8bd
000000f0: 28a7 163d 4606 f5bc 88cc 1b3e 88dc d4bd
00000100: 9e8e 73bd 6d29 4e3e 7380 c53d 7837 3f3e
00000110: 1ce3 20be 82d8 fd3d 8a93 e33d 4e36 ee3d
00000120: 02b2 013e c41f 1f3e 6f86 433e 0e0e f5bd
00000130: a85f 133e c24a bbbd f2c8 0a3e b7c7 ff3d
00000140: 7b72 1b3e 41de d4bd 7aee 143e f9bf a23c
00000150: 23e0 0e3e 8751 cd3d 3170 e0bd cfb6 993d
00000160: 0e46 123e 2f56 dc3d 9c32 ed3d ac0a 293e
00000170: d43f 003e cade 06be 95be f63d 382b 1e3c
00000180: b395 01be f21f 1a3e 4328 64bd 05f6 fc3d
00000190: b608 1cbe ec30 8f3d 960c 10be 9d16 f63d
000001a0: 92d9 06be 874f 11be 86a2 e23d 70f5 3b3e
000001b0: 1344 b13b 54f1 1d3e 7826 c43d bd3c fe3d
000001c0: 7e4c 303a 6840 32bd 2a9c f0bd 9be7 11be
000001d0: ccce f53d 0780 0bbe 779d fabd 5b79 12be
000001e0: a335 c4bc 597e 0e3e ab2a 013e 31a5 f73d
000001f0: 215a e33d 164f 15be 9efc 0f3e 9d3c f33d
00000200: ae35 b73d 4be0 c2bd 5a43 c9bd 98e5 bebd
00000210: 32fb a8bd feba bfbd f0fa b6bd 8de2 babd
00000220: 9004 b73d 4a86 bcbd 3be8 bf3d 4f25 bcbd
00000230: e800 b53d 0922 a83d 6a31 b93d df54 b03d
00000240: 807c cabd b28f c7bd 97bf b33d dd55 c3bd
00000250: 8a57 c33d fbed bebd d501 a73d dfce b5bd
00000260: 83a8 a33d 6ffe bf3d 9034 b13d bc9e b8bd
00000270: 7219 b73d 761b b0bd 7f42 b93d 6f2e b8bd
00000280: 6e1e b7bd bfdd b6bd a521 bbbd 9198 c5bd
00000290: e74e c23d 63d4 b23d 803d b63d cd78 bd3d
000002a0: 70fa ae3d 6568 aebd 014c b93d 9c62 ae3d
000002b0: 0987 b03d c3b1 b0bd d184 b43d d057 b73d
000002c0: 145f ae3d c80b b83d f397 c33d d8c5 c13d
000002d0: 6502 c2bd 868b b2bd 5df9 b3bd 6dde a63d
000002e0: 718b a7bd e923 aebd dd99 b5bd 35cb bb3d
000002f0: 61b9 c5bd ef28 bd3d 4bc2 a2bd ba1b b73d
00000300: becb c33d 74c3 b4bd e498 adbd 5a1b bbbd
00000310: 2841 cd3d 2a9b b2bd 1269 b7bd 9b9b a0bd
00000320: b1a6 b43d af18 c3bd 98e1 b3bd 8d28 9c3d
00000330: 182c b1bd 1763 a63d 6f88 b9bd d3f8 bebd
00000340: aaf8 babd eb01 b73d bc23 b8bd fd62 b6bd
00000350: 45a9 afbd 233f bebd 839b bc3d eb72 bcbd
00000360: 2b12 b8bd 96c6 a2bd c086 babd 3a2a b3bd
00000370: 1f0b c3bd e086 c13d d695 a8bd 4cbf b83d
00000380: b110 c23d 7d6e b9bd cfdf c73d 6796 b1bd
00000390: 21b7 b93d c4ec c9bd 3754 b83d 3515 a8bd
000003a0: 7160 a13d 7488 ac3d 111d b0bd e58e babd
000003b0: e59c b7bd c9ed b7bd 4110 babd 23ff b2bd
000003c0: 5b95 bcbd 3005 c43d 33f6 9c3d a232 c63d
000003d0: e287 c2bd 5809 ca3d dc62 ba3d 3b4d d53d
000003e0: b537 b73d 7e77 b2bd 49fb c1bd 971f bebd
000003f0: 79d0 a4bd 8267 c33d 7001 bbbd ec64 bebd

_problem._r1._attn.out_proj.weight f4 [128, 128]
0.32324395 0.007527743 0.62093484 -0.10837994 0.6665036 -1.2121036 0.12429803 0.23826249
0.002933342 0.17811725 0.6506685 -0.59902585 0.19179057 0.14298977 0.23178785 -0.17789988
0.11509881 -0.1594465 -0.14992607 0.39153004 0.09441814 0.34818116 -0.23690408 0.5087429
-0.60705966 0.64470786 -0.3130206 -0.16165626 -0.5466274 0.41933057 -0.3397897 -0.048654243
-0.12477446 -0.010613738 0.17569332 0.08005645 -0.5530924 0.13724864 -0.102694124 -0.085484214
0.020892242 0.040306088 0.40541366 -0.80425775 0.45333457 -0.49233368 -0.98092645 -0.006619846
0.15425156 -0.17803824 -0.53294206 0.516121 0.096663006 0.2438761 0.57348096 0.26154992
-0.21215124 -0.0022495852 -0.21870263 -0.13301572 0.04361159 0.4068869 -0.19291899 0.12348028
0.11644975 -0.21297471 0.4884155 -0.03986047 -0.5267835 0.3343294 0.06797032 -0.59394944
0.23418118 -0.78983235 0.17494293 -0.77108055 0.41018838 -0.5728133 -0.29298654 -0.21823625
-0.009574861 -0.3702104 -0.5104837 0.18260455 0.25965974 -0.17409137 -0.28449932 0.17400213
0.56319046 0.63188744 -0.5015438 0.16531026 -0.15839384 -0.25090355 0.12663111 -0.5006403
-0.46386343 0.47288284 0.19780394 0.06739855 -0.44665608 -0.3984449 0.61367387 0.17456266
-0.095174864 0.32744735 -0.16794387 0.022824626 -0.3154438 0.077920474 0.68046343 0.13305402
0.5262291 0.60449463 0.13242626 0.6594848 0.3242276 -0.5099759 0.05537657 0.02523752
-0.16641407 -0.48030275 -0.56634617 -0.21820569 0.035631154 0.49520847 -0.13228947 -0.43996936
-0.34123743 1.4067111 -0.11302787 -0.2572632 -0.22034505 1.6449682 -0.45082182 -0.3773061
0.60173154 0.6364736 0.17360955 0.22004081 -0.08982435 -0.23316143 0.32803354 0.37233037
-0.46282187 1.0031421 -0.439494 -0.3349452 -1.7738208 -1.6113782 -0.49873513 -0.1410525
-0.20109586 0.04344313 -0.4397144 -1.0327679 0.23607586 -1.8500785 -0.30638963 0.09047575
-2.3914587 1.5639911 -1.9653496 -0.09718491 2.1811783 -0.66113746 -0.59060377 0.40077382
1.4079299 -1.5237646 -0.20262972 0.29172903 0.6905407 0.16652292 0.56058764 0.029793238
-0.17711034 0.83344847 0.21175708 -0.18863942 -0.40590724 -0.4553201 -0.1740903 0.2403369
1.48329 -1.5219613 -0.7763288 0.4148322 -0.20040649 -1.7099494 0.29561746 -1.3249207
-1.7564236 0.8799553 -0.2517658 1.2133868 0.160643 -2.1769218 -0.32513273 0.102610275
-2.3275785 0.16067831 -0.9650252 0.23162511 -0.124428846 1.7847126 0.6930983 -0.4755001
0.4079691 -0.657141 0.21424885 -0.9635623 -0.27078262 -1.123767 2.6629837 -0.42772076
-0.05686083 -2.143324 0.26635596 -0.33444858 1.7327814 -0.8921235 -0.3886892 -0.20835589
0.5107306 -0.45748392 -0.38732833 -0.40331313 0.59067416 0.16656537 0.002928092 1.2730606
0.23832567 -0.4240007 0.4293161 -0.17368025 2.69411 1.139923 -0.5140297 -0.444734
0.041634865 -2.465492 1.1153727 -0.09420588 0.35127327 0.14411712 0.09315682 1.0417129
1.4774541 0.34338242 1.5715086 0.37565404 -0.43828344 -0.36762902 0.357788 0.051118273
00000000: 3b80 a53e 49ab f63b 96f5 1e3f 4df6 ddbd
00000010: fb9f 2a3f 3626 9bbf f78f fe3d 15fb 733e
00000020: 503d 403b 5e64 363e 3692 263f c259 19bf
00000030: bf64 443e e96b 123e cb59 6d3e 632b 36be
00000040: edb8 eb3d f145 23be 3886 19be a076 c83e
00000050: 4c5e c13d cd44 b23e fc96 72be fa3c 023f
00000060: 4368 1bbf 930b 253f 3c44 a0be 3889 25be
00000070: c6ef 0bbf 7fb2 d63e eaf8 adbe ac49 47bd
00000080: c189 ffbd 3ee5 2dbc f3e8 333e a3f4 a33d
00000090: 7797 0dbf e88a 0c3e 4c51 d2bd 5912 afbd
000000a0: 3526 ab3c ff17 253d 6192 cf3e d6e3 4dbf
000000b0: 781b e83e 2913 fcbe ff1d 7bbf 4beb d8bb
000000c0: 1ff4 1d3e a84f 36be e46e 08bf 8120 043f
000000d0: 41f7 c53d a8ba 793e a6cf 123f dfe9 853e
000000e0: 2d3e 59be c76d 13bb 95f3 5fbe 4635 08be
000000f0: 11a2 323d 7b53 d03e 8e8c 45be 3be3 fc3d
00000100: 357d ee3d 0b16 5abe 9911 fa3e bb44 23bd
00000110: 49db 06bf 392d ab3e 0634 8b3d 120d 18bf
00000120: 31cd 6f3e 7432 4abf 3d24 333e 8965 45bf
00000130: 3604 d23e e4a3 12bf 5502 96be 5379 5fbe
00000140: e1df 1cbc 388c bdbe 0faf 02bf b0fc 3a3e
00000150: 1ff2 843e 0245 32be e5a9 91be 9d2d 323e
00000160: 402d 103f 60c3 213f 2d65 00bf 1847 293e
00000170: ff31 22be 6e76 80be 96ab 013e f629 00bf
00000180: 827f edbe b31d f23e 1e8d 4a3e 4008 8a3d
00000190: 1bb0 e4be f800 ccbe bb19 1d3f 8ec0 323e
000001a0: 0aeb c2bd 2ea7 a73e 7af9 2bbe b6fa ba3c
000001b0: da81 a1be c594 9f3d da32 2e3f 503f 083e
000001c0: f3b6 063f 29c0 1a3f c09a 073e ffd3 283f
000001d0: 2901 a63e c88d 02bf 8bd2 623d eabe ce3c
000001e0: 7368 2abe 3eea f5be 10fc 10bf 5071 5fbe
000001f0: f9f1 113d f78b fd3e e476 07be aa43 e1be
00000200: acb6 aebe 1c0f b43f 287b e7bd 01b8 83be
00000210: 22a2 61be 518e d23f 1ed2 e6be 442e c1be
00000220: 140b 1a3f efef 223f b4c6 313e 6152 613e
00000230: d4f5 b7bd dfc1 6ebe 03f4 a73e 16a2 be3e
00000240: fdf6 ecbe f666 803f 5c05 e1be f07d abbe
00000250: 8f0c e3bf a441 cebf 365a ffbe 1170 10be
00000260: 13ec 4dbe 6cf1 313d 3f22 e1be bd31 84bf
00000270: dfbd 713e 5fcf ecbf 1adf 9cbe 5a4b b93d
00000280: a90d 19c0 dc30 c83f 9390 fbbf e208 c7bd
00000290: 6d98 0b40 4e40 29bf cf31 17bf 3a32 cd3e
000002a0: 0c37 b43f b80a c3bf 2a7e 4fbe 825d 953e
000002b0: 46c7 303f fc84 2a3e ac82 0f3f f310 f43c
000002c0: 6a5c 35be e15c 553f d9d6 583e b12a 41be
000002d0: 13d3 cfbe b71f e9be ba44 32be e01a 763e
000002e0: 72dc bd3f a1cf c2bf 7cbd 46bf e364 d43e
000002f0: 5c37 4dbe 9fdf dabf 2c5b 973e 0097 a9bf
00000300: 7dd2 e0bf c044 613f 72e7 80be 4250 9b3f
00000310: 997f 243e b052 0bc0 cc77 a6be 5625 d23d
00000320: 0cf7 14c0 db88 243e e40b 77bf 222f 6d3e
00000330: 8dd4 febd 7671 e43f e46e 313f c074 f3be
00000340: 53e1 d03e 643a 28bf 0d64 5b3e 05ac 76bf
00000350: 05a4 8abe 99d7 8fbf 536e 2a40 37fe dabe
00000360: e7e6 68bd 382c 09c0 cf5f 883e d83c abbe
00000370: c8cb dd3f 3562 64bf 4502 c7be 3f5b 55be
00000380: 3ebf 023f 553b eabe e64f c6be 0f7f cebe
00000390: 6c36 173f 1d90 2a3e 3be5 3f3b a6f3 a23f
000003a0: a50b 743e 9f16 d9be 52cf db3e 3cd9 31be
000003b0: 4c6c 2c40 ffe8 913f 7397 03bf 2db4 e3be
000003c0: 5289 2a3d 9fca 1dc0 88c4 8e3f 03ef c0bd
000003d0: 17da b33e 7093 133e 01c9 be3d d956 853f
000003e0: 371d bd3f d2cf af3e 3227 c93f ba55 c03e
000003f0: b066 e0be df39 bcbe fd2f b73e 6561 513d

_problem._r1._attn.out_proj.bias f4 [128]
-1.4846058 0.9867237 0.5042651 0.9099466 0.26131076 -0.53821033 0.661035 0.69014484
-1.0560067 0.9129717 -1.198681 0.3415919 0.87239903 -0.89392436 0.7012425 0.821797
-1.15902 -0.31671897 0.41720465 -1.1190984 0.6041163 -1.0128025 0.22756667 1.1950116
-1.2954012 0.4145968 -0.50322545 0.3927898 0.74384767 -1.0349978 1.085825 0.93518484
0.35058433 -0.52189195 -0.43528864 -1.2591146 1.1166663 1.2734938 0.31956786 -1.0255986
0.32090127 -0.9675454 -1.1146517 0.34012744 0.40344903 -0.39279333 -1.210341 1.1260619
-1.2038045 1.1300639 -0.30415305 -1.1912471 0.36801898 0.34589088 1.1871177 0.6639955
0.82222366 0.34780464 0.38520515 0.48058587 -0.33910885 -1.3341647 -0.15495072 -0.7772408
0.711342 0.43014276 0.49928644 -1.0453842 -0.9874154 0.8948298 -0.8312587 0.28372586
-0.9839434 1.5005511 0.5106974 -0.70073086 1.2945266 0.4011413 -1.3457502 -0.31594056
0.39469606 -1.1733452 1.0572262 1.0348395 -1.0125314 0.32232964 0.15798369 0.45824325
-0.34373456 -0.9741272 0.5263959 0.55745083 1.0919378 -1.1993347 -0.8780076 0.43974602
0.558501 -0.14730167 0.66715 0.859939 0.44055468 1.1369942 -0.45213544 0.9137506
-1.19422 -0.86412096 0.41605815 0.3996808 -0.3632391 0.31574035 0.7122353 -0.94813466
1.3145473 0.4735321 -0.82912874 0.583966 0.2975047 1.0986885 -1.0102537 0.48589596
-1.1465402 1.2266579 -0.5039557 -0.8471758 0.24080725 0.26649377 0.5652064 -1.2250427
00000000: 9007 bebf ed99 7c3f 8517 013f 43f2 683f
00000010: 86ca 853e 27c8 09bf 9739 293f 55ad 303f
00000020: 3a2b 87bf 83b8 693f 616e 99bf 22e5 ae3e
00000030: 8b55 5f3f 3ad8 64bf a184 333f 4a61 523f
00000040: c45a 94bf fd28 a2be d99b d53e 9e3e 8fbf
00000050: 5ea7 1a3f 83a3 81bf 3d07 693e 24f6 983f
00000060: b5cf a5bf 0846 d43e 62d3 00bf bf1b c93e
00000070: cd6c 3e3f cf7a 84bf 50fc 8a3f 4668 6f3f
00000080: ca7f b33e b69a 05bf 27de debe ab2a a1bf
00000090: ecee 8e3f d801 a33f 669e a33e d146 83bf
000000a0: 2c4d a43e 0eb1 77bf e8ac 8ebf 2f25 ae3e
000000b0: df90 ce3e 351c c9be 74ec 9abf cc22 903f
000000c0: 4416 9abf efa5 903f f3b9 9bbe c97a 98bf
000000d0: fc6c bc3e 9c18 b13e 79f3 973f 9cfb 293f
000000e0: 407d 523f 7313 b23e 9c39 c53e 5a0f f63e
000000f0: ad9f adbe e9c5 aabf 67ab 1ebe 41f9 46bf
00000100: 821a 363f ac3b dc3e 79a2 ff3e 26cf 85bf
00000110: 41c7 7cbf 9113 653f 5fcd 54bf 8444 913e
00000120: b7e3 7bbf 0f12 c03f 11bd 023f 1963 33bf
00000130: 0cb3 a53f 6462 cd3e 8b41 acbf f6c2 a1be
00000140: 9a15 ca3e 2d30 96bf 3053 873f 9f75 843f
00000150: a19a 81bf 6408 a53e 7ac6 213e dc9e ea3e
00000160: fafd afbe 6660 79bf e2c1 063f 19b5 0e3f
00000170: 9ec4 8b3f cd83 99bf 1bc5 60bf 6426 e13e
00000180: ecf9 0e3f 40d6 16be 58ca 2a3f f624 5c3f
00000190: 6290 e13e 0789 913f 4c7e e7be 8feb 693f
000001a0: 33dc 98bf 0837 5dbf 9305 d53e f6a2 cc3e
000001b0: 7afa b9be b8a8 a13e 0d55 363f f4b8 72bf
000001c0: 1643 a83f cd72 f23e c841 54bf cc7e 153f
000001d0: 8952 983e d3a1 8c3f fe4f 81bf 5bc7 f83e
000001e0: d4c1 92bf 2003 9d3f 3e03 01bf 83e0 58bf
000001f0: 2d96 763e df71 883e 5eb1 103f 33ce 9cbf

_problem._en._memory._patterns f4 [128, 128]
-0.17397717 0.101328835 -0.15406221 0.12831123 -0.11033731 -0.09035267 0.11629348 0.10697077
-0.13941705 -0.15886611 0.18325883 0.08473637 -0.052027006 -0.14904657 0.12836453 0.14089331
-0.1672981 -0.12955803 0.18120244 -0.002700292 0.16910718 0.09240185 0.12473721 0.22283112
-0.10512064 0.10370502 -0.12218805 0.142014 0.13631538 -0.115678705 0.08748801 -0.046468053
0.14366437 -0.12892854 -0.14447966 -0.15101476 -0.08419112 -0.13771147 0.16802223 -0.12840457
0.12560521 0.041618988 -0.1379499 0.14706823 0.11264325 -0.11782603 -0.0001770091 0.12584373
-0.02024304 -0.11328124 -0.1740439 0.1324161 0.14915504 -0.16311567 -0.09751629 -0.15293154
-0.18277341 0.12892616 0.13212407 -0.13039744 -0.17387727 -0.11009274 -0.16343881 -0.16759688
-0.12955998 -0.17681631 0.14186981 -0.12511532 -0.12143066 0.14178158 -0.0773788 -0.14119808
-0.18828845 -0.14082938 0.16856293 -0.11193779 0.1529987 0.08319185 0.117218405 -0.06300726
0.15842728 0.08671209 -0.12892683 0.11381573 -0.104754 0.17520459 0.06388125 -0.11406477
0.13808976 0.09768955 0.14941892 0.1638004 0.0927101 0.10666793 0.15942207 0.1269551
0.12472671 -0.13518508 -0.13396353 0.15490384 -0.0067034317 -0.1345827 -0.13495816 0.13949728
-0.14010547 -0.08740475 0.114087395 0.15509823 -0.13932534 0.15702215 0.14211492 0.15013468
-0.15507011 0.017688982 0.10849467 0.12350746 0.13184576 0.11512828 0.10038901 -0.1471418
-0.13660584 -0.13920803 -0.13468218 0.19354261 -0.17073697 0.05211707 -0.13857579 -0.13441081
-0.2037619 -0.21119432 -0.12944657 -0.0649144 -0.11721254 -0.10381937 0.19900684 0.16325329
0.056425225 -0.11429808 0.17547415 0.19147985 -0.119791776 0.04778812 0.20372987 0.16896506
-0.18912166 -0.0966195 0.19202511 0.115609586 0.20274073 0.18797408 0.046231117 -0.07247749
0.11467131 0.2082232 -0.19979794 0.15348548 -0.15692079 -0.1781812 0.14681107 -0.15947917
0.19453171 -0.17956969 -0.15023558 0.052209858 0.18502147 -0.014949753 0.20322055 0.17033705
0.18396987 -0.17731419 0.17583477 0.10798505 -0.15354683 0.20897442 0.13246089 0.16930683
0.15912583 -0.1914253 0.04739149 0.20491457 0.17419013 -0.14446475 -0.08490276 -0.048109397
-0.20904061 0.106786296 0.15795197 0.039981645 -0.19566049 0.15226348 -0.1378729 0.121228114
0.09881213 -0.042060748 0.17325523 -0.087084725 0.13882554 0.0007954146 -0.08239922 0.08269718
0.039251644 -0.026117155 0.18968764 0.18185696 -0.012773943 -0.15070893 0.18276277 0.025834864
0.15763597 0.094589755 0.19166134 0.20903264 0.13763368 0.17766644 0.14660917 -0.13063373
-0.08645629 -0.17898189 0.14433846 0.20238282 -0.092445284 -0.022287063 0.07062824 0.09067867
0.19267708 -0.21724573 -0.16469152 0.19599678 -0.035884056 -0.027600836 -0.1772288 0.17364955
0.1506339 0.07074222 0.19787331 0.1738552 -0.20783707 0.216318 0.17308404 0.1897178
-0.15550944 0.18421409 0.036961667 0.20452923 0.1434424 -0.05811452 -0.15527883 -0.17076926
0.1660763 -0.21038324 -0.1528435 0.18134947 -0.16312625 -0.15596315 -0.023880392 -0.11267957
00000000: 1227 32be 7e85 cf3d 7cc2 1dbe 0564 033e
00000010: 87f8 e1bd d20a b9bd 472b ee3d 7e13 db3d
00000020: 58c3 0ebe ccad 22be 34a8 3b3e 438a ad3d
00000030: 451a 55bd aa9f 18be fe71 033e 5646 103e
00000040: 3150 2bbe dcaa 04be 228d 393e 62f7 30bb
00000050: 6f2a 2d3e 2e3d bd3d 3976 ff3d d72d 643e
00000060: 7d49 d7bd 4c63 d43d ba3d fabd 1e6c 113e
00000070: 4296 0b3e f5e8 ecbd ea2c b33d 4955 3ebd
00000080: c11c 133e d805 04be 7af2 13be 9da3 1abe
00000090: 656c acbd 3c04 0dbe 050e 2c3e 7d7c 03be
000000a0: a79e 003e ac78 2a3d bd42 0dbe 0e99 163e
000000b0: 81b1 e63d c64e f1bd 859b 39b9 2edd 003e
000000c0: bbd4 a5bc ffff e7bd 9038 32be 1698 073e
000000d0: 19bc 183e cb07 27be 9fb6 c7bd 169a 1cbe
000000e0: f428 3bbe 3805 043e 884b 073e e886 05be
000000f0: e20c 32be 4d78 e1bd 815c 27be 849e 2bbe
00000100: 5fab 04be 560f 35be 5246 113e 3b1e 00be
00000110: a3b0 f8bd 312f 113e c778 9ebd 3b96 10be
00000120: b0ce 40be 9435 10be c39b 2c3e a43f e5bd
00000130: b1ab 1c3e 7d60 aa3d 3410 f03d f309 81bd
00000140: c33a 223e 1c96 b13d 6505 04be 3918 e93d
00000150: 4489 d6bd d568 333e 2cd4 823d ca9a e9bd
00000160: 6767 0d3e 7511 c83d 4601 193e 4bbb 273e
00000170: cbde bd3d b774 da3d 8a3f 233e 8500 023e
00000180: b870 ff3d f56d 0abe bc2d 09be 1d9f 1e3e
00000190: 76a8 dbbb 0cd0 09be 7932 0abe 60d8 0e3e
000001a0: cf77 0fbe 4301 b3bd a7a6 e93d 12d2 1e3e
000001b0: 4dab 0ebe 6aca 203e 9386 113e e8bc 193e
000001c0: b3ca 1ebe 7ce8 903c 7432 de3d 7bf1 fc3d
000001d0: 9302 073e 60c8 eb3d c198 cd3d 57ac 16be
000001e0: 67e2 0bbe 8d8c 0ebe 20ea 09be 0930 463e
000001f0: acd5 2ebe b578 553d d0e6 0dbe fda2 09be
00000200: f6a6 50be 5343 58be a48d 04be d7f1 84bd
00000210: 210d f0bd 409f d4bd 73c8 4b3e df2b 273e
00000220: 231e 673d 1d15 eabd 7faf 333e 4b13 443e
00000230: 6455 f5bd 7abd 433d 909e 503e 2d05 2d3e
00000240: 1ca9 41be 72e0 c5bd 3ba2 443e b8c4 ec3d
00000250: 449b 4f3e 477c 403e d75c 3d3d 146f 94bd
00000260: cbd8 ea3d 7638 553e d597 4cbe 4c2b 1d3e
00000270: d8af 20be 2275 36be a455 163e 824e 23be
00000280: 5233 473e 1ee1 37be 5bd7 19be 01da 553d
00000290: 4576 3d3e cfef 74bc 0c19 503e d66c 2e3e
000002a0: 9962 3c3e da91 35be 080e 343e 4427 dd3d
000002b0: 613b 1dbe 64fd 553e d4a3 073e c55e 2d3e
000002c0: e2f1 223e fe04 44be 941d 423d 20d5 513e
000002d0: e65e 323e 91ee 13be 80e1 adbd 5c0e 45bd
000002e0: be0e 56be c6b2 da3d 29be 213e cbc3 233d
000002f0: 395b 48be f5ea 1b3e 8e2e 0dbe 7246 f83d
00000300: 045e ca3d e447 2cbd d269 313e 7a59 b2bd
00000310: 4828 0e3e 5f83 503a ecc0 a8bd 245d a93d
00000320: 55c6 203d a5f3 d5bc 7a3d 423e b638 3a3e
00000330: cd49 51bc 7153 1abe 2a26 3b3e a3a3 d33c
00000340: 536b 213e 46b8 c13d df42 443e a70c 563e
00000350: d8ef 0c3e 31ee 353e b720 163e d9c4 05be
00000360: ff0f b1bd 0747 37be 76cd 133e 713d 4f3e
00000370: f453 bdbd 5c93 b6bc 8aa5 903d bdb5 b93d
00000380: 244d 453e aa75 5ebe e5a4 28be 61b3 483e
00000390: 29fb 12bd 261b e2bc 777b 35be 30d1 313e
000003a0: c63f 1a3e 4ce1 903d 4d9f 4a3e 1907 323e
000003b0: 3ed3 54be 7782 5d3e f13c 313e 6245 423e
000003c0: de3d 1fbe 9ea2 3c3e 1e65 173d 1c70 513e
000003d0: 91e2 123e 7e09 6ebd 6a01 1fbe 23de 2ebe
000003e0: e80f 2a3e b46e 57be 0283 1cbe adb3 393e
000003f0: 910a 27be ceb4 1fbe d0a0 c3bc 8cc4 e6bd

_problem._en._lin_diff.0.weight f4 [1, 128]
0.13356051 0.10867227 -0.11845468 0.1653389 0.14909443 -0.16014092 -0.12805851 -0.110346265
-0.10369231 0.09786084 -0.12824069 0.13405235 -0.14007638 0.1571218 -0.112305574 -0.13382412
0.14044213 0.09280224 0.16585058 0.13723694 -0.11357795 0.14820626 0.14542314 -0.1605233
-0.10377154 0.15664345 0.11085482 0.13604636 0.08880751 0.15361112 0.108272254 -0.13264616
-0.11802196 0.09385016 -0.15164256 0.14196737 -0.16036834 -0.16299915 0.14686537 -0.1485008
0.14637196 -0.13832383 0.13261968 -0.08458695 0.1472348 -0.12810549 -0.11153331 -0.13393244
-0.12853958 -0.16229504 0.0981467 -0.11560051 0.15342957 0.13587216 0.10603129 -0.12911883
0.106466204 -0.095667616 0.16005382 0.15145877 0.09366925 0.13339992 -0.15058559 -0.14379708
-0.08829416 -0.11174899 -0.084906854 0.13187477 0.16501601 -0.13755214 -0.15827866 0.15096465
0.11720635 0.09196358 -0.12073081 -0.1636033 0.10670436 -0.1131812 -0.09063732 0.09720748
-0.083436534 -0.10893929 -0.14456686 -0.14183761 -0.085517555 -0.09319593 0.1549713 0.12998492
-0.15325238 0.08688747 -0.09104912 -0.11251342 0.103421755 0.14981854 -0.11405425 -0.09931765
0.1547876 0.13186543 0.15729465 -0.16307738 0.13387182 0.12220629 -0.1516543 -0.117344216
0.14764978 -0.15031761 0.16147272 -0.09318181 0.09830237 -0.084649205 -0.12024869 -0.13060099
-0.1486424 -0.10707337 -0.09888776 -0.10880876 -0.09520544 0.10444503 0.1530902 0.1484438
0.15835816 -0.16362351 0.108236976 0.16699347 0.1465521 0.14789398 0.13394026 -0.08693589
00000000: 16c4 083e 918f de3d 5e98 f2bd 9a4e 293e
00000010: 36ac 183e fbfb 23be c521 03be 39fd e1bd
00000020: a25c d4bd 446b c83d 8751 03be 0545 093e
00000030: 2f70 0fbe 8ae4 203e 7700 e6bd 3109 09be
00000040: 10d0 0f3e 1a0f be3d bcd4 293e d787 0c3e
00000050: 8e9b e8bd 62c3 173e cee9 143e 3860 24be
00000060: 2c86 d4bd 2467 203e da07 e33d bd4f 0b3e
00000070: b6e0 b53d 3c4c 1d3e d8bd dd3d 65d4 07be
00000080: 7fb5 f1bd 8334 c03d 3048 1bbe e55f 113e
00000090: 9937 24be 40e9 26be e063 163e 9810 18be
000000a0: 88e2 153e c3a4 0dbe 74cd 073e ec3b adbd
000000b0: b8c4 163e 162e 03be 936b e4bd 9625 09be
000000c0: e19f 03be ac30 26be 2301 c93d f6bf ecbd
000000d0: a41c 1d3e 1222 0b3e ef26 d93d ba37 04be
000000e0: f40a da3d 62ed c3bd 26e5 233e 0218 1b3e
000000f0: aad5 bf3d fd99 083e 1c33 1abe 8b3f 13be
00000100: 92d3 b4bd a8dc e4bd a5e3 adbd 2e0a 073e
00000110: f5f9 283e 78da 0cbe cd13 22be 7a96 1a3e
00000120: e209 f03d 6757 bc3d b741 f7bd a087 27be
00000130: d187 da3d 8ccb e7bd 0fa0 b9bd b714 c73d
00000140: c6e0 aabd 901b dfbd 5609 14be e13d 11be
00000150: d423 afbd 82dd bebd ccb0 1e3e c41a 053e
00000160: 31ee 1cbe 0ff2 b13d f677 babd 706d e6bd
00000170: c9ce d33d 086a 193e 4695 e9bd 0d67 cbbd
00000180: a480 1e3e bb07 073e d911 213e c2fd 26be
00000190: b215 093e 4b47 fa3d 444b 1bbe 2a52 f0bd
000001a0: 8131 173e dcec 19be 1b59 253e 1bd6 bebd
000001b0: c152 c93d 905c adbd f244 f6bd 44bc 05be
000001c0: b735 18be 4849 dbbd aa85 cabd 21d7 debd
000001d0: 12fb c2bd 47e7 d53d adc3 1c3e a701 183e
000001e0: a428 223e ec8c 27be 59ab dd3d 5600 2b3e
000001f0: c111 163e 8571 173e a327 093e 720b b2bd
