experiment/digit_classifier/version_9/checkpoints/best.ckpt (torch, 753740 bytes, 25 tensors)

_problem._r._units.0._cls_token f4 [1, 1, 128]
-0.0006954648 -0.0002903356 -0.00084502663 -5.0580384e-05 0.000747478 -4.6421672e-05 -0.00084895245 -0.0007763108
0.00044964236 0.00021190452 0.00024473833 4.3959633e-05 -0.0007988953 -9.164705e-05 7.7487886e-05 -0.001303546
-0.000643201 4.204153e-05 -0.0003051712 -0.0003784217 -0.0004465285 0.00044556416 0.00026316987 0.00065162993
0.00086464547 0.0002834479 -0.0002795419 -0.0004150759 -0.0010334079 -0.0005796363 0.00012656122 0.000439633
0.00036720172 0.00030918512 0.00030364242 0.0009634135 0.00085445767 0.00049695093 -8.6110835e-05 0.00030848585
-0.00021956117 0.00042013655 -0.0006921279 0.00033919307 -2.0049525e-05 -0.00046401593 0.0010927714 -0.0010466746
0.00021389133 -7.971688e-05 0.00063783495 0.00044866206 0.00017874123 0.00059012725 -7.422317e-06 0.00057027244
0.00071875536 -0.00073553785 -0.0002798059 -0.00043158728 0.0012697586 -0.0014848647 -0.0004976819 0.0003555714
0.00037839165 -0.00015146326 -0.0003973668 0.00063212455 -0.00034369144 -8.069254e-05 -0.0009752585 0.00053687545
-0.00014097519 -0.000119948905 5.6508612e-05 -0.0004373759 -0.00040286282 -0.00027827665 0.0009959682 -9.039526e-07
0.0007693501 -1.601085e-05 -0.0004264168 2.7593731e-05 -0.00018653442 -0.0010608288 0.00040839118 -0.00023774302
0.0004878278 0.00061042776 8.1122635e-05 0.00010868892 0.0002923972 0.0010023213 0.00064532337 0.00038954653
-0.0008873678 -0.00039570933 -0.0005695244 -0.00063927926 0.00033356043 0.00039339866 -0.0006317935 -0.00045053806
-0.0013772643 0.00036059544 0.0005524619 0.0009730113 -0.0005973621 -0.00041954464 8.556785e-05 -0.00014549775
0.00026382037 -0.000108367865 -2.8487293e-05 -0.00020162603 -0.00045091994 -2.2275175e-05 0.0011045972 -0.00015428709
-5.843588e-06 -0.0002275916 -0.000107213375 0.00042966884 -0.00026835414 0.00039042343 -0.000633006 0.00040257108
00000000: da4f 36ba 2f38 98b9 c784 5dba 4626 54b8
00000010: 66f2 433a e4b4 42b8 3c8c 5eba 5681 4bba
00000020: fabd eb39 b032 5e39 3950 8039 4c61 3838
00000030: f56c 51ba a332 c0b8 fe80 a238 bfdb aaba
00000040: 7d9c 28ba c055 3038 63ff 9fb9 e766 c6b9
00000050: 0a1c eab9 9c9a e939 10fa 8939 25d2 2a3a
00000060: 60a9 623a bc9b 9439 7b8f 92b9 8b9e d9b9
00000070: 6a73 87ba bcf2 17ba 85b5 0439 8b7e e639
00000080: fb84 c039 201a a239 3232 9f39 968d 7c3a
00000090: affd 5f3a d045 023a 6796 b4b8 45bc a139
000000a0: 013a 66b9 c645 dc39 eb6f 35ba b9d5 b139
000000b0: 0730 a8b7 2a47 f3b9 533b 8f3a 9230 89ba
000000c0: 0448 6039 ad2d a7b8 6134 273a 673a eb39
000000d0: 7c6c 3b39 c5b2 1a3a 380d f9b6 567e 153a
000000e0: db6a 3c3a 1cd1 40ba eab2 92b9 aa46 e2b9
000000f0: 076e a63a cb9f c2ba de76 02ba fc6b ba39
00000100: de62 c639 1cd2 1eb9 ab55 d0b9 29b5 253a
00000110: 7c31 b4b9 7a39 a9b8 7da8 7fba 1abd 0c3a
00000120: bdd2 13b9 148d fbb8 a903 6d38 994f e5b9
00000130: 5537 d3b9 a9e5 91b9 268b 823a 26a7 72b5
00000140: 36ae 493a 0a4f 86b7 b290 dfb9 1679 e737
00000150: 7498 43b9 820b 8bba 561d d639 a84a 79b9
00000160: 24c3 ff39 1d05 203a 6220 aa38 ebef e338
00000170: e34c 9939 5260 833a eb2a 293a 0d3c cc39
00000180: 3f9e 68ba 3577 cfb9 234c 15ba 4e95 27ba
00000190: b9e1 ae39 1341 ce39 f29e 25ba 3236 ecb9
000001a0: 5285 b4ba 4d0e bd39 17d3 103a af11 7f3a
000001b0: 4b98 1cba 54f6 dbb9 e472 b338 c190 18b9
000001c0: 5f51 8a39 8e43 e3b8 fff7 eeb7 936b 53b9
000001d0: 7369 ecb9 93db bab7 22c8 903a 20c8 21b9
000001e0: 0a14 c4b6 a8a5 6eb9 bed7 e0b8 2d45 e139
000001f0: e2b1 8cb9 bfb1 cc39 50f0 25ba 2d10 d339

_problem._r._units.0._pos_embed f4 [1, 17, 128]
-0.0006954648 -0.0002903356 -0.00084502663 -5.0580384e-05 0.000747478 -4.6421672e-05 -0.00084895245 -0.0007763108
0.00044964236 0.00021190452 0.00024473833 4.3959633e-05 -0.0007988953 -9.164705e-05 7.7487886e-05 -0.001303546
-0.000643201 4.204153e-05 -0.0003051712 -0.0003784217 -0.0004465285 0.00044556416 0.00026316987 0.00065162993
0.00086464547 0.0002834479 -0.0002795419 -0.0004150759 -0.0010334079 -0.0005796363 0.00012656122 0.000439633
0.00036720172 0.00030918512 0.00030364242 0.0009634135 0.00085445767 0.00049695093 -8.6110835e-05 0.00030848585
-0.00021956117 0.00042013655 -0.0006921279 0.00033919307 -2.0049525e-05 -0.00046401593 0.0010927714 -0.0010466746
0.00021389133 -7.971688e-05 0.00063783495 0.00044866206 0.00017874123 0.00059012725 -7.422317e-06 0.00057027244
0.00071875536 -0.00073553785 -0.0002798059 -0.00043158728 0.0012697586 -0.0014848647 -0.0004976819 0.0003555714
0.00037839165 -0.00015146326 -0.0003973668 0.00063212455 -0.00034369144 -8.069254e-05 -0.0009752585 0.00053687545
-0.00014097519 -0.000119948905 5.6508612e-05 -0.0004373759 -0.00040286282 -0.00027827665 0.0009959682 -9.039526e-07
0.0007693501 -1.601085e-05 -0.0004264168 2.7593731e-05 -0.00018653442 -0.0010608288 0.00040839118 -0.00023774302
0.0004878278 0.00061042776 8.1122635e-05 0.00010868892 0.0002923972 0.0010023213 0.00064532337 0.00038954653
-0.0008873678 -0.00039570933 -0.0005695244 -0.00063927926 0.00033356043 0.00039339866 -0.0006317935 -0.00045053806
-0.0013772643 0.00036059544 0.0005524619 0.0009730113 -0.0005973621 -0.00041954464 8.556785e-05 -0.00014549775
0.00026382037 -0.000108367865 -2.8487293e-05 -0.00020162603 -0.00045091994 -2.2275175e-05 0.0011045972 -0.00015428709
-5.843588e-06 -0.0002275916 -0.000107213375 0.00042966884 -0.00026835414 0.00039042343 -0.000633006 0.00040257108
0.16223831 -0.068853036 -0.021620601 0.45492625 0.31136522 0.8430856 -0.23540525 -0.1753058
-0.24177563 0.1733658 0.45384493 -0.17672493 -0.0679562 -0.040245317 -0.0713231 -0.12229543
-0.40451908 0.47888994 0.077410474 -0.11950286 -0.085347965 0.012829431 0.35944474 0.23995855
0.010398847 -0.018737858 0.24150442 -0.5880924 -0.28565314 -0.12565577 0.25860682 -0.25335625
0.8255412 -0.0049611917 0.10994845 0.26686758 -0.74529046 -0.012540246 -0.20106734 0.12344101
-0.13509677 0.21976162 0.026368137 -0.1813685 -0.2547306 0.65734506 0.11284685 -0.15748675
0.5912637 0.27659434 -0.019737346 0.087305784 0.30711615 0.06272967 -0.04166115 -0.52310294
0.30280063 0.2013586 -0.27314276 0.30089927 -0.02009092 -0.13028792 0.06207547 0.3551076
-0.42526639 0.15485236 0.006453874 -0.52358633 -0.29985377 -0.5542775 -0.0768479 0.52608514
0.048540518 -0.22442189 -0.22023407 0.58284116 0.30060542 -0.19555105 0.12672989 -0.232449
-0.20467873 -0.38167444 -0.1254155 0.35667425 -0.050127454 -0.43197137 -0.14848849 0.39010894
-0.12087275 -0.3986368 0.16070472 -0.20903437 -0.1889981 0.18272303 -0.12178535 0.32578176
0.1172475 -0.15957041 -0.032777183 0.21554554 -0.43440813 0.68745166 -0.08872917 -0.023275511
-0.18965082 -0.10734958 0.6002382 1.3832239 -0.047924705 -0.49190497 0.5821522 -0.23399875
-0.008687433 0.03771738 -0.024593776 0.11030811 -0.15862317 -0.35041204 0.6022274 -0.2755392
-0.014788795 -0.51729393 -0.56980324 -0.2818083 -0.0097470265 0.7311286 -0.49982098 -0.26402488
00000000: da4f 36ba 2f38 98b9 c784 5dba 4626 54b8
00000010: 66f2 433a e4b4 42b8 3c8c 5eba 5681 4bba
00000020: fabd eb39 b032 5e39 3950 8039 4c61 3838
00000030: f56c 51ba a332 c0b8 fe80 a238 bfdb aaba
00000040: 7d9c 28ba c055 3038 63ff 9fb9 e766 c6b9
00000050: 0a1c eab9 9c9a e939 10fa 8939 25d2 2a3a
00000060: 60a9 623a bc9b 9439 7b8f 92b9 8b9e d9b9
00000070: 6a73 87ba bcf2 17ba 85b5 0439 8b7e e639
00000080: fb84 c039 201a a239 3232 9f39 968d 7c3a
00000090: affd 5f3a d045 023a 6796 b4b8 45bc a139
000000a0: 013a 66b9 c645 dc39 eb6f 35ba b9d5 b139
000000b0: 0730 a8b7 2a47 f3b9 533b 8f3a 9230 89ba
000000c0: 0448 6039 ad2d a7b8 6134 273a 673a eb39
000000d0: 7c6c 3b39 c5b2 1a3a 380d f9b6 567e 153a
000000e0: db6a 3c3a 1cd1 40ba eab2 92b9 aa46 e2b9
000000f0: 076e a63a cb9f c2ba de76 02ba fc6b ba39
00000100: de62 c639 1cd2 1eb9 ab55 d0b9 29b5 253a
00000110: 7c31 b4b9 7a39 a9b8 7da8 7fba 1abd 0c3a
00000120: bdd2 13b9 148d fbb8 a903 6d38 994f e5b9
00000130: 5537 d3b9 a9e5 91b9 268b 823a 26a7 72b5
00000140: 36ae 493a 0a4f 86b7 b290 dfb9 1679 e737
00000150: 7498 43b9 820b 8bba 561d d639 a84a 79b9
00000160: 24c3 ff39 1d05 203a 6220 aa38 ebef e338
00000170: e34c 9939 5260 833a eb2a 293a 0d3c cc39
00000180: 3f9e 68ba 3577 cfb9 234c 15ba 4e95 27ba
00000190: b9e1 ae39 1341 ce39 f29e 25ba 3236 ecb9
000001a0: 5285 b4ba 4d0e bd39 17d3 103a af11 7f3a
000001b0: 4b98 1cba 54f6 dbb9 e472 b338 c190 18b9
000001c0: 5f51 8a39 8e43 e3b8 fff7 eeb7 936b 53b9
000001d0: 7369 ecb9 93db bab7 22c8 903a 20c8 21b9
000001e0: 0a14 c4b6 a8a5 6eb9 bed7 e0b8 2d45 e139
000001f0: e2b1 8cb9 bfb1 cc39 50f0 25ba 2d10 d339
00000200: cd21 263e d202 8dbd b01d b1bc 18ec e83e
00000210: 436b 9f3e 75d4 573f 130e 71be 5d83 33be
00000220: 0894 77be ce86 313e 5d5e e83e 61f7 34be
00000230: 9f2c 8bbd 46d8 24bd d811 92bd 0776 fabd
00000240: 201d cfbe 1031 f53e 6289 9e3d eabd f4bd
00000250: eaca aebd 8932 523c 2409 b83e b2b7 753e
00000260: ed5f 2a3c 2380 99bc ef4c 773e 398d 16bf
00000270: 2141 92be e8ab 00be 1d68 843e e9b7 81be
00000280: ab56 533f 7e91 a2bb a72c e13d dea2 883e
00000290: 5bcb 3ebf 9b75 4dbc 99e4 4dbe a4ce fc3d
000002a0: cf56 0abe 3109 613e fe01 d83c aab8 39be
000002b0: 0d6c 82be c447 283f 401c e73d 3544 21be
000002c0: 0f5d 173f c69d 8d3e 37b0 a1bc 60cd b23d
000002d0: 543e 9d3e 6a78 803d e2a4 2abd 13ea 05bf
000002e0: af08 9b3e f330 4e3e 5ed9 8bbe 780f 9a3e
000002f0: b795 a4bc 326a 05be d942 7e3d aad0 b53e
00000300: 84bc d9be 9e91 1e3e 057b d33b c109 06bf
00000310: 6f86 99be 21e5 0dbf 6f62 9dbd 84ad 063f
00000320: 6cd2 463d dace 65be 0a85 61be 1435 153f
00000330: f4e8 993e 893e 48be 7bc5 013e 1c07 6ebe
00000340: 4d97 51be d56a c3be ec6c 00be 029e b63e
00000350: 7252 4dbd 5a2b ddbe 5e0d 18be 5cbc c73e
00000360: 228c f7bd 1f1a ccbe c78f 243e 1b0d 56be
00000370: b888 41be bf1b 3b3e 996a f9bd decc a63e
00000380: 751f f03d 6d66 23be 5e41 06bd f8b7 5c3e
00000390: be6a debe d5fc 2f3f a4b7 b5bd 49ac bebc
000003a0: d333 42be 19da dbbd 36a9 193f 7b0d b13f
000003b0: b24c 44bd f8da fbbe ed07 153f 5e9d 6fbe
000003c0: bc55 0ebc 8a7d 1a3d e378 c9bc 38e9 e13d
000003d0: 1d6e 22be 3569 b3be 932b 1a3f 7913 8dbe
000003e0: b44c 72bc 606d 04bf a0de 11bf 2d49 90be
000003f0: feb1 1fbc 3e2b 3b3f 89e8 ffbe 452e 87be

_problem._r._units.0._patch_embedding.0.weight f4 [128, 1, 7, 7]
0.1355922 0.030943766 0.01373609 0.028102841 -0.079157345 0.01583592 -0.17551915 0.05742452
-0.013287898 0.047203902 0.030079868 -0.043229252 0.13735688 -0.03164489 -0.05482169 -0.055647057
0.058400016 -0.05131984 -0.0605039 0.06850115 -0.13691022 0.063006915 0.0020191793 0.030934954
-0.045726195 0.057276566 0.08377884 0.10436306 -0.07726631 0.10474082 -0.016492262 0.07381665
-0.10178428 -0.119513735 -0.046342645 0.12371028 0.014766088 0.01159117 0.024738224 0.13597202
-0.08933035 0.0075541823 -0.11478965 -0.06768927 -0.028249009 -0.120797195 0.09595935 -0.089853525
0.07094497 0.07171913 -0.1463079 0.009348158 -0.081909746 0.063921355 0.014341821 -0.038617816
0.11070545 0.053258482 0.08982174 -0.07146426 -0.0046802564 0.09404633 -0.04483978 0.06739175
-0.15289068 -0.007866718 -0.028059239 -0.0049601863 0.027462153 0.0047363546 0.04171976 -0.09070283
0.1458724 0.105828345 0.05161451 -0.056331858 -0.089432515 -0.05779551 -0.018955933 -0.042569667
-0.01651481 -0.091285065 -0.09294603 0.056728788 -0.09183012 -0.080121435 -0.028884042 0.04532121
0.11788374 0.04920976 0.23391682 0.061705314 0.14327587 0.053835355 0.05019214 -0.037115254
-0.1611128 0.033772014 0.061893955 0.039422344 -0.045684956 0.056987215 -0.06257584 0.07441908
-0.14285612 0.10091692 0.056833375 0.071045116 -0.021660892 -0.0025941767 0.106714584 -0.13550574
0.18386596 -0.09372695 -0.05893573 -0.01111255 -0.1030242 0.037938245 -0.0800805 0.05907048
0.12591143 0.03978964 0.15534322 -0.04500794 0.034994956 -0.05418069 -0.029250542 0.023567691
0.13165236 -0.08514163 0.051190387 -0.043421954 0.031323224 -0.070600934 -0.104526065 0.028130608
-0.07625426 -0.028722437 -0.035067875 0.23569933 -0.17662802 -0.053538185 -0.08900992 -0.11992156
-0.09061293 -0.20351933 0.14001173 -0.075722046 -0.10611663 0.035839975 0.082256176 0.048107043
-0.01681936 0.06634942 -0.01885149 0.081777826 -0.085911684 -0.014988743 -0.08856952 -0.026169958
0.044273354 0.03185023 -0.033407897 -0.048538238 0.0016963703 0.032643415 0.06849951 -0.088647224
0.0951334 -0.019079976 0.092631586 0.058909178 0.02827643 0.017190188 -0.089765675 0.13451265
0.023877028 0.12233116 0.027082127 0.02789274 0.10068087 0.07438368 0.14826275 0.100212134
0.1254464 0.049980856 0.068133354 0.02922067 0.06742498 0.077849284 -0.030676406 0.087882735
0.014691589 -0.032981087 0.024065023 0.10883682 0.03536012 0.043160062 -0.10410329 0.08773088
-0.016151996 -0.048793014 -0.1053226 -0.08614704 -0.038339075 -0.0052736583 0.111412555 0.04302149
0.0060059214 0.058931578 -0.04807477 0.07663322 0.12411029 -0.034130666 -0.04746567 -0.021391785
0.1354665 -0.014236003 -0.00445921 -0.028924841 -0.056042492 0.0021066505 -0.013318054 -0.0016376381
-0.1524104 0.06416154 -0.029059384 -0.12771083 0.049672414 0.03889105 0.012479753 0.009988405
0.025750354 0.06276787 0.017500143 -0.031132147 -0.041627992 -0.10818876 0.0003661699 -0.06750083
-0.13793474 -0.11520891 0.067870125 -0.026700621 -0.09564633 0.06702871 -0.08764535 0.046445034
0.08976282 -0.08598017 -0.05233277 -0.087156564 0.10978638 0.06544147 0.001977438 -0.016414952
00000000: afd8 0a3e c87d fd3c 560d 613c ee37 e63c
00000010: 3f1d a2bd 55ba 813c 4bbb 33be f935 6b3d
00000020: 7cb5 59bc e158 413d 0e6a f63c 2811 31bd
00000030: 48a7 0c3e 129e 01bd b58c 60bd 2bee 63bd
00000040: db34 6f3d c134 52bd f0d2 77bd 554a 8c3d
00000050: 3132 0cbe c509 813d 3554 043b 4d6b fd3c
00000060: 644b 3bbd d59a 6a3d 3e94 ab3d 4dbc d53d
00000070: cd3d 9ebd 5b82 d63d c81a 87bc 2f2d 973d
00000080: 4774 d0bd 9ec3 f4bd c9d1 3dbd d15b fd3d
00000090: 76ed 713c e4e8 3d3c d1a7 ca3c 403c 0b3e
000000a0: d5f2 b6bd 1389 f73b d616 ebbd aca0 8abd
000000b0: 776a e7bc 8564 f7bd 5686 c43d 2005 b8bd
000000c0: 994b 913d 7be1 923d bdd1 15be 0429 193c
000000d0: 4cc0 a7bd 33e9 823d f5f9 6a3c b72d 1ebd
000000e0: 8ab9 e23d 9125 5a3d 76f4 b73d db5b 92bd
000000f0: d65c 99bb 5d9b c03d eba9 37bd b004 8a3d
00000100: 608f 1cbe 68e3 00bc 7ddc e5bc 0f89 a2bb
00000110: 4ff8 e03c 6c33 9b3b 57e2 2a3d 68c2 b9bd
00000120: 935f 153e 88bc d83d bd69 533d 3cbc 66bd
00000130: 6528 b7bd fcba 6cbd 7949 9bbc 885d 2ebd
00000140: 114a 87bc aaf3 babd 7d5a bebd 725c 683d
00000150: 6e11 bcbd b516 a4bd 3a9e ecbc bca2 393d
00000160: 086d f13d 2c90 493d e487 6f3e b6be 7c3d
00000170: e9b6 123e 7682 5c3d 4696 4d3d 2a06 18bd
00000180: c1fa 24be 8654 0a3d 8484 7d3d 5379 213d
00000190: 2620 3bbd 6d6b 693d c327 80bd 0869 983d
000001a0: e048 12be 88ad ce3d 1dca 683d 1a80 913d
000001b0: 2f72 b1bc 1003 2abb 2d8d da3d 04c2 0abe
000001c0: 5c47 3c3e eaf3 bfbd 9866 71bd 6a11 36bc
000001d0: 5afe d2bd 2265 1b3d 3f01 a4bd e3f3 713d
000001e0: edee 003e 76fa 223d 4b12 1f3e 3f5a 38bd
000001f0: df56 0f3d 92ec 5dbd d59e efbc 0811 c13c
00000200: e0cf 063e bc5e aebd 03ad 513d 38db 31bd
00000210: c84c 003d 3997 90bd c311 d6bd 2972 e63c
00000220: 322b 9cbd 514b ebbc 55a3 0fbd 2a5b 713e
00000230: fadd 34be db4a 5bbd d54a b6bd 6f99 f5bd
00000240: 4693 b9bd 5f67 50be 3c5f 0f3e 2914 9bbd
00000250: ad53 d9bd f0cc 123d ed75 a83d e40b 453d
00000260: c1c8 89bc 34e2 873d 716e 9abc 227b a73d
00000270: 77f2 afbd 5893 75bc f063 b5bd 6162 d6bc
00000280: fa57 353d 6375 023d b8d6 08bd 08d0 46bd
00000290: be58 de3a 1ab5 053d 7949 8c3d ad8c b5bd
000002a0: 4dd5 c23d 9c4d 9cbc a1b5 bd3d c04a 713d
000002b0: f9a3 e73c 70d2 8c3c 11d7 b7bd afbd 093e
000002c0: c299 c33c c288 fa3d 56db dd3c 517f e43c
000002d0: c631 ce3d 7956 983d 31d2 173e 053c cd3d
000002e0: 0575 003e bab8 4c3d 8089 8b3d 3060 ef3c
000002f0: 1c16 8a3d 726f 9f3d 164d fbbc ddfb b33d
00000300: feb4 703c 2d17 07bd 0324 c53c d7e5 de3d
00000310: c6d5 103d 9bc8 303d 1b34 d5bd 3fac b33d
00000320: 3151 84bc 2fdb 47bd 60b3 d7bd dc6d b0bd
00000330: 6f09 1dbd a7ce acbb 442c e43d 4d37 303d
00000340: 52cd c43b 3d62 713d 0dea 44bd e1f1 9c3d
00000350: 892d fe3d 99cc 0bbd 5d6b 42bd d33d afbc
00000360: bbb7 0a3e 203e 69bc 911e 92bb caf3 ecbc
00000370: d08c 65bd bb0f 0a3b f833 5abc 04a6 d6ba
00000380: 7911 1cbe 2067 833d f20d eebc a1c6 02be
00000390: 4d75 4b3d 394c 1f3d e177 4c3c 68a6 233c
000003a0: 68f2 d23c 718c 803d 765c 8f3c d808 ffbc
000003b0: 1d82 2abd 1292 ddbd 7efa bf39 e03d 8abd
000003c0: c43e 0dbe a6f2 ebbd 7eff 8a3d 43bb dabc
000003d0: 39e2 c3bd 5946 893d 687f b3bd 263d 3e3d
000003e0: 92d5 b73d 5f16 b0bd e35a 56bd 247f b2bd
000003f0: aed7 e03d 2d06 863d e897 013b a678 86bc

_problem._r._units.0._patch_embedding.0.bias f4 [128]
0.0180854 0.024762813 -0.0351085 0.17870426 -0.05729027 0.061370324 0.025730748 -0.034339026
-0.10888398 0.060386393 0.1386479 0.025934462 -0.095742695 -0.12725854 0.03402363 -0.00051545363
-0.0979136 0.20449524 0.031928282 -0.086508036 -0.057250872 0.07195137 0.16843641 0.13939281
0.0073309513 0.022573804 -0.038657583 -0.16110186 -0.10368392 -0.011621652 0.026066728 -0.13522445
0.14246866 0.042538498 0.0057737106 0.004854712 -0.046041187 -0.03223811 0.092134856 0.06794604
-0.012317546 -0.07567044 0.0045553814 -0.07828864 -0.14982599 0.18974143 -0.037806556 0.0016408392
0.11475023 0.117587544 0.039166633 -0.08965302 0.10187109 0.09623616 0.10159721 -0.08308333
-0.02138909 -0.056822557 -0.09946904 0.042807456 -0.08498758 -0.011414382 0.07147973 0.13425209
-0.049228027 0.13821137 0.054086115 -0.09676198 0.034437265 -0.15814175 0.0015092057 0.031470288
-0.042532608 0.036496874 0.02996608 0.03097473 0.033849753 -0.03563036 -0.02085444 -0.018416867
-0.02650411 -0.025047392 -0.08540806 0.15677859 0.04443198 -0.02946487 0.018542785 0.17455788
-0.080305494 -0.13237816 0.007393505 -0.10800782 -0.08887375 0.03699504 -0.11609675 0.17598657
-0.02004605 -0.047473725 0.008169447 0.09293305 -0.09828633 0.17632362 -0.07596903 -0.09899703
-0.009629972 -0.1169128 0.03212182 0.096701436 0.036955077 0.006758675 0.10482879 0.045526523
0.02748749 -0.025042888 -0.10450891 0.059834905 -0.010230786 0.016949687 0.12147731 -0.054270644
-0.021154357 -0.15324321 -0.11970503 -0.11819673 -0.13196437 0.09223764 -0.06004566 -0.03831949
00000000: d527 943c 62db ca3c eecd 0fbd 40fe 363e
00000010: 34a9 6abd 735f 7b3d 4ac9 d23c 14a7 0cbd
00000020: 90fe debd b957 773d b7f9 0d3e 8274 d43c
00000030: bf14 c4bd 1050 02be 5d5c 0b3d 821f 07ba
00000040: ed86 c8bd 3367 513e 3bc7 023d 202b b1bd
00000050: e47f 6abd 3d5b 933d 987a 2c3e fdbc 0e3e
00000060: 7a38 f03b b3ec b83c 6a57 1ebd e3f7 24be
00000070: 3c58 d4bd be68 3ebc e489 d53c 4778 0abe
00000080: 4ee3 113e d93c 2e3d 6531 bd3b 4714 9f3b
00000090: af95 3cbd 1c0c 04bd 33b1 bc3d 4b27 8b3d
000000a0: 88cf 49bc 1bf9 9abd 4f45 953b cb55 a0bd
000000b0: fc6b 19be 944b 423e 0cdb 1abd 6d11 d73a
000000c0: 2b02 eb3d bdd1 f03d 316d 203d 019c b7bd
000000d0: caa1 d03d 7717 c53d 3312 d03d 9827 aabd
000000e0: 2c38 afbc c5be 68bd 6db6 cbbd df56 2f3d
000000f0: f80d aebd 6303 3bbc f763 923d 6179 093e
00000100: 54a3 49bd 4887 0d3e 6789 5d3d 252b c6bd
00000110: 170e 0d3d e9ef 21be 8ad0 c53a fde6 003d
00000120: ac36 2ebd bf7d 153d 6d7b f53c b8be fd3c
00000130: 0aa6 0a3d 24f1 11bd eed6 aabc f8de 96bc
00000140: 261f d9bc 3030 cdbc 6cea aebd 918a 203e
00000150: 4ffe 353d 5060 f1bc 0ae7 973c 4dbf 323e
00000160: 3577 a4bd 248e 07be 3745 f23b 3433 ddbd
00000170: 7103 b6bd 1c88 173d 22c4 edbd d335 343e
00000180: 9d37 a4bc cf73 42bd 25d9 053c af53 be3d
00000190: 584a c9bd 2e8e 343e a795 9bbd f4be cabd
000001a0: 08c7 1dbc fa6f efbd 2b92 033d 670b c63d
000001b0: 355e 173d e077 dd3b 7ab0 d63d 057a 3a3d
000001c0: 722d e13c be26 cdbc c408 d6bd 7215 753d
000001d0: 079f 27bc 12da 8a3c 19c9 f83d e54a 5ebd
000001e0: e74b adbc caeb 1cbe e927 f5bd 2111 f2bd
000001f0: ab21 07be 16e7 bc3d 70f2 75bd e6f4 1cbd

_problem._r._units.0._attn.in_proj_weight f4 [384, 128]
0.053511392 0.04290691 0.0036376626 0.022300316 -0.015063805 -0.07774225 -0.025371555 -0.048914198
-0.058687665 -0.045836575 -0.0033537403 -0.028061017 0.031493757 -0.0111501515 0.004127632 -0.024684362
-0.0078573385 0.057383083 -0.0422381 -0.021646047 0.027931625 -0.0052067535 -0.04248697 -0.050073612
0.04430194 0.00282449 -0.0430868 0.01450561 -0.02674114 0.027537705 -0.044835243 -0.10496108
-0.07366384 0.019812882 0.0040697884 -0.0007908344 -0.05061222 0.041577887 -0.054738313 -0.0007692965
0.039385885 0.059490014 -0.072963536 0.016751407 -0.06419304 -0.0689007 -0.051031947 -0.057357393
-0.06061094 -0.008936632 0.018786794 -0.037461154 0.075097494 0.030391142 -0.016150579 -0.057710905
0.012878516 -0.007306904 -0.058793385 -0.054866955 0.06219947 -0.034402132 0.030258501 -0.019298669
0.05520919 -0.037388157 0.090634756 -0.0026775787 -0.016484985 -0.052187998 -0.005716074 -0.0308583
-0.010464504 -0.022536382 -0.06335165 0.08993001 0.0023587355 0.032545157 0.012589902 0.030485872
0.01357683 0.030416636 -0.015569253 -0.03509454 -0.018378098 -0.04231629 -0.02639446 -0.038485304
0.07244201 0.015301068 0.092376396 0.03755733 0.054806177 0.054320537 -0.07830638 -0.06594696
-0.0039021983 -0.09220606 -0.025555136 0.03449139 0.051850867 0.06680405 -0.041738488 -0.027904866
0.042553917 0.040664196 0.010477296 -0.005192665 0.045956243 0.021531757 -0.033600617 0.004285513
-0.009800554 -0.009396892 0.03221356 -0.027796375 0.06541395 0.013460568 -0.028031418 0.030788686
0.0058022104 0.003224861 -0.047943443 -0.064589545 -0.010547945 -0.012112635 0.008140279 0.07449998
-0.010167703 0.044963274 -0.024496123 0.0065253307 0.014770275 -0.025287686 0.07290004 0.007631671
-0.02115669 -0.023984972 -0.01963798 -0.007598856 -0.020613635 0.010018032 0.023155643 -0.010127501
0.004956404 0.015099025 -0.017090546 -0.03333515 0.021440985 0.027259652 -0.033938646 0.024900878
-0.017197961 0.02508103 0.026574833 0.04198472 0.06599881 0.03363071 0.086838216 -0.0108297495
-0.04281661 0.017095432 -0.03897478 0.010123556 0.03895481 -0.0015470053 0.0070289746 0.003024975
0.003070813 0.0022052613 0.04981736 -0.042106863 -0.01166569 -0.0065241293 0.026098773 -0.096796416
0.07920761 -0.07264131 -0.024566919 0.039407678 -0.016081814 0.04682844 0.05464489 -0.0010138493
-0.021831172 0.006577729 0.017705135 -0.035680935 -0.01775933 0.020266132 0.005426932 -0.034480285
-0.004393049 0.014716451 0.01960434 -0.058756076 -0.04569623 0.042159438 -0.012178729 -0.015409986
-0.008265897 0.021035848 0.04144449 0.02208868 -0.00075163424 0.026255399 0.05155607 -0.040309105
0.0023600971 0.018224226 0.0066308463 0.0003326312 0.009534106 -0.09154799 0.029190937 -0.0179457
0.0123244375 0.06717118 -0.0016597621 -0.027219426 0.026929947 -0.036703717 -0.036349744 -0.01275153
0.03209283 -0.011184774 0.00577128 0.018964635 -0.029028548 -0.024537126 0.04653612 0.044277847
-0.015458931 0.013445083 0.034661707 -0.040250793 0.012089381 0.014456778 -0.047832582 0.014645181
0.029499251 -0.035498142 0.044096902 0.015187247 -0.008979178 0.022798494 0.024245933 -0.015270568
-0.033294197 0.01869288 0.032374427 -0.02982829 -0.02430921 0.105662115 -0.004816879 -0.014577444
00000000: c32e 5b3d 28bf 2f3d da65 6e3b 27af b63c
00000010: 2dce 76bc 5437 9fbd 02d8 cfbc 415a 48bd
00000020: 7a62 70bd 22bf 3bbd 6dca 5bbb 38e0 e5bc
00000030: 99ff 003d 20af 36bc 1641 873b dc36 cabc
00000040: 11bc 00bc 860a 6b3d dc01 2dbd 0d53 b1bc
00000050: ddd0 e43c 6a9d aabb d106 2ebd fd19 4dbd
00000060: f375 353d 141b 393b c97b 30bd f0a8 6d3c
00000070: 3c10 dbbc c196 e13c 29a5 37bd d6f5 d6bd
00000080: 11dd 96bd a04e a23c dc5b 853b 0050 4fba
00000090: c24e 4fbd 934d 2a3d 4835 60bd 9daa 49ba
000000a0: 1853 213d cdab 733d e86d 95bd 3f3a 893c
000000b0: a477 83bd cf1b 8dbd e006 51bd 96ef 6abd
000000c0: 2d43 78bd f46a 12bc c3e6 993c de70 19bd
000000d0: b7cc 993d d8f6 f83c 384e 84bc 4562 6cbd
000000e0: 6900 533c c16e efbb 55d1 70bd 2cbc 60bd
000000f0: dfc4 7e3d 40e9 0cbd ade0 f73c 3e18 9ebc
00000100: 0823 623d 5324 19bd b79e b93d 517a 2fbb
00000110: 850b 87bc 15c3 55bd e74d bbbb 8cca fcbc
00000120: 5073 2bbc 389e b8bc 83be 81bd 3a2d b83d
00000130: 0495 1a3b 124e 053d e045 4e3c 82bd f93c
00000140: 5a71 5e3c 4f2c f93c 2e16 7fbc 4bbf 0fbd
00000150: aa8d 96bc d953 2dbd 3239 d8bc c4a2 1dbd
00000160: 7a5c 943d 55b1 7a3c d62f bd3d b7d5 193d
00000170: 717c 603d 367f 5e3d 185f a0bd 330f 87bd
00000180: 06bc 7fbb 88d6 bcbd 0159 d1bc d846 0d3d
00000190: 9361 543d 90d0 883d faf5 2abd bf98 e4bc
000001a0: 044d 2e3d 808f 263d f7a8 2b3c 3b27 aabb
000001b0: 9d3c 3c3d 5e63 b03c cda0 09bd 7d6d 8c3b
000001c0: 8192 20bc 6cf5 19bc 5ef2 033d 39b5 e3bc
000001d0: c0f7 853d b789 5c3c 25a2 e5bc 8e38 fc3c
000001e0: 7820 be3b 3158 533b 5860 44bd 8647 84bd
000001f0: 4ad1 2cbc 1374 46bc ce5e 053c 7293 983d
00000200: 7096 26bc 692b 383d 18ac c8bc 71d2 d53b
00000210: 06ff 713c 1f28 cfbc 9e4c 953d 1913 fa3b
00000220: cb50 adbc 227c c4bc d4df a0bc d3ff f8bb
00000230: eddd a8bc ac22 243c e7b0 bd3c d1ed 25bc
00000240: 5569 a23b e761 773c 7901 8cbc 708a 08bd
00000250: 01a5 af3c a24f df3c 4003 0bbd edfc cb3c
00000260: bde2 8cbc bb76 cd3c 77b3 d93c 2bf8 2b3d
00000270: 622a 873d 5bc0 093d 3cd8 b13d 436f 31bc
00000280: 7860 2fbd b80b 8c3c 05a4 1fbd 45dd 253c
00000290: 148f 1f3d e2c4 caba 5053 e63b a93e 463b
000002a0: b13f 493b 2586 103b 4a0d 4c3d 3f78 2cbd
000002b0: 7321 3fbc 5dc8 d5bb 18cd d53c 333d c6bd
000002c0: 9937 a23d f8c4 94bd 9040 c9bc f269 213d
000002d0: 02be 83bc 2ecf 3f3d 52d3 5f3d 23e3 84ba
000002e0: 49d7 b2bc fd89 d73b 5c0a 913c 2c26 12bd
000002f0: 047c 91bc 2905 a63c 68d4 b13b 333b 0dbd
00000300: 91f3 8fbb 451d 713c 4899 a03c 36aa 70bd
00000310: f82b 3bbd 60af 2c3d 4b89 47bc 2a7a 7cbc
00000320: af6d 07bc 5f53 ac3c b3c1 293d 52f3 b43c
00000330: 5209 45ba 9015 d73c 752c 533d 291b 25bd
00000340: dcab 1a3b f94a 953c 9247 d93b 0165 ae39
00000350: f034 1c3c 837d bbbd d521 ef3c dc02 93bc
00000360: 70ec 493c 0b91 893d 608c d9ba 46fb debc
00000370: 319c dc3c a356 16bd 78e3 14bd cbeb 50bc
00000380: c573 033d 5840 37bc 011d bd3b b95b 9b3c
00000390: 47cd edbc 1502 c9bc a99c 3e3d b05c 353d
000003a0: 7547 7dbc c448 5c3c 6ff9 0d3d 04de 24bd
000003b0: 8a12 463c 1fdc 6c3c 19ec 43bd 57f2 6f3c
000003c0: 6aa8 f13c 8066 11bd f49e 343d eed3 783c
000003d0: 671d 13bc e8c3 ba3c 689f c63c 6831 7abc
000003e0: 7f5f 08bd d021 993c 0c9b 043d 755a f4bc
000003f0: 1c24 c7bc 6165 d83d e9d6 9dbb 3bd6 6ebc

_problem._r._units.0._attn.in_proj_bias f4 [384]
0.00022279508 -0.0006404656 7.3773626e-06 0.0010426582 -0.02604699 -0.11681055 0.00064399955 -0.08731546
-0.0012340265 0.019426908 -0.0077601583 -0.0041004345 -0.0015765458 -0.0027540133 0.060163762 -0.0021226539
0.00021513712 0.0014823759 0.000518776 -0.0018837634 0.0018887374 -0.1129007 0.00067381625 0.0058915094
0.0004058781 0.00043932573 0.0043650093 -9.33202e-05 -0.002137916 -0.13567065 9.8292294e-05 -0.0001832598
0.0004189081 -0.0041796886 0.0031376956 -0.00079361047 0.000372048 0.12493215 -0.0060059824 0.0018625152
-0.00022707864 -0.092369854 0.032204974 -0.00018332974 -0.0009235328 -0.0002482064 -0.0015097525 -0.00035029618
0.0054779383 0.1315132 0.001827537 -0.0010469585 0.00087595853 -0.08291985 0.0005956679 -7.668113e-06
-0.0005977558 -0.08862768 -0.00072074024 -0.00029549803 0.00022839397 -0.011241338 0.00015994055 -0.001439001
0.0010828391 0.00029613677 0.00015923331 0.0011011559 0.09137066 -0.0026865613 -0.10789015 -0.0005695895
-0.0010131372 -0.00013871193 -0.0016173846 -0.00089174433 -0.0012237924 0.010025011 -1.6054217e-05 -0.00039599653
-0.10442151 -0.00025309148 0.001316718 -0.0009707815 -0.00040726384 0.0005234564 0.0028602784 -0.00015589937
-0.08321873 0.0004121856 -0.12679078 0.00018196588 -0.004749855 -0.08542459 -0.04897256 0.08702101
-0.00010496568 0.00063981855 0.0011276903 0.0013689289 0.0014911607 -0.0025866556 0.033132836 -0.006276117
-0.0016466053 -0.00396143 0.107870325 0.0029822837 -0.0018820915 -0.0081771 -0.109921254 -0.087020814
-0.00042633925 -9.04752e-05 -0.07707553 -0.08094884 0.0006312352 -0.03872896 -0.0027737285 0.0046802624
-0.12830758 -0.0029928135 -0.0006966396 -0.0002968965 -0.04965495 0.1194284 -0.0006701959 -0.000683398
-0.0019346788 -0.0032695294 0.00016925571 -0.00016274556 -0.0001364696 -0.0076217363 -0.0033234353 0.0030642184
-3.987118e-05 -0.0034634457 -0.00069291197 -6.666225e-05 0.00024218533 0.0019544556 0.0019346304 0.00044338923
0.00041075985 0.0014713267 -0.0010410126 0.0008540213 0.00056253036 -0.008971573 0.0017043282 -0.0004333248
0.0002854364 -0.00018950118 0.0013058247 -0.00017408478 -0.0006915391 -0.0023248778 0.0013470468 -3.7839258e-05
-0.00060059014 0.00097380194 0.005000191 0.0004915812 -0.00079176703 -0.011575865 0.0009293991 -8.1670296e-05
-0.0020349247 0.0028753416 0.005346653 -0.00043355566 -0.00012113423 -0.0012692502 -0.00027466452 -0.0006994521
-0.00048473515 -0.0020436503 0.0011548003 0.00041123896 0.000192044 -0.005956809 0.0020902788 -0.006105502
2.5900408e-05 -0.0051585664 -0.00023568592 0.0070637977 -0.0014899005 -0.0022310172 0.00013787094 0.0031598853
0.00048790016 0.001212812 -0.004608108 -0.0019236675 0.004015469 0.00028385269 0.006181366 0.0006892713
-0.005069342 0.0022505643 0.00016898979 2.0530968e-05 -0.0006658958 0.0002566944 0.0009946296 -0.00026511156
0.011522122 0.00045415913 -0.0006318959 -9.604142e-05 -0.0005573133 0.003672804 -0.001034353 0.00042367223
0.0037101533 0.00088278844 -0.0039321696 -0.00028149819 0.0023814007 0.0065460405 -0.00025355155 0.0021398414
0.00046266036 -0.0007348162 0.0003006798 -0.0049412823 -0.0007443444 0.00019974481 0.00033380298 9.895736e-05
-0.0030406194 -0.00014293139 -0.00243144 -0.0012246311 -0.0011394463 -0.00066907774 -0.00403487 -0.0047364314
-0.00070166227 0.0010484785 -0.004148388 -0.012338333 0.00030627393 -0.002987409 -0.0055419654 0.000106587446
-0.01083909 -0.0008305446 -0.00074923295 9.383098e-05 -0.0046898257 -0.0042904816 -0.00045004464 0.00016576833
00000000: 199e 6939 ebe4 27ba 108b f736 cea9 883a
00000010: 7f60 d5bc 5f3a efbd 14d2 283a 73d2 b2bd
00000020: 0fbf a1ba 2e25 9f3c ed48 febb f05c 86bb
00000030: 19a4 ceba ad7c 34bb 476e 763d 391c 0bbb
00000040: 6e96 6139 484c c23a 78fe 073a 9ce8 f6ba
00000050: 838f f73a 7b38 e7bd 0ba3 303a 900d c13b
00000060: 09cc d439 4d55 e639 5a08 8f3b e7b4 c3b8
00000070: 471c 0cbb 3fed 0abe 4622 ce38 6e29 40b9
00000080: e5a0 db39 c5f5 88bb cca1 4d3b 4c0a 50ba
00000090: 700f c339 6ddc ff3d d5cd c4bb a41f f43a
000000a0: f51b 6eb9 682c bdbd 5de9 033d 343c 40b9
000000b0: 3d19 72ba b321 82b9 e3e2 c5ba f5a7 b7b9
000000c0: 4780 b33b 65ab 063e f789 ef3a 193a 89ba
000000d0: 95a0 653a e2d1 a9bd 9926 1c3a 4ba6 00b7
000000e0: b6b2 1cba 6e82 b5bd 0ff0 3cba 13ed 9ab9
000000f0: 0a7d 6f39 972d 38bc b7b5 2739 dc9c bcba
00000100: 0dee 8d3a ce42 9b39 def7 2639 a954 903a
00000110: 8a20 bb3d 0511 30bb 83f5 dcbd 8150 15ba
00000120: 3ecb 84ba 3373 11b9 6cfe d3ba f3c3 69ba
00000130: a967 a0ba f23f 243c 2bac 86b7 c19d cfb9
00000140: f2da d5bd 5db1 84b9 b995 ac3a 0b7c 7eba
00000150: 0786 d5b9 9038 093a 8273 3b3b eb78 23b9
00000160: 956e aabd 9d1a d839 71d5 01be 18ce 3e39
00000170: aca4 9bbb 16f3 aebd 7397 48bd 1238 b23d
00000180: 0521 dcb8 7fb9 273a 02cf 933a a26d b33a
00000190: 0d73 c33a e184 29bb 4cb6 073d e3a7 cdbb
000001a0: e8d2 d7ba e2ce 81bb 1eeb dc3d 6b72 433b
000001b0: 83b0 f6ba 3ef9 05bc 651e e1bd f837 b2bd
000001c0: 4986 dfb9 81bd bdb8 c7d9 9dbd 81c8 a5bd
000001d0: 7a79 253a 42a2 1ebd 71c7 35bb e35c 993b
000001e0: 1063 03be 1423 44bb b19e 36ba c6a8 9bb9
000001f0: fd62 4bbd e196 f43d 16b0 2fba 1026 33ba
00000200: 0c95 fdba 9a45 56bb 3c7a 3139 aea6 2ab9
00000210: 4819 0fb9 c2bf f9bb fecd 59bb 0ed1 483b
00000220: 5b3b 27b8 fafa 62bb 89a4 35ba 06cd 8bb8
00000230: 21f3 7d39 5316 003b 6d93 fd3a b276 e839
00000240: 415b d739 88d9 c03a 9672 88ba 66e0 5f3a
00000250: c676 133a 81fd 12bc c463 df3a df2f e3b9
00000260: a0a6 9539 d6b4 46b9 3528 ab3a 878a 36b9
00000270: 6748 35ba fa5c 18bb 648f b03a 98b5 1eb8
00000280: ec70 1dba be46 7f3a a4d8 a33b 75dd 003a
00000290: 968e 4fba b2a8 3dbc eba2 733a 6846 abb8
000002a0: 5f5c 05bb 3a70 3c3b fa32 af3b db4e e3b9
000002b0: 7209 feb8 f85c a6ba d900 90b9 705b 37ba
000002c0: 0d24 feb9 c3ee 05bb ab5c 973a 8f9b d739
000002d0: 6b5f 4939 5631 c3bb 0ffd 083b aa10 c8bb
000002e0: b444 d937 3109 a9bb 7522 77b9 6e77 e73b
000002f0: c448 c3ba 4236 12bb 7391 1039 1416 4f3b
00000300: dacc ff39 38f7 9e3a 9dff 96bb 9223 fcba
00000310: 3294 833b 10d2 9439 0e8d ca3b 37b0 343a
00000320: b91c a6bb 347e 133b da32 3139 eb39 ac37
00000330: 838f 2eba f094 8639 3b5e 823a acfe 8ab9
00000340: 48c7 3c3c 351c ee39 d1a5 25ba d869 c9b8
00000350: aa18 12ba 6db3 703b 2193 87ba 5320 de39
00000360: 0b26 733b ee6a 673a 6ed9 80bb 0c96 93b9
00000370: 4611 1c3b 2b80 d63b 1def 84b9 953c 0c3b
00000380: 3991 f239 aea0 40ba 8fa4 9d39 7bea a1bb
00000390: 1b20 43ba 9772 5139 4702 af39 5487 cf38
000003a0: 2145 47bb dadf 15b9 cb58 1fbb cd83 a0ba
000003b0: 7959 95ba 0c65 2fba f136 84bb 1134 9bbb
000003c0: c2ef 37ba 1a6d 893a 33ef 87bb b826 4abc
000003d0: 6493 a039 68c8 43bb 6099 b5bb b387 df38
000003e0: 7096 31bc e8b8 59ba 2c68 44ba 20c7 c438
000003f0: 1cad 99bb 2b97 8cbb f8f3 ebb9 19d2 2d39

_problem._r._units.0._attn.out_proj.weight f4 [128, 128]
0.1305684 0.037317246 0.16248725 -0.048003502 -0.14217204 -0.06977844 0.13367277 0.1023649
-0.07347443 0.0057720575 -0.07823029 -0.107190564 0.095462784 0.13415882 -0.05856737 0.053763017
-0.09144309 -0.034675267 0.3235452 -0.06263179 -0.01036796 -0.10579822 -0.17039138 0.09607148
0.21507184 0.10029324 0.1653558 -0.07545231 -0.060661197 -0.10417778 -0.023639917 -0.021471502
-0.092685305 0.005041793 -0.104594015 -0.07784976 -0.0061731925 0.14283329 0.19068152 0.1069447
0.11265892 -0.027007254 0.13116561 -0.042663574 0.05742632 -0.056681503 -0.015627444 -0.14132422
0.14898062 0.26190242 0.19705649 0.18808806 -0.033814155 0.0071404246 0.03958977 -0.010157423
-0.059817705 0.19860198 0.046854384 0.047515575 -0.007890615 0.12376325 -0.12954755 -0.10413238
-0.06635557 0.20457786 -0.07815485 0.0002499125 0.11270805 -0.049869653 -0.053923905 0.15434897
0.059103686 0.017912887 -0.050406665 0.06159582 0.047677595 0.045377575 0.008969489 -0.0064296816
-0.06621491 -0.09390991 0.024468496 -0.15284055 -0.059897795 0.022037748 0.110651575 0.04192872
-0.017481439 -0.03254661 -0.10586453 -0.05134218 -0.03351046 0.0063493615 0.14206621 0.058620226
0.049231034 -0.15349592 0.028987462 0.08392434 0.035296015 0.011280338 -0.060461387 0.050394025
0.064579986 -0.113127746 -0.12979136 -0.041923936 -0.1143307 0.06999135 -0.10802658 -0.13585265
0.07436829 -0.14066014 -0.1309616 -0.006598136 -0.042827763 0.005575437 -0.080077164 -0.03144115
-0.0412362 0.20544533 0.1455029 0.09603517 -0.04279571 -0.017681234 0.09467324 0.03706399
-0.16033088 -0.08014187 0.080617845 0.041586738 0.17305471 -0.20880945 -0.055957608 -0.038553666
-0.19485754 -0.0945084 0.13767467 0.027424773 -0.24757555 0.0067320787 -0.08953275 0.04870612
-0.03816134 -0.17703134 -0.13688247 -0.016118877 -0.08889147 0.0705453 -0.11266067 0.03887503
0.05643296 -0.08817896 0.040813047 0.123118855 -0.11645571 0.12466248 0.019047644 0.03143633
0.035939056 -0.117088564 -0.057118565 0.18272385 -0.070717275 -0.072223894 -0.028193623 -0.07249921
0.034954526 -0.0745633 0.07388694 0.021732219 -0.018646313 0.03668006 -0.17043877 -0.16510679
-0.038169745 -0.12602194 -0.16517013 0.071599334 -0.082462616 0.25662893 0.06804706 0.09934721
0.13791962 -0.08007832 -0.0769896 -0.18687409 -0.104788855 -0.04732109 0.028582787 0.20479015
0.006807781 -0.054373015 -0.101832494 -0.031693827 -0.1541156 0.1443978 0.017362235 0.115142934
0.0520282 0.14064425 0.07676074 -0.1125395 -0.1733425 -0.03869313 0.03140553 -0.0126712555
0.13159025 0.09912235 -0.031103382 -0.12921 0.030939449 0.13119633 0.00551969 -0.12902364
0.15581307 0.1701797 0.05430169 0.025810784 -0.032267533 0.023262728 -0.16367608 -0.05747682
-0.042777877 0.2859085 -0.105932474 -0.019208573 0.0208459 -0.12652 -0.068353094 -0.049110897
-0.15934399 -0.12253313 0.0069983006 0.0106291985 0.005095292 0.093207575 0.03347881 -0.051668845
0.08820736 -0.06674569 0.056801517 -0.051726703 -0.07985511 -0.16710693 -0.01014136 0.058089286
0.07459717 0.012459712 0.1794579 0.0435308 0.17695598 0.0932184 -0.032963954 -0.07313628
00000000: b9b3 053e f8d9 183d 0f63 263e 529f 44bd
00000010: 8c95 11be 00e8 8ebd 84e1 083e b0a4 d13d
00000020: c379 96bd 8723 bd3b 3437 a0bd ba86 dbbd
00000030: fe81 c33d ee60 093e 57e4 6fbd 9c36 5c3d
00000040: 8446 bbbd a707 0ebd b7a7 a53e 1945 80bd
00000050: 60de 29bc bdac d8bd 147b 2ebe 20c1 c43d
00000060: cb3b 5c3e 8b66 cd3d 0853 293e be86 9abd
00000070: e077 78bd 295b d5bd 80a8 c1bc 01e5 afbc
00000080: cbd1 bdbd a035 a53b 6335 d6bd b26f 9fbd
00000090: 7e48 cabb e442 123e 0442 433e d305 db3d
000000a0: b8b9 e63d 513e ddbc 4750 063e 00c0 2ebd
000000b0: dc37 6b3d dd2a 68bd 2005 80bc 4cb7 10be
000000c0: 608e 183e 1318 863e 2dc9 493e 289a 403e
000000d0: b680 0abd 39fa e93b e228 223d 526b 26bc
000000e0: 6903 75bd 515e 4b3e 62ea 3f3d b19f 423d
000000f0: a347 01bc 9677 fd3d 1da8 04be 5b43 d5bd
00000100: 6ee5 87bd dc7c 513e a60f a0bd b006 8339
00000110: 7ad3 e63d 1f44 4cbd 50df 5cbd a80d 1e3e
00000120: b516 723d 0cbe 923c 3877 4ebd e64b 7c3d
00000130: 9549 433d d6dd 393d c3f4 123c 14b0 d2bb
00000140: af9b 87bd d753 c0bd 2872 c83c 3c82 1cbe
00000150: 6457 75bd 8288 b43c 4b9d e23d 73bd 2b3d
00000160: 3c35 8fbc 984f 05bd 81cf d8bd 2e4c 52bd
00000170: 4442 09bd 4e0e d03b ce79 113e c31b 703d
00000180: 7ba6 493d 092e 1dbe 1d77 ed3c 86e0 ab3d
00000190: 8e92 103d 2bd1 383c 5ca6 77bd f769 4e3d
000001a0: 8342 843d 85af e7bd 07e8 04be 6fb8 2bbd
000001b0: 3726 eabd a057 8f3d 0a3d ddbd f51c 0bbe
000001c0: 674e 983d 3609 10be cc1a 06be 2d35 d8bb
000001d0: 2a6c 2fbd 28b2 b63b 7fff a3bd 6fc8 00bd
000001e0: 4ae7 28bd 4360 523e b6fe 143e 16ae c43d
000001f0: 8e4a 2fbd 3cd8 90bc 0be4 c13d 69d0 173d
00000200: c72d 24be 6c21 a4bd f81a a53d db56 2a3d
00000210: 4135 313e 25d2 55be ce33 65bd 73ea 1dbd
00000220: bc88 47be 9f8d c1bd 97fa 0c3e eba9 e03c
00000230: 7284 7dbe c598 dc3b f25c b7bd 1280 473d
00000240: 114f 1cbd b447 35be eb2a 0cbe bc0b 84bc
00000250: bb0c b6bd 0e7a 903d a3ba e6bd 6c3b 1f3d
00000260: 3f26 673d 2c97 b4bd 952b 273d bd25 fc3d
00000270: 5580 eebd 0b4f ff3d ce09 9c3c 62c3 003d
00000280: d534 133d 21cc efbd 28f5 69bd f61b 3b3e
00000290: 38d4 90bd 1fea 93bd 50f6 e6bc 777a 94bd
000002a0: 7a2c 0f3d a5b4 98bd 0952 973d c407 b23c
000002b0: 27c0 98bc d53d 163d 8087 2ebe c111 29be
000002c0: e157 1cbd e50b 01be 5c22 29be aca2 923d
000002d0: 29e2 a8bd de64 833e 425c 8b3d 8d76 cb3d
000002e0: cd3a 0d3e 1a00 a4bd b9ac 9dbd ec5b 3fbe
000002f0: 8a9b d6bd c2d3 41bd 7326 ea3c 82b4 513e
00000300: ce13 df3b 3db6 5ebd 8e8d d0bd 63d1 01bd
00000310: 7bd0 1dbe 04dd 133e 3f3b 8e3c 0fd0 eb3d
00000320: 861b 553d 0c05 103e bc34 9d3d 1c7b e6bd
00000330: b280 31be b07c 1ebd 16a3 003d 199b 4fbc
00000340: 98bf 063e a900 cb3d 85cc febc a04f 04be
00000350: ba74 fd3c 5558 063e 84de b43b c61e 04be
00000360: 768d 1f3e 9643 2e3e 736b 5e3d 2371 d33c
00000370: f62a 04bd 7a91 be3c b49a 27be d06c 6bbd
00000380: db37 2fbd 9962 923e 20f3 d8bd 4c5b 9dbc
00000390: 05c5 aa3c 758e 01be b5fc 8bbd 8228 49bd
000003a0: 122b 23be a6f2 fabd 0052 e53b 1726 2e3c
000003b0: 68f6 a63b 9de3 be3d 1421 093d b6a2 53bd
000003c0: 0fa6 b43d f7b1 88bd b5a8 683d 61df 53bd
000003d0: 138b a3bd 141e 2bbe f227 26bc 08ef 6d3d
000003e0: 67c6 983d d223 4c3c d0c3 373e 5a4d 323d
000003f0: f333 353e 4ae9 be3d 3605 07bd 79c8 95bd

_problem._r._units.0._attn.out_proj.bias f4 [128]
0.13170677 -0.1563594 0.21504812 -0.12404897 0.24931452 0.013514982 -0.022871865 0.027312322
-0.111607574 -0.115789235 0.008248475 0.0066968566 0.07287054 -0.009815564 -0.11826285 -0.033041265
0.024888486 -0.14875764 -0.11926376 -0.11549608 0.06449119 -0.0053517604 0.051641755 -0.1466234
0.13917631 0.1431089 0.030641118 0.21745008 0.0020226447 0.14720514 0.09147234 -0.21161543
-0.028006075 -0.07730941 -0.00010984173 0.03729737 -0.093698174 -0.101646185 -0.0548505 -0.032292757
0.09922669 -0.04241789 -0.03777002 0.036023244 -0.0429739 -0.0828729 0.04478487 -0.13193879
-0.08050374 0.065453306 0.0054369178 0.08807139 0.013070598 0.17092858 0.06602952 0.0342641
0.13088833 -0.0050172657 0.11541364 0.03357492 -0.06500262 -0.07560177 0.0023081088 -0.15627068
-0.021202365 -0.13869728 -0.076204434 0.086749755 -0.05720623 -0.010163749 -0.103015 -0.017508222
-0.07453825 0.17817567 0.034654405 -0.12608074 -0.06438451 -0.029132426 0.13480309 0.14270224
-0.01361386 -0.0396329 0.000375742 -0.001954224 0.03797661 0.10342662 -0.13109522 0.025936058
-0.011362224 -0.05645931 0.018864239 -0.09936191 0.051670715 -0.07492346 -0.24245852 -0.1350855
-0.06679496 0.0048371493 0.021618418 0.049321514 -0.107799925 -0.15813166 -0.03756161 0.046901662
-0.11650013 0.08166886 -0.051212788 0.16535659 0.047554508 -0.038241852 -0.02204626 -0.193518
0.038260594 0.014233226 -0.13933048 -0.11007371 0.17518654 0.11855045 -0.08711821 0.14662361
-0.005507666 -0.05026192 0.033865537 -0.13627607 0.008373954 -0.053832244 -0.009898428 -0.15960063
00000000: 24de 063e ae1c 20be 9335 5c3e 630d febd
00000010: 4e4c 7f3e f16d 5d3c c75d bbbc 17be df3c
00000020: 8392 e4bd e822 edbd 9d24 073c 4e71 db3b
00000030: 263d 953d 76d1 20bc cb33 f2bd 4756 07bd
00000040: f0e2 cb3c ec53 18be 8f40 f4bd 3589 ecbd
00000050: f513 843d d25d afbb 4e86 533d 7224 16be
00000060: 3c84 0e3e 248b 123e 1503 fb3c 3cab 5e3e
00000070: 598e 043b f2bc 163e da55 bb3d b7b1 58be
00000080: ff6c e5bc 6554 9ebd d45a e6b8 21c5 183d
00000090: d4e4 bfbd e02b d0bd ebaa 60bd 6945 04bd
000000a0: 5d37 cb3d 62be 2dbd bdb4 1abd 1c8d 133d
000000b0: 6605 30bd 44b9 a9bd 5770 373d f61a 07be
000000c0: 25df a4bd 620c 863d 2c28 b23b c65e b43d
000000d0: 1026 563c e707 2f3e 7c3a 873d 8358 0c3d
000000e0: 9707 063e e067 a4bb fd5d ec3d db85 093d
000000f0: 1820 85bd 1ad5 9abd a443 173b 6c05 20be
00000100: 95b0 adbc a906 0ebe 1211 9cbd dba9 b13d
00000110: 1451 6abd da85 26bc 87f9 d2bd 676d 8fbc
00000120: 83a7 98bd af73 363e c7f1 0d3d 4f1b 01be
00000130: 07dc 83bd 20a7 eebc d209 0a3e 8920 123e
00000140: ab0c 5fbc 1c56 22bd 3dff c439 7012 00bb
00000150: 5d8d 1b3d 56d1 d33d d33d 06be db77 d43c
00000160: 9f28 3abc e141 67bd 2d89 9a3c 427e cbbd
00000170: aca4 533d 7971 99bd 0c47 78be da53 0abe
00000180: cccb 88bd f380 9e3b 1c19 b13c 5b05 4a3d
00000190: 35c6 dcbd 44ed 21be 34da 19bd f51b 403d
000001a0: 9f97 eebd 0142 a73d 80c4 51bd 3d53 293e
000001b0: 84c8 423d 7da3 1cbd 5c9a b4bc 9529 46be
000001c0: 24b7 1c3d 7a32 693c a6ac 0ebe 536e e1bd
000001d0: 1a64 333e 94ca f23d 086b b2bd 8024 163e
000001e0: a779 b4bb 71df 4dbd 97b6 0a3d f48b 0bbe
000001f0: e932 093c 337f 5cbd 042d 22bc 596e 23be

_problem._r._units.1._cls_token f4 [1, 1, 128]
0.0004256806 -0.0002803366 -0.00017356774 -0.00093559665 -0.0007976144 0.0007992464 0.00016662401 -0.00071178534
0.00017366327 -0.0008611573 0.00016605227 -0.0008561701 0.00019471726 -0.00075870025 9.193608e-05 5.988391e-05
-0.00017082145 0.0008682602 0.00030083966 0.00068998104 -0.00089188997 -0.00015251417 0.00076733256 -0.00056890375
-0.00023464652 0.0006273117 -0.0011540537 0.00025335996 -4.2464948e-05 -0.00056107045 0.00011977354 0.0009617971
-0.00069305365 0.00016905597 0.00057430204 -0.00021767983 -0.0007904832 0.00024374666 0.00029050463 0.0010679137
0.00025125523 -0.0006323105 -0.00030108364 0.0005045281 -0.00024513152 -0.00091956556 -0.0012347224 0.00018493333
0.00018127299 0.00060987263 -0.0006257372 6.2976076e-05 0.00069960946 -0.00044833618 -0.00012483011 0.0005074991
0.00023754928 0.0002025727 -0.00053364865 0.00014370913 0.0006456632 -0.0007205226 -0.0008157828 -9.169945e-05
0.00015057105 -0.0007742119 -0.0006353357 0.0007335661 0.0013118001 0.00015018665 0.0002686482 -0.0011550348
0.00040133137 0.00038365411 0.00061533414 0.0002368675 0.0006008739 -0.00052982854 0.00039146547 -0.00037340567
-0.000104950785 0.0004420382 0.0010401725 0.0007858018 -0.00028443732 0.00077026326 -7.6620876e-05 0.00026904605
-0.0011266164 -0.0007196493 0.00015907903 0.00046281304 -0.0005230293 -0.0012431245 -0.00010603873 0.00029958022
-0.0010481253 0.0005821156 0.00080529 0.00010647403 -0.0005408501 -0.0002964583 0.00015719888 0.00045935824
-0.0012667758 -0.0011977833 0.00014126168 -0.00024356789 -0.00041505395 0.00020876036 -0.0004787997 0.0004128926
-0.00038397376 0.00017119572 0.0001579633 -5.9621518e-05 -0.0014659121 0.0010454657 -0.00061071414 0.0002495866
-0.0004947223 0.0010422972 -0.00037248092 0.0008827362 -0.0004192531 -0.00037963124 0.00031268067 0.0010708132
00000000: e22d df39 24fa 92b9 bcff 35b9 d442 75ba
00000010: ff16 51ba 8584 513a cbb7 2e39 1b97 3aba
00000020: 6119 3639 4abf 61ba 511e 2e39 9a70 60ba
00000030: 042d 4c39 83e3 46ba cfcd c038 dc2b 7b38
00000040: 891e 33b9 f59b 633a 04ba 9d39 d8df 343a
00000050: b9cd 69ba 36ec 1fb9 d126 493a 7c22 15ba
00000060: 720b 76b9 2d72 243a 9e43 97ba 66d5 8439
00000070: 641c 32b8 cd14 13ba ee2e fb38 1c21 7c3a
00000080: 0bae 35ba 9e44 3139 c28c 163a fc40 64b9
00000090: 6e38 4fba 3f96 7f39 df4e 9839 3df9 8b3a
000000a0: e8ba 8339 a4c1 25ba c3da 9db9 4f42 043a
000000b0: ff84 80b9 000f 71ba 69d6 a1ba aaea 4139
000000c0: 1914 3e39 dcdf 1f3a 8308 24ba 0612 8438
000000d0: ff65 373a aa0e ebb9 d4e4 02b9 b009 053a
000000e0: a616 7939 b269 5439 8ee4 0bba a0b0 1639
000000f0: b941 293a 74e1 3cba 42da 55ba c44e c0b8
00000100: 9ce2 1d39 7bf4 4aba a88c 26ba ca4c 403a
00000110: b5f0 ab3a 6c7b 1d39 5ad9 8c39 8964 97ba
00000120: c969 d239 2f25 c939 604e 213a a35f 7839
00000130: f783 1d3a 31e4 0aba 9b3d cd39 a9c5 c3b9
00000140: 0619 dcb8 5dc1 e739 6656 883a 44fe 4d3a
00000150: 8820 95b9 7eeb 493a 85af a0b8 c00e 8d39
00000160: f9aa 93ba d9a6 3cba 74ce 2639 b7a5 f239
00000170: e71b 09ba 56f0 a2ba 1c61 deb8 fa10 9d39
00000180: 4061 89ba 1e99 183a 191a 533a cf4a df38
00000190: d6c7 0dba f66d 9bb9 c1d5 2439 05d6 f039
000001a0: f109 a6ba f0fe 9cba a51f 1439 4266 7fb9
000001b0: 999b d9b9 afe6 5a39 6807 fbb9 8279 d839
000001c0: 1650 c9b9 0083 3339 f3a2 2539 1e12 7ab8
000001d0: d923 c0ba 0208 893a 5518 20ba f2da 8239
000001e0: 40b0 01ba b19d 883a 8b49 c3b9 6c67 673a
000001f0: 33cf dbb9 3e09 c7b9 4aef a339 875a 8c3a
