experiment/digit_classifier/version_6/checkpoints/best.ckpt (torch, 446631 bytes, 16 tensors)

_problem._r1._cls_token f4 [1, 1, 128]
0.0001009114 -0.00063126546 0.00093137316 -0.0001503161 -0.00025223265 0.00033237695 -0.00014743011 -0.0004811646
-0.0010616024 6.385949e-05 -0.00024130133 -0.00083521334 0.0010519493 -0.0006641154 -4.44035e-05 -0.00072634127
-0.00029791467 -0.00082087703 -2.969866e-06 -0.00038790473 -1.251869e-05 -0.00017972251 -3.7866117e-05 -0.00053846673
0.00073282997 4.868308e-05 -7.706354e-05 -0.00042209684 -0.0009186952 0.0006019019 1.6214064e-05 -0.00013791844
-4.1054984e-05 5.439323e-05 -0.00038559415 -2.134914e-05 0.00068029214 -0.0009811571 -0.0005787052 -0.0002186003
-0.0007494509 1.609382e-06 2.6591471e-05 0.0003879716 0.0015260711 -0.00023231958 0.0006611807 3.8970964e-05
-0.0004475774 0.00029676463 -0.00013765047 6.673441e-05 -0.00051159743 -4.4370754e-05 -0.0001560268 -0.00047156538
0.0008946187 0.0008192883 0.00052409194 0.0004184597 -4.2596068e-05 0.00044071613 -0.0012738869 0.00017607257
0.00013876456 3.06799e-05 -0.00090232864 -0.00044838135 0.0004981406 0.0002925955 0.00064328976 -0.00028639444
-0.00071093877 0.00025607017 -0.0006546836 0.00030397123 0.00025631962 0.0005123204 0.00031822096 0.00015772048
-0.0003771191 0.00017820524 -3.1174448e-05 -0.00065359205 -0.00067076914 -0.00062145 -0.00036850225 -0.0012279756
-0.0009362584 0.0012146025 0.00033877513 -0.000607912 0.0005313931 -0.00010074397 -6.554549e-05 -0.00051147304
0.0004359559 -0.00022586754 -0.0010222034 -0.0004562345 -0.00053506036 -0.0009602057 0.00021619847 0.00032010282
-0.0010088397 -0.00044662438 -0.0008133804 0.00022140071 -0.00024711865 0.00092931127 -0.0007610276 -0.00032819068
0.00043203367 -0.00052101957 -0.00017158494 1.0069378e-05 -0.00057674816 -0.0010955221 0.00072248763 -0.0006170925
0.00066059094 3.4719917e-05 0.00041053357 -4.2682994e-05 -0.00038661773 2.4205137e-05 -0.0008072358 4.696681e-05
00000000: 65a0 d338 827b 25ba 6527 743a 2c9e 1db9
00000010: 183e 84b9 e142 ae39 7897 1ab9 d244 fcb9
00000020: 7725 8bba 4dec 8538 d505 7db9 38f2 5aba
00000030: 90e1 893a 0818 2eba e53d 3ab8 f067 3eba
00000040: 6e31 9cb9 2030 57ba e94d 47b6 b15f cbb9
00000050: 5d07 52b7 e573 3cb9 6fd2 1eb8 e427 0dba
00000060: 631b 403a 0f31 4c38 2c9d a1b8 e14c ddb9
00000070: 97d4 70ba f4c8 1d3a 7003 8837 339e 10b9
00000080: 7432 2cb8 4924 6438 9229 cab9 ee16 b3b7
00000090: a255 323a 2b9a 80ba 40b4 17ba 1238 65b9
000000a0: cc76 44ba f201 d835 c010 df37 ab68 cb39
000000b0: 7306 c83a d09a 73b9 1653 2d3a c174 2338
000000c0: d2a8 eab9 1397 9b39 4456 10b9 c3f3 8b38
000000d0: b91c 06ba bc1a 3ab8 209b 23b9 6f3c f7b9
000000e0: d884 6a3a 82c5 563a 3763 093a b664 db39
000000f0: 2ea9 32b8 eb0f e739 8df8 a6ba 1fa0 3839
00000100: 5481 1139 4bae 0038 408a 6cba ba14 ebb9
00000110: a695 023a 8167 9939 72a2 283a 3627 96b9
00000120: 4b5e 3aba 2841 8639 139f 2bba 545e 9f39
00000130: a362 8639 3d4d 063a e5d6 a639 c561 2539
00000140: 12b8 c5b9 9bdc 3a39 4fc1 02b8 d255 2bba
00000150: 8ed6 2fba cee8 22ba 8933 c1b9 06f4 a0ba
00000160: 3d6f 75ba 4c33 9f3a a19d b139 495c 1fba
00000170: 304d 0b3a 8246 d3b8 7875 89b8 6014 06ba
00000180: 0391 e439 dbd6 6cb9 74fb 85ba c232 efb9
00000190: 4b43 0cba 50b6 7bba 56b3 6239 79d3 a739
000001a0: 0b3b 84ba e928 eab9 0939 55ba cd27 6839
000001b0: b48f 81b9 069d 733a b37f 47ba 0211 acb9
000001c0: 9482 e239 0895 08ba 7beb 33b9 a6ef 2837
000001d0: ea30 17ba 9f97 8fba 5365 3d3a 60c4 21ba
000001e0: 822b 2d3a 3aa0 1138 e23c d739 8406 33b8
000001f0: f4b2 cab9 230c cb37 ad9c 53ba 3afe 4438

_problem._r1._pos_embed f4 [1, 17, 128]
0.0001009114 -0.00063126546 0.00093137316 -0.0001503161 -0.00025223265 0.00033237695 -0.00014743011 -0.0004811646
-0.0010616024 6.385949e-05 -0.00024130133 -0.00083521334 0.0010519493 -0.0006641154 -4.44035e-05 -0.00072634127
-0.00029791467 -0.00082087703 -2.969866e-06 -0.00038790473 -1.251869e-05 -0.00017972251 -3.7866117e-05 -0.00053846673
0.00073282997 4.868308e-05 -7.706354e-05 -0.00042209684 -0.0009186952 0.0006019019 1.6214064e-05 -0.00013791844
-4.1054984e-05 5.439323e-05 -0.00038559415 -2.134914e-05 0.00068029214 -0.0009811571 -0.0005787052 -0.0002186003
-0.0007494509 1.609382e-06 2.6591471e-05 0.0003879716 0.0015260711 -0.00023231958 0.0006611807 3.8970964e-05
-0.0004475774 0.00029676463 -0.00013765047 6.673441e-05 -0.00051159743 -4.4370754e-05 -0.0001560268 -0.00047156538
0.0008946187 0.0008192883 0.00052409194 0.0004184597 -4.2596068e-05 0.00044071613 -0.0012738869 0.00017607257
0.00013876456 3.06799e-05 -0.00090232864 -0.00044838135 0.0004981406 0.0002925955 0.00064328976 -0.00028639444
-0.00071093877 0.00025607017 -0.0006546836 0.00030397123 0.00025631962 0.0005123204 0.00031822096 0.00015772048
-0.0003771191 0.00017820524 -3.1174448e-05 -0.00065359205 -0.00067076914 -0.00062145 -0.00036850225 -0.0012279756
-0.0009362584 0.0012146025 0.00033877513 -0.000607912 0.0005313931 -0.00010074397 -6.554549e-05 -0.00051147304
0.0004359559 -0.00022586754 -0.0010222034 -0.0004562345 -0.00053506036 -0.0009602057 0.00021619847 0.00032010282
-0.0010088397 -0.00044662438 -0.0008133804 0.00022140071 -0.00024711865 0.00092931127 -0.0007610276 -0.00032819068
0.00043203367 -0.00052101957 -0.00017158494 1.0069378e-05 -0.00057674816 -0.0010955221 0.00072248763 -0.0006170925
0.00066059094 3.4719917e-05 0.00041053357 -4.2682994e-05 -0.00038661773 2.4205137e-05 -0.0008072358 4.696681e-05
0.14081578 -0.038484856 0.29367617 0.28476077 1.0558127 0.118495315 -0.27005628 0.014257427
0.2423045 0.1416533 0.13606308 0.07083715 -0.14102621 0.23832808 -0.06828021 -0.1131613
-0.44420147 -0.008672155 0.6147805 -0.40855116 -0.05310747 0.15489261 0.13091277 -0.076396614
-0.023093002 0.0093910005 0.3783451 0.46897763 0.11294181 -0.3534146 0.032623325 -0.28161553
0.21889599 0.28606668 0.20781647 0.1873537 0.06210995 0.11708837 0.06247685 0.20088534
0.08372765 0.13718961 -0.047629885 -0.17048599 -0.06980258 0.0533326 0.07786055 -0.02636628
0.00072063913 0.05590534 -0.18845323 -0.10656186 -0.01529705 0.064399734 -0.34109724 -0.2627318
0.35325858 0.38154492 -0.2774919 0.1296947 0.028690256 0.28940308 -0.1965728 0.120080344
0.029588928 0.106354244 -0.14799756 -0.3749633 0.2729117 -0.09723848 0.1973561 0.00087746803
0.22351764 -0.14548506 -0.0064302855 -0.002946702 -0.089531474 0.2549309 -0.16446105 -0.34543085
-0.19680384 -0.5289926 0.24989218 0.060092255 -0.74253577 -0.040650476 -0.18713684 0.12216728
-0.025158562 -0.30024603 0.26200342 0.14871913 0.009877765 0.41472137 -0.41365233 0.061062522
-0.08780761 0.09473032 -0.19280642 0.2544879 -0.04046004 -0.18435405 0.22672199 -0.16134883
-0.3011193 -0.3726784 0.2842184 -0.103328496 -0.1361736 -0.039382957 -0.14126453 -0.12698887
-0.07608762 0.0038192451 0.69549626 0.042536948 0.041113295 -0.4712106 0.047668163 -0.079987526
-0.025221039 -0.07592848 0.25421607 0.0773803 -0.17064239 0.056766964 0.13264687 -0.14361706
00000000: 65a0 d338 827b 25ba 6527 743a 2c9e 1db9
00000010: 183e 84b9 e142 ae39 7897 1ab9 d244 fcb9
00000020: 7725 8bba 4dec 8538 d505 7db9 38f2 5aba
00000030: 90e1 893a 0818 2eba e53d 3ab8 f067 3eba
00000040: 6e31 9cb9 2030 57ba e94d 47b6 b15f cbb9
00000050: 5d07 52b7 e573 3cb9 6fd2 1eb8 e427 0dba
00000060: 631b 403a 0f31 4c38 2c9d a1b8 e14c ddb9
00000070: 97d4 70ba f4c8 1d3a 7003 8837 339e 10b9
00000080: 7432 2cb8 4924 6438 9229 cab9 ee16 b3b7
00000090: a255 323a 2b9a 80ba 40b4 17ba 1238 65b9
000000a0: cc76 44ba f201 d835 c010 df37 ab68 cb39
000000b0: 7306 c83a d09a 73b9 1653 2d3a c174 2338
000000c0: d2a8 eab9 1397 9b39 4456 10b9 c3f3 8b38
000000d0: b91c 06ba bc1a 3ab8 209b 23b9 6f3c f7b9
000000e0: d884 6a3a 82c5 563a 3763 093a b664 db39
000000f0: 2ea9 32b8 eb0f e739 8df8 a6ba 1fa0 3839
00000100: 5481 1139 4bae 0038 408a 6cba ba14 ebb9
00000110: a695 023a 8167 9939 72a2 283a 3627 96b9
00000120: 4b5e 3aba 2841 8639 139f 2bba 545e 9f39
00000130: a362 8639 3d4d 063a e5d6 a639 c561 2539
00000140: 12b8 c5b9 9bdc 3a39 4fc1 02b8 d255 2bba
00000150: 8ed6 2fba cee8 22ba 8933 c1b9 06f4 a0ba
00000160: 3d6f 75ba 4c33 9f3a a19d b139 495c 1fba
00000170: 304d 0b3a 8246 d3b8 7875 89b8 6014 06ba
00000180: 0391 e439 dbd6 6cb9 74fb 85ba c232 efb9
00000190: 4b43 0cba 50b6 7bba 56b3 6239 79d3 a739
000001a0: 0b3b 84ba e928 eab9 0939 55ba cd27 6839
000001b0: b48f 81b9 069d 733a b37f 47ba 0211 acb9
000001c0: 9482 e239 0895 08ba 7beb 33b9 a6ef 2837
000001d0: ea30 17ba 9f97 8fba 5365 3d3a 60c4 21ba
000001e0: 822b 2d3a 3aa0 1138 e23c d739 8406 33b8
000001f0: f4b2 cab9 230c cb37 ad9c 53ba 3afe 4438
00000200: 0332 103e 4ca2 1dbd b95c 963e 2acc 913e
00000210: df24 873f acad f23d d144 8abe fc97 693c
00000220: ac1e 783e 900d 113e 1f54 0b3e 1113 913d
00000230: 2d69 10be 470c 743e 7fd6 8bbd 1dc1 e7bd
00000240: 606e e3be a815 0ebc 4162 1d3f 9e2d d1be
00000250: 3887 59bd 2b9c 1e3e ff0d 063e d475 9cbd
00000260: 892d bdbc b6dc 193c 73b6 c13e d61d f03e
00000270: 094e e73d c2f2 b4be 09a0 053d e92f 90be
00000280: 4526 603e 5577 923e d7cd 543e a6d9 3f3e
00000290: 0167 7e3d 07cc ef3d bae7 7f3d e3b4 4d3e
000002a0: 6779 ab3d 6f7b 0c3e 8e17 43bd e193 2ebe
000002b0: a8f4 8ebd 4973 5a3d 5a75 9f3d 19fe d7bc
000002c0: 46e9 3c3a fffc 643d e2f9 40be 1b3d dabd
000002d0: 7aa0 7abc 02e4 833d 4ca4 aebe c884 86be
000002e0: 4fde b43e db59 c33e 6b13 8ebe b0ce 043e
000002f0: d407 eb3c a42c 943e 614a 49be afec f53d
00000300: 7b64 f23c 41d0 d93d ac8c 17be 31fb bfbe
00000310: 15bb 8b3e f824 c7bd b817 4a3e e205 663a
00000320: cfe1 643e 09fa 14be 25b5 d2bb 751d 41bb
00000330: 475c b7bd 4e86 823e 7a68 28be 50dc b0be
00000340: f286 49be 0f6c 07bf bce3 7f3e 4c23 763d
00000350: d316 3ebf 1d81 26bd cda0 3fbe d732 fa3d
00000360: 5419 cebc d9b9 99be 5025 863e d449 183e
00000370: 59d6 213c 5c56 d43e 3dca d3be b21c 7a3d
00000380: 7ad4 b3bd f801 c23d 0c6f 45be 3d4c 823e
00000390: 6db9 25bd 4fc7 3cbe cf29 683e a138 25be
000003a0: 4f2c 9abe b4cf bebe 1385 913e e49d d3bd
000003b0: 1871 0bbe 0650 21bd a6a7 10be 5f09 02be
000003c0: d3d3 9bbd 4d4c 7a3b 0b0c 323f 393b 2e3d
000003d0: 6a66 283d 8442 f1be b13f 433d 80d0 a3bd
000003e0: 5a9c cebc 6480 9bbd 9c28 823e 9079 9e3d
000003f0: e1bc 2ebe 7a84 683d 95d4 073e 5a10 13be

_problem._r1._patch_embedding.0.weight f4 [128, 1, 7, 7]
0.03945078 -0.010618946 0.06083923 -0.010529832 0.0007074124 0.07621403 -0.049067535 0.079245016
-0.047869626 0.041288115 0.043030914 -0.022224281 0.07690263 0.042133372 -0.04355624 -0.06922759
-0.057125777 -0.012937113 -0.065334 -0.025106812 -0.094696686 0.11224059 0.026885083 0.043971073
6.968067e-05 0.032317344 -0.13085711 -0.0024887347 -0.16752626 0.087612525 -0.0237923 0.07936705
-0.10777104 -0.084263265 -0.044843625 -0.005234028 -0.020005045 -0.032759015 -0.00874564 0.08301085
0.0071018217 0.06380691 -0.0328557 0.047263447 -0.037829876 -0.064679794 0.07334684 -0.04453356
0.047464095 0.043139383 -0.13735197 0.08568796 -0.008772056 0.034421526 -0.062438603 -0.14827888
0.10214495 0.17430447 0.15284763 -0.015320948 -0.029524632 0.025226617 0.0305458 0.10140444
0.051550206 0.1036777 -0.03434176 -0.009467201 0.087821245 0.062907115 0.052635584 -0.102713965
0.099372625 0.0093909465 0.05626392 0.06913827 -0.0060314354 -0.013252254 -0.108570024 -0.015036441
0.017168416 -0.06886243 -0.054457553 -0.027827477 0.10081702 -0.010064772 0.051941525 0.100826584
0.0156207215 -0.061340414 0.07016429 0.029855961 -0.013720398 -0.099374816 0.035433594 0.0012910012
-0.0028166864 0.096830845 -0.016730942 0.04233547 -0.07304482 0.038136497 -0.057249207 0.077568784
-0.15254632 0.02436438 0.05660262 0.08573837 -0.004718979 0.06667383 0.08781172 -0.01945178
0.13194342 -0.09617591 -0.06974401 0.023118898 -0.109306514 0.009513796 0.0015380097 0.043940738
0.1342935 -0.020837171 0.10345623 -0.018103616 0.049866818 -0.036293183 0.0190972 -0.028198099
0.1410854 -0.07916509 0.09863604 0.021593235 -0.031434268 0.04664565 -0.11992913 0.04966426
-0.09688047 -0.0038612348 -0.0010613981 0.12444049 -0.09356168 0.051061932 0.019798372 -0.016570253
0.03509433 -0.09866464 0.11615779 -0.04274582 -0.06921394 0.011592146 0.11365109 0.04902118
-0.06808192 0.0071816426 0.0015755891 0.1387445 -0.029953003 -0.06860592 -0.11984765 -0.017767213
0.05986163 -0.010833872 0.01633144 -0.029413035 0.033310715 -0.006456361 -0.044940628 -0.0862262
0.028819948 0.031382564 0.07934829 0.10249667 0.07679019 -0.00089897483 -0.112101555 0.0488738
0.03589683 0.15063459 0.026721615 0.043424044 0.11102222 0.086716846 0.16774048 0.080033384
0.07469058 0.0625617 0.055229414 0.05473347 0.10702351 0.08542226 0.007857291 0.100220606
-0.013357323 0.02387559 0.009545899 0.0039255284 0.029867977 0.06671636 -0.10628599 0.0992144
-0.05618085 -0.047931675 -0.20392229 -0.051042076 0.004838108 -0.052434795 0.061921578 0.049410813
0.058215685 0.06867811 0.055110116 0.108934924 0.11542317 -0.085047334 -0.0038376686 0.11041381
0.11130119 0.021996383 -0.098924585 -0.046718996 -0.08328145 0.017496033 0.027908865 -0.0059898337
-0.030842938 0.13145564 -0.052274734 -0.06632171 0.07997945 0.089702085 0.038164612 0.119244784
0.035339653 0.15133679 0.09495447 0.09424677 0.066466 -0.0184238 0.16488571 0.0056706737
-0.038437407 -0.045884855 0.10396512 0.009653618 -0.041464023 0.027232636 -0.087939024 0.091798045
0.124776706 -0.06938125 -0.08602286 -0.15075427 0.095435746 0.049111824 -0.03931827 -0.039564777
00000000: 2497 213d 16fb 2dbc 8e32 793d 5185 2cbc
00000010: a471 393a 1a16 9c3d 0afb 48bd 364b a23d
00000020: f112 44bd ba1d 293d 2f41 303d b20f b6bc
00000030: 207f 9d3d 0b94 2c3d 0768 32bd 32c7 8dbd
00000040: b8fc 69bd 2ff6 53bc d5cd 85bd cdac cdbc
00000050: 56f0 c1bd 65de e53d 1b3e dc3c 031b 343d
00000060: 8621 9238 315f 043d 68ff 05be 0a1a 23bb
00000070: 018c 2bbe 326e b33d 12e8 c2bc 318b a23d
00000080: 10b7 dcbd 3892 acbd f3ad 37bd 3682 abbb
00000090: 9fe1 a3bc 512e 06bd df49 0fbc 9801 aa3d
000000a0: 66b6 e83b 32ad 823d b393 06bd 5197 413d
000000b0: 80f3 1abd d776 84bd de36 963d d268 36bd
000000c0: b669 423d ecb2 303d ffa5 0cbe 2b7d af3d
000000d0: abb8 0fbc 96fd 0c3d 9fbf 7fbd 6bd6 17be
000000e0: 5f31 d13d df7c 323e 1784 1c3e b704 7bbc
000000f0: a4dd f1bc 0da8 ce3c 303b fa3c 22ad cf3d
00000100: 4f26 533d f954 d43d f2a9 0cbd 521c 1bbc
00000110: a0db b33d 72d5 803d 6998 573d b35b d2bd
00000120: e083 cb3d 7cdc 193c ff74 663d 5e98 8d3d
00000130: 59a3 c5bb fb1f 59bc f659 debd 685b 76bc
00000140: c7a4 8c3c bf07 8dbd e20e 5fbd 73f6 e3bc
00000150: 2779 ce3d b7e6 24bc a3c0 543d 2b7e ce3d
00000160: 0eee 7f3c 1640 7bbd 4cb2 8f3d 7d94 f43c
00000170: 85cb 60bc 0685 cbbd d122 113d d036 a93a
00000180: 2898 38bb 404f c63d 540f 89bc f567 2d3d
00000190: 8698 95bd 0435 1c3d 257e 6abd 62dc 9e3d
000001a0: 1a35 1cbe cf97 c73c 26d8 673d 9997 af3d
000001b0: aaa1 9abb 4a8c 883d a2d6 b33d 5759 9fbc
000001c0: 2d1c 073e e0f7 c4bd f3d5 8ebd d863 bd3c
000001d0: 18dc dfbd c1df 1b3c 0b97 c93a 34fb 333d
000001e0: 3c84 093e b7b2 aabc dce0 d33d 094e 94bc
000001f0: 2641 4c3d 29a8 14bd bb71 9c3c b3ff e6bc
00000200: b178 103e 4f21 a2bd b101 ca3d 4ce4 b03c
00000210: 38c1 00bd 820f 3f3d 679d f5bd c06c 4b3d
00000220: 4569 c6bd c50c 7dbb 9c1e 8bba a8da fe3d
00000230: 449d bfbd 5126 513d 3230 a23c 57be 87bc
00000240: 12bf 0f3d b010 cabd 23e4 ed3d 3e16 2fbd
00000250: 0ac0 8dbd fcec 3d3c e7c1 e83d 6fca 483d
00000260: 896e 8bbd fc53 eb3b ff83 ce3a 0a13 0e3e
00000270: 0060 f5bc 4381 8cbd af72 f5bd 8c8c 91bc
00000280: 7831 753d 8d80 31bc 83c9 853c 9bf3 f0bc
00000290: d170 083d e28f d3bb aa13 38bd 5d97 b0bd
000002a0: d017 ec3c 018b 003d 5b81 a23d c6e9 d13d
000002b0: 2d44 9d3d 2ea9 6bba 8095 e5bd e52f 483d
000002c0: 8e08 133d f43f 1a3e 4ae7 da3c 69dd 313d
000002d0: 9e5f e33d 9a98 b13d 29c4 2b3e 8be8 a33d
000002e0: 60f7 983d 5920 803d 3d38 623d 3430 603d
000002f0: 242f db3d def1 ae3d debb 003c 7640 cd3d
00000300: acd8 5abc be96 c33c 6766 1c3c b8a1 803b
00000310: b0ad f43c 96a2 883d 78ac d9bd eb30 cb3d
00000320: e41d 66bd 0154 44bd 01d1 50be 7f11 51bd
00000330: fe88 9e3b dec5 56bd 7ba1 7d3d fe62 4a3d
00000340: 9273 6e3d 1ca7 8c3d 25bb 613d 4619 df3d
00000350: fc62 ec3d 4c2d aebd 6581 7bbb a320 e23d
00000360: e1f1 e33d c231 b43c f998 cabd 6b5c 3fbd
00000370: 778f aabd d753 8f3c 22a1 e43c 5e46 c4bb
00000380: 54aa fcbc 4f9c 063e 081e 56bd add3 87bd
00000390: 44cc a33d bab5 b73d 7f52 1c3d 9c36 f43d
000003a0: 50c0 103d 08f8 1a3e 7d77 c23d 7304 c13d
000003b0: 541f 883d 82ed 96bc cdd7 283e 0fd1 b93b
000003c0: 8b70 1dbd c2f1 3bbd aaeb d43d 352a 1e3c
000003d0: 2ed6 29bd fa16 df3c 6019 b4bd 9d00 bc3d
000003e0: ee8a ff3d c217 8ebd c12c b0bd 545f 1abe
000003f0: d173 c33d 7b29 493d 320c 21bd ad0e 22bd

_problem._r1._patch_embedding.0.bias f4 [128]
-0.031779766 0.05840711 0.0061742812 0.16801709 0.068403035 -0.04025227 0.035302453 0.046766575
0.016919887 0.09527868 0.07172558 0.13243343 -0.15105778 -0.015680373 0.038011737 -0.020708444
-0.091314524 0.13207114 0.08012638 -0.2154985 -0.00045606442 0.06998141 0.16776246 0.11981342
-0.027106378 0.094300196 -0.0070815436 -0.0194883 -0.06522314 -0.04514353 -0.004011832 -0.12463373
0.06494975 0.090564154 0.020666387 0.022530094 0.014445824 0.07037479 0.11032849 0.108970724
-0.02989863 -0.0712328 0.061726656 -0.11860015 -0.12515812 0.039443348 -0.056903355 0.07542453
0.009718873 0.0697479 0.06964027 -0.15505506 0.122944325 0.068150155 0.023440002 -0.06166015
-0.02350341 0.011135683 -0.11985832 0.011364045 -0.032092154 0.061210275 0.0050859186 0.13977534
0.037594963 0.14082508 0.019706134 -0.09350762 0.10450126 -0.08297685 0.06576689 -0.014219223
-0.022594333 0.013871872 0.028071469 -0.054375328 -0.10027908 0.008771223 -0.07027649 -0.042671453
-0.052444596 -0.0105669405 -0.028809339 0.10812568 -0.08266835 0.067260444 0.02347256 0.1269623
-0.07591871 -0.17885193 0.09693679 0.024475204 -0.122541 0.04453525 -0.105024815 0.0997453
-0.080484726 0.014219713 -0.066335395 0.08807521 0.03468124 0.084252805 -0.023092953 -0.081025325
-0.027935885 -0.13785243 -0.00015613336 -0.124636285 0.041282162 -0.0134055335 -0.016885364 0.027132554
-0.017462242 -0.03305791 0.02563477 0.028535979 0.10485283 -0.00592586 -0.013367604 0.01523806
-0.071903445 -0.077959485 -0.0352804 -0.07434483 -0.14282131 -0.029720953 -0.00081389846 -0.016104845
00000000: 802b 02bd 4b3c 6f3d a051 ca3b ac0c 2c3e
00000010: e416 8c3d 90df 24bd 4e99 103d 4f8e 3f3d
00000020: 939b 8a3c 7821 c33d dce4 923d a19c 073e
00000030: e4ae 1abe 2074 80bc 32b2 1b3d c1a4 a9bc
00000040: 1c03 bbbd a83d 073e 4d19 a43d a4ab 5cbe
00000050: ee1b efb9 6a52 8f3d ecc9 2b3e bd60 f53d
00000060: 320e debc 7620 c13d 4b0c e8bb eda5 9fbc
00000070: b693 85bd 6ce8 38bd b075 83bb f83f ffbd
00000080: 6004 853d b379 b93d 8e4c a93c 0891 b83c
00000090: 2dae 6c3c a820 903d e7f3 e13d 0b2c df3d
000000a0: f9ed f4bc 81e2 91bd 17d5 7c3d a3e4 f2bd
000000b0: 7329 00be 598f 213d 7e13 69bd 2d78 9a3d
000000c0: e83b 1f3c fdd7 8e3d 8f9f 8e3d c1c6 1ebe
000000d0: 3cca fb3d 4f92 8b3d 3f05 c03c 5a8f 7cbd
000000e0: 398a c0bc 7172 363c 4778 f5bd 4230 3a3c
000000f0: 1073 03bd a0b7 7a3d c7a7 a63b 4421 0f3e
00000100: 2dfd 193d 7334 103e c26e a13c ec80 bfbd
00000110: c204 d63d c4ef a9bd cbb0 863d bef7 68bc
00000120: c017 b9bc d946 633c 23f6 e53c aab8 5ebd
00000130: 1e5f cdbd 2db5 0f3c 1fed 8fbd 43c8 2ebd
00000140: 25d0 56bd f620 2dbc 9001 ecbc ff70 dd3d
00000150: 064e a9bd d8bf 893d 8749 c03c 6802 023e
00000160: 457b 9bbd f624 37be cc86 c63d 3980 c83c
00000170: c7f6 fabd 986a 363d 4017 d7bd 4447 cc3d
00000180: 2dd5 a4bd cdf9 683c dada 87bd c760 b43d
00000190: ea0d 0e3d bc8c ac3d 6f2d bdbc 9bf0 a5bd
000001a0: ccd9 e4bc 3029 0dbe bbb7 23b9 4f41 ffbd
000001b0: 7c17 293d e2a2 5bbc 2d53 8abc 1745 de3c
000001c0: fa0c 8fbc bb67 07bd 0200 d23c 49c4 e93c
000001d0: 15bd d63d b72d c2bb cc03 5bbc 0ea9 793c
000001e0: 1d42 93bd 39a9 9fbd 2e82 10bd 1a42 98bd
000001f0: c03f 12be 5b79 f3bc cd5b 55ba 4fee 83bc

_problem._r1._attn.in_proj_weight f4 [384, 128]
-0.04526467 0.012966128 -0.009162785 0.010818868 -0.024438696 0.02234677 0.031816315 -0.031718757
0.035576798 0.046738643 0.016646499 0.017296117 0.010016222 -0.013478811 0.05355203 -0.07041418
-0.050710864 0.059761506 -3.6882488e-05 -0.01535223 -0.018042613 0.021671766 0.002682013 0.019372225
0.002833847 -0.021832718 0.049195584 -0.0008215875 -0.021296447 -0.025404023 -0.020317627 -0.040112
-0.001085923 -0.028446214 -0.023804663 -0.028402196 -0.09861625 0.044906743 -0.02848919 0.0055479924
-0.007385944 0.042062424 0.006252964 -0.0070378757 0.011653864 -0.006299714 -0.029719252 -0.023156013
-0.04021037 -0.014136942 0.0033446858 -0.024519872 0.033919018 -0.00032356923 -0.006123405 -0.034956533
-0.051850565 -0.045562603 0.00079296686 0.008714451 0.014023289 -0.024789806 -0.03456957 -0.046055015
-0.0010171301 0.0007565479 0.049066894 0.019333728 -0.022762932 -0.034 0.003103294 0.041923136
-0.021135626 -0.044481084 0.00078536547 0.0108055705 -0.014439775 0.015776984 -0.0029231098 0.014207343
-0.009045993 0.02292576 -0.0066358587 0.026501548 0.0148320515 -0.007975962 -0.026064955 -0.04215453
0.029255783 0.0032995981 0.03155379 -0.049583383 -0.013122247 -0.016703805 -0.030988306 -0.015982749
-0.011925835 -0.03163305 0.033488274 0.015711978 0.008379643 0.044698764 -0.045301907 -0.051042322
-0.0098839635 0.073484376 -0.0039408803 -0.03327634 0.012324452 0.009806737 -0.05224644 0.012515341
-0.0012319371 0.01110128 0.019596938 -0.027331715 0.06881503 0.06853803 -0.041702278 -0.048863046
-0.0007061366 -0.02896056 -0.021772292 -0.032453332 -0.012370165 -0.023704832 -0.01518853 0.050070252
0.056820545 -0.0045181913 -0.01734513 -0.0407646 -0.024018187 -0.024648272 0.06644848 -0.06057274
-0.08456378 -0.06915543 -0.018584603 0.045874897 0.06656907 0.022366116 0.056264732 -0.086663626
0.059726764 -0.089481756 -0.07079688 -0.10442654 0.012240128 0.0392465 -0.011711728 0.019351244
-0.012586204 -0.03847184 0.087914504 0.075486705 0.04859757 0.07285757 -0.038600765 0.039837908
-0.0035139013 0.06807543 -0.048624814 0.008671619 0.10695803 -0.04210559 -0.007885742 0.018684085
-0.06858426 -0.023359556 0.023659693 0.03143843 -0.009324986 0.0011925902 0.07498833 -0.07817254
0.048454605 -0.06332948 -0.065381326 -0.036741704 -0.060380213 0.01603506 0.03381551 0.004877179
-0.028548533 0.020416116 0.031625785 -0.091808796 0.00454453 -0.059951216 0.08888343 -0.01596039
-0.07002338 0.02658333 -0.07872981 -0.07932074 -0.03278045 -0.019384809 -0.026816003 0.084222876
0.029027741 0.047059625 0.036491636 0.13106287 0.0868191 0.07617938 0.032023847 0.025570955
0.015515656 0.000318806 0.07426951 0.04451672 -0.017443473 -0.062914014 0.03012248 -0.02606539
0.06398062 0.06087493 -0.045123484 -0.067219414 0.10258424 -0.057852656 0.010061768 0.012411174
0.052390967 -0.09488356 0.061517056 0.0023283234 -0.06800553 -0.06586238 -0.004811249 0.06440108
-0.040803377 0.0014746139 0.028232113 -0.029234309 0.055492993 -0.04476584 -0.031916127 -0.032208268
0.061509825 -0.06851177 0.07253257 -0.04418888 -0.0004063633 0.050544545 -0.047126494 -0.056514233
-0.016481731 0.09930989 0.0061861044 0.008963341 -0.015888793 0.07778425 -0.08205092 0.012164897
00000000: 7267 39bd e26f 543c 811f 16bc 9f41 313c
00000010: a933 c8bc 9310 b73c d351 023d 87eb 01bd
00000020: fab8 113d 0571 3f3d 3d5e 883c 96b0 8d3c
00000030: 141b 243c 3bd6 5cbc 6059 5b3d 4f35 90bd
00000040: 32b6 4fbd 7bc8 743d 45b2 1ab8 eb87 7bbc
00000050: 1ace 93bc fd88 b13c b6c4 2f3b 80b2 9e3c
00000060: 10b8 393b 87da b2bc 4f81 493d ce5f 57ba
00000070: e375 aebc 191c d0bc 2771 a6bc 7b4c 24bd
00000080: 8855 8eba 0908 e9bc ff01 c3bc b9ab e8bc
00000090: 51f7 c9bd 22f0 373d 2962 e9bc efcb b53b
000000a0: ca05 f2bb a649 2c3d aae5 cc3b fb9d e6bb
000000b0: d9ef 3e3c d56d cebb ca75 f3bc aeb1 bdbc
000000c0: a1b3 24bd a29e 67bc 8432 5b3b e6dd c8bc
000000d0: abee 0a3d baa4 a9b9 d8a6 c8bb 952e 0fbd
000000e0: 4261 54bd da9f 3abd 1bdf 4f3a 0fc7 0e3c
000000f0: f0c1 653c fe13 cbbc d298 0dbd 2fa4 3cbd
00000100: 3951 85ba 1253 463a 5efa 483d c461 9e3c
00000110: 5479 babc 9643 0bbd a260 4b3b 98b7 2b3d
00000120: 9f24 adbc cc31 36bd fce0 4d3a d909 313c
00000130: ce94 6cbc bc3e 813c a591 3fbb eac5 683c
00000140: a535 14bc cece bb3c 9e71 d9bb c619 d93c
00000150: 2202 733c 9cad 02bc 2c86 d5bc 3aaa 2cbd
00000160: d3a9 ef3c 123e 583b 8c3e 013d f217 4bbd
00000170: b1fe 56bc 6bd6 88bc 30db fdbc 41ee 82bc
00000180: 9464 43bc a891 01bd 002b 093d 68b6 803c
00000190: c54a 093c 0d16 373d 7e8e 39bd c111 51bd
000001a0: 59f0 21bc fa7e 963d 8022 81bb c64c 08bd
000001b0: 80ec 493c 70ac 203c 5d00 56bd 250d 4d3c
000001c0: f378 a1ba 25e2 353c c289 a03c c3e6 dfbc
000001d0: e5ee 8c3d ab5d 8c3d 02d0 2abd 9e24 48bd
000001e0: 061c 39ba b23e edbc ce5b b2bc c9ed 04bd
000001f0: 3cac 4abc a330 c2bc 50d9 78bc 7716 4d3d
00000200: a9bc 683d 560d 94bb 6017 8ebc c8f8 26bd
00000210: cac1 c4bc 2ceb c9bc 2416 883d 1f1b 78bd
00000220: c62f adbd 5da1 8dbd bd3e 98bc 51e7 3b3d
00000230: 5d55 883d 2539 b73c d975 663d b37c b1bd
00000240: 0da4 743d 3642 b7bd f4fd 90bd 95dd d5bd
00000250: d18a 483c f0c0 203d 8ce2 3fbc 8086 9e3c
00000260: 5e36 4ebc a694 1dbd 850c b43d c698 9a3d
00000270: 3f0e 473d 5a36 953d d61b 1ebd 132d 233d
00000280: 7b49 66bb 226b 8b3d d02a 47bd 6813 0e3c
00000290: d00c db3d e976 2cbd 3333 01bc 5e0f 993c
000002a0: e875 8cbd 8a5c bfbc f9d1 c13c 95c5 003d
000002b0: d3c7 18bc b050 9c3a 7b93 993d ed18 a0bd
000002c0: 5678 463d e3b2 81bd a5e6 85bd 787e 16bd
000002d0: 3e51 77bd f55b 833c 2282 0a3d bed0 9f3b
000002e0: 9dde e9bc b33f a73c 0a8a 013d 4006 bcbd
000002f0: 48ea 943b 688f 75bd 8408 b63d 5dbf 82bc
00000300: 6b68 8fbd 49c5 d93c 183d a1bd ea72 a2bd
00000310: cb44 06bd e4cc 9ebc 3cad dbbc 0b7d ac3d
00000320: 96cb ed3c 98c1 403d 4178 153d 5835 063e
00000330: 36ce b13d ef03 9c3d 702b 033d 2e7a d13c
00000340: 6135 7e3c 6b25 a739 9d1a 983d 2a57 363d
00000350: 9de5 8ebc 10d9 80bd 6bc3 f63c 1687 d5bc
00000360: 4508 833d fe57 793d 67d3 38bd 55aa 89bd
00000370: b017 d23d e8f6 6cbd 1dda 243c 3d58 4b3c
00000380: e997 563d 5052 c2bd 4ff9 7b3d c996 183b
00000390: 7c46 8bbd dbe2 86bd afa7 9dbb b7e4 833d
000003a0: 7121 27bd d547 c13a 0847 e73c ca7c efbc
000003b0: 9f4c 633d 635c 37bd 7cba 02bd d1ec 03bd
000003c0: baf1 7b3d e64f 8cbd f58b 943d 66ff 34bd
000003d0: 290d d5b9 cc07 4f3d b607 41bd 787b 67bd
000003e0: b204 87bc fc62 cb3d ceb4 ca3b fada 123c
000003f0: 3729 82bc 594d 9f3d 500a a8bd 474f 473c

_problem._r1._attn.in_proj_bias f4 [384]
-0.0007219686 0.056752205 0.15011254 0.001350753 0.00014622083 -0.09719937 -0.11325588 -0.0006417358
0.0016919633 -0.06325116 -0.0006650993 0.012872244 0.0033250053 0.06057293 -0.0006907339 0.116702214
0.117056385 0.07976592 0.0004038066 0.00065885985 -0.031185828 -0.08232125 -0.00095929264 0.0013846591
0.09752947 8.9494984e-05 2.9816481e-05 -0.0008304791 0.14361623 0.0017526349 -0.00029783524 -0.116117954
0.003960717 -0.013495378 -0.00014778964 0.0004982656 -0.0011539926 0.0069627375 0.00033819536 -0.048487548
0.000821269 0.00046092528 -0.0009473847 0.09681349 0.0011304778 -0.09796632 0.024126373 -0.0008902504
0.0012365279 0.090005934 0.0006512678 0.0030507324 0.0012905536 -0.00039026787 -0.00231985 -0.0008099735
0.0039590644 0.00011802112 0.0028706302 0.0013218585 0.00025130616 0.00049010396 -0.0039831093 3.3994947e-05
0.05188679 0.0022734045 8.5329506e-05 0.00023937694 0.00020234134 0.00027823696 0.066806406 9.2637754e-05
-0.102740616 -0.00011402589 0.0015331198 -0.0007148342 0.002185437 -0.0007225277 -0.14005364 0.1077164
0.0019980345 -0.0828661 -0.00068027683 0.0042010266 -0.00020418467 -9.1623755e-05 -0.00048411492 -0.0010241122
0.00094192085 -0.0033281862 -0.0014576212 -0.0003532776 0.0024692463 0.0018527755 -0.00811142 0.0008770119
0.09697651 0.0016522106 -0.00057921535 2.98148e-05 0.06817475 0.0035122875 0.00065602595 -0.0028536986
-0.001136636 -0.0006922685 0.0025881776 0.00017414548 -0.0011169871 -5.7712536e-05 -0.0081608305 -0.05500314
0.001071666 -0.10333393 0.07600475 -0.00057750574 0.00031929614 4.3769156e-05 -0.0019508493 0.0018595989
-0.08766474 -0.0004354206 0.10714101 0.10472034 0.0011943267 -0.0059037437 -0.108291656 -0.00016850879
-0.00012072198 0.0022009918 0.00055010826 -0.00015050269 -0.00028219397 0.0050730216 0.002326582 -0.00019025992
0.0003944965 0.0058277515 -3.2696457e-06 0.002935176 -0.0003007053 -0.00081270677 8.6064094e-05 -0.006319266
0.0008335943 -0.00031157664 0.0005623526 0.00012629096 0.001784579 -0.0005232658 0.00023602239 0.00024892975
-0.003965587 -4.2535354e-05 -0.00015798831 0.00069228414 -0.011721279 -8.984044e-05 0.0008164535 0.0058932584
0.0003195019 0.0029804711 -0.00043356325 -0.00014396732 4.796177e-05 5.0652012e-05 0.00079256826 -0.0014149471
-0.00036969705 -7.503753e-05 -0.00014458095 -0.0011174227 -0.0001722921 0.0065883123 -0.003201768 -0.00029254105
0.00041135348 0.00017769026 0.000486416 0.00031059165 -0.00044816613 0.00045013175 4.521099e-05 2.5247875e-05
0.00031879672 0.00022408957 -0.00066991645 -0.00016830226 -6.425356e-05 -3.9262424e-05 0.00018372378 9.265453e-05
0.0034270028 0.00023574065 0.00057808287 -8.11856e-05 -0.0008275481 0.00018236658 -0.001648706 0.0003452936
-0.0010972138 0.0003591629 -0.00018690572 0.00016166973 -0.00016070188 -3.5954e-05 0.0010128692 -0.0025011578
6.003014e-05 -0.00055580103 -0.00030061125 -0.0002386506 -0.0003074442 3.3299115e-05 -0.00025082447 -0.00026346406
0.00059796154 -0.00016356677 -0.0015092847 -0.00096776575 -0.00074743584 -0.00014711395 6.695171e-05 0.00026793563
0.0023556736 -0.0006195295 -0.00036245206 0.0001656639 6.841057e-05 -0.0002380468 0.00040255673 0.00041029186
-0.000117903015 1.7320928e-05 0.00020719593 -0.00024633805 3.8403887e-05 0.00010680565 -3.5441757e-05 0.002721196
-0.000106881176 0.0039406572 -0.0018556057 0.0001623506 0.00030074143 0.00038539403 -1.8596445e-05 7.6032347e-06
0.004473426 -1.5956374e-06 -0.00023440672 -0.0055302056 4.8113485e-05 -0.0021524543 0.00032972245 0.0008918082
00000000: 7e42 3dba 0075 683d 1ab7 193e c00b b13a
00000010: db52 1939 7710 c7bd b3f2 e7bd 293a 28ba
00000020: dec4 dd3a d389 81bd 0f5a 2eba 1be6 523c
00000030: 55e8 593b 521b 783d 5e12 35ba 9201 ef3d
00000040: 42bb ef3d 515c a33d 01b6 d339 56b7 2c3a
00000050: 6c79 ffbc 0b98 a8bd 0a79 7bba 737d b53a
00000060: 88bd c73d 41af bb38 681e fa37 82b4 59ba
00000070: 2210 133e abb8 e53a c526 9cb9 40cf edbd
00000080: e7c8 813b b81b 5dbc fbf7 1ab9 0a9e 023a
00000090: 9141 97ba ad27 e43b d04f b139 e19a 46bd
000000a0: 6e4a 573a 58a8 f139 e959 78ba 2746 c63d
000000b0: 8a2c 943a 91a2 c8bd aca4 c53c b15f 69ba
000000c0: fe12 a23a 0855 b83d d8b9 2a3a ccee 473b
000000d0: cb27 a93a de9c ccb9 a008 18bb 6754 54ba
000000e0: 0abb 813b 1b82 f738 2f21 3c3b 3642 ad3a
000000f0: bec1 8339 527a 003a be84 82bb cc95 0e38
00000100: 3e87 543d 66fd 143b eef2 b238 4201 7b39
00000110: 972b 5439 55e0 9139 ccd1 883d 8446 c238
00000120: ac69 d2bd 2f21 efb8 f7f2 c83a b663 3bba
00000130: 8c39 0f3b 0368 3dba 396a 0fbe 6a9a dc3d
00000140: 75f1 023b b4b5 a9bd 9b54 32ba c4a8 893b
00000150: 681a 56b9 2126 c0b8 ced0 fdb9 813b 86ba
00000160: 3deb 763a b31d 5abb a70d bfba 1e38 b9b9
00000170: 14d3 213b d4d8 f23a c3e5 04bc 46e7 653a
00000180: 9f9b c63d fd8e d83a 7cd6 17ba cc1a fa37
00000190: 349f 8b3d 682e 663b 28f9 2b3a 1e05 3bbb
000001a0: 2dfb 94ba 5a79 35ba 6a9e 293b d29a 3639
000001b0: de67 92ba 5d10 72b8 01b5 05bc f94a 61bd
000001c0: 2577 8c3a bda0 d3bd 61a8 9b3d c163 17ba
000001d0: 3467 a739 c694 3738 a4b3 ffba c9bd f33a
000001e0: 9289 b3bd 2a49 e4b9 bf6c db3d 9e77 d63d
000001f0: f48a 9c3a 3174 c1bb 04c8 ddbd bcb1 30b9
00000200: 1f2c fdb8 843e 103b 2435 103a 42d0 1db9
00000210: 6ff3 93b9 973b a63b 9279 183b 8280 47b9
00000220: 6dd4 ce39 b9f6 be3b 166c 5bb6 155c 403b
00000230: fba7 9db9 d40b 55ba 4f7d b438 d811 cfbb
00000240: 9185 5a3a 1c5b a3b9 d86a 133a f96c 0439
00000250: 89e8 e93a c62b 09ba c77c 7739 c982 8239
00000260: c1f1 81bb fd67 32b8 aaa9 25b9 677a 353a
00000270: 9b0a 40bc b868 bcb8 4407 563a 3c1c c13b
00000280: d282 a739 0254 433b e04f e3b9 eff5 16b9
00000290: 8f2a 4938 2f73 5438 5bc4 4f3a bf75 b9ba
000002a0: e6d3 c1b9 785d 9db8 a79a 17b9 7c76 92ba
000002b0: 4fa9 34b9 c5e2 d73b c1d4 51bb 3260 99b9
000002c0: eeaa d739 5e52 3a39 a605 ff39 e8d6 a239
000002d0: d7f7 eab9 a9ff eb39 eea0 3d38 66cb d337
000002e0: 2c24 a739 96f9 6a39 559d 2fba 4b7a 30b9
000002f0: debf 86b8 b5ad 24b8 faa5 4039 864f c238
00000300: 9197 603b 2631 7739 7c8a 173a 3042 aab8
00000310: d0ef 58ba a839 3f39 6519 d8ba 8608 b539
00000320: 63d0 8fba 074e bc39 1ffc 43b9 e385 2939
00000330: 1582 28b9 50cd 16b8 40c2 843a 77ea 23bb
00000340: dfc8 7b38 2db3 11ba 5c9b 9db9 483e 7ab9
00000350: 7630 a1b9 a7aa 0b38 1781 83b9 8c21 8ab9
00000360: 85c0 1c3a 1f83 2bb9 31d3 c5ba a9b1 7dba
00000370: 92ef 43ba 9a42 1ab9 6d68 8c38 b679 8c39
00000380: a561 1a3b ec67 22ba 7e07 beb9 11b6 2d39
00000390: a577 8f38 349c 79b9 400e d339 711c d739
000003a0: b342 f7b8 694c 9137 bc42 5939 ef26 81b9
000003b0: dc13 2138 d9fc df38 4ca7 14b8 1856 323b
000003c0: 6525 e0b8 a120 813b cc37 f3ba a83c 2a39
000003d0: d5ac 9d39 b60e ca39 90ff 9bb7 4a1f ff36
000003e0: d195 923b af29 d6b5 13cb 75b9 ba36 b5bb
000003f0: 76cd 4938 3110 0dbb 99de ac39 3cc8 693a

_problem._r1._attn.out_proj.weight f4 [128, 128]
-0.029618591 -0.0912287 0.049501553 0.0073592127 0.09573585 -0.11241751 -0.015863828 0.0055734054
-0.1687466 -0.15904118 0.073460825 0.017535694 -0.009148661 0.0075285276 -0.03616951 -0.035564456
0.046554115 -0.0260347 0.031259 -0.02344235 0.22122511 -0.030285992 -0.16814746 0.11641657
0.1340992 -0.042582955 0.03955654 0.07171438 -0.015607436 -0.038365975 -0.05307194 0.00076681713
0.10547385 -0.025182685 -0.07731572 0.052773487 -0.0929786 -0.03305181 0.038917236 0.009922464
-0.026985615 -0.05962588 0.007896217 -0.12914063 0.03868242 -0.0010037551 -0.036936868 -0.018806808
0.15121849 0.05157291 -0.028706195 0.0047445316 -0.011790889 0.13664076 0.036401227 0.09700186
0.08251486 0.11107879 0.082793064 -0.11693979 -0.06533129 -0.0729084 -0.05894978 0.2408016
0.054051742 0.072694056 -0.066538654 -0.050326463 0.07419586 -0.047712788 -0.0016212304 0.06052383
0.15419185 -0.05529316 -0.024805486 -0.0155181745 -0.21766083 -0.1271778 0.043313473 -0.05904081
-0.08693618 0.14514148 0.05023667 -0.20155786 -0.107497916 0.16831078 0.020872045 0.007359702
-0.011539233 0.036939107 0.048457745 0.089107975 -0.032722823 -0.00370045 -0.092250995 -0.0219903
0.042523175 0.08018829 -0.16780584 0.10079311 -0.05810458 0.122402415 0.0875021 -0.029642351
-0.16304494 -0.053811453 -0.1462444 -0.009674289 0.026722917 0.22203165 0.059580695 -0.02809557
-0.036319405 -0.032889802 -0.09058035 -0.055966273 -0.07908377 0.04685951 0.0014685302 0.09142536
0.034302145 0.012875795 0.007958022 -0.08783826 0.063279316 -0.038246043 0.030806553 0.09421652
-0.10597856 -0.15424573 0.11956998 -0.061723188 -0.12473759 -0.053046145 0.18612897 0.01746332
-0.06631587 -0.028317148 -0.03698643 0.10527461 -0.16394582 -0.14024007 -0.08873322 0.055332623
-0.08548533 -0.1181519 -0.19524471 -0.13010666 -0.09903029 0.16257456 0.15456648 -0.01006233
-0.01830865 -0.049773376 -0.011127689 0.115009 0.12861913 -0.060029726 0.17761756 -0.0020609342
-0.11066158 0.019192796 -0.18721245 0.07638567 -0.015488232 -0.08678717 0.12514728 0.043932434
0.026563408 -0.02354667 0.039204676 0.026838303 0.04582307 -0.006952075 0.107541285 -0.1358959
-0.09033339 0.011275518 -0.013806007 0.13297474 0.0005818251 0.0947632 0.054532718 0.06580294
0.23414071 -0.3028903 -0.01977338 -0.111863434 0.09948808 -0.13825652 0.09350255 0.09225096
0.03582823 0.21784268 -0.06844424 -0.11325913 0.039286148 -0.076895125 0.118144885 -0.18274231
0.17573343 -0.024042405 -0.24262272 -0.047306493 -0.21456188 -0.062925406 -0.1616705 -0.19224232
-0.08014375 0.15650094 0.036358174 -0.022197863 0.022323849 0.08041591 0.07373007 -0.09340992
0.043482058 -0.07991312 -0.054035526 -0.09141529 -0.118192986 0.024178289 -0.028444845 -0.11246974
0.09683335 0.25575095 -0.06445957 0.08156226 0.06355565 0.1586635 -0.11802738 0.023571452
-0.1695255 -0.16548932 -0.024276592 -0.02279975 0.03590528 -0.015423231 0.0027465757 -0.06918404
0.00040762057 0.025510127 0.051369857 -0.12317566 -0.06063592 -0.07175884 0.15218706 0.012044629
0.027725765 0.1576565 0.050226547 0.034053084 -0.13976094 -0.0626479 0.012151745 -0.09418411
00000000: b0a2 f2bc 1dd6 babd 24c2 4a3d 8d25 f13b
00000010: 2811 c43d 273b e6bd dcf4 81bc 1da1 b63b
00000020: e9cb 2cbe b1db 22be a172 963d 04a7 8f3c
00000030: 44e4 15bc deb1 f63b 7b26 14bd 09ac 11bd
00000040: 87af 3e3d b946 d5bc 7009 003d 2c0a c0bc
00000050: d688 623e 541a f8bc d92e 2cbe d06b ee3d
00000060: 4d51 093e 776b 2ebd 0a06 223d fdde 923d
00000070: 55b6 7fbc a425 1dbd f661 59bd 3a04 493a
00000080: ad02 d83d eb4b cebc b457 9ebd 0329 583d
00000090: 906b bebd 5661 07bd ae67 1f3d d591 223c
000000a0: f010 ddbc 443a 74bd 225f 013c 713d 04be
000000b0: 7571 1e3d 6f90 83ba 1d4b 17bd bc10 9abc
000000c0: 05d9 1a3e 1e3e 533d 4129 ebbc 0478 9b3b
000000d0: 932e 41bc 8eeb 0b3e 7419 153d e9a8 c63d
000000e0: 8dfd a83d 477d e33d 698f a93d 217e efbd
000000f0: 69cc 85bd 0051 95bd 5375 71bd b294 763e
00000100: 5c65 5d3d 9fe0 943d 6b45 88bd 1f23 4ebd
00000110: 00f4 973d 7c6e 43bd 777f d4ba d6e7 773d
00000120: 78e4 1d3e 157b 62bd e034 cbbc f13f 7ebc
00000130: 7be2 5ebe e63a 02be 7869 313d c7d4 71bd
00000140: 990b b2bd f89f 143e f7c4 4d3d 2f65 4ebe
00000150: de27 dcbd a959 2c3e dafb aa3c a829 f13b
00000160: 0d0f 3dbc 764d 173d a17b 463d 3e7e b63d
00000170: 5e08 06bd 4083 72bb 17ee bcbd 0025 b4bc
00000180: c82c 2e3d c239 a43d 4bd5 2bbe 9e6c ce3d
00000190: 11ff 6dbd 1eae fa3d 4d34 b33d 84d4 f2bc
000001a0: 41f5 26be 6669 5cbd 18c1 15be e980 1ebc
000001b0: 05ea da3c 445c 633e e30a 743d ae28 e6bc
000001c0: a8c3 14bd 75b7 06bd 3182 b9bd e43c 65bd
000001d0: acf6 a1bd c2ef 3f3d b27b c03a 383d bb3d
000001e0: 6880 0c3d 00f5 523c 5d62 023c 8ce4 b3bd
000001f0: 9698 813d e2a7 1cbd 065e fc3c 97f4 c03d
00000200: 4a0b d9bd 98f2 1dbe 1be1 f43d 74d1 7cbd
00000210: 6c76 ffbd ea46 59bd 9898 3e3e 3d0f 8f3c
00000220: 9dd0 87bd 5df9 e7bc 157f 17bd 379a d73d
00000230: 6ae1 27be 189b 0fbe c3b9 b5bd 76a4 623d
00000240: ef12 afbd a0f9 f1bd 3bee 47be ae3a 05be
00000250: 65d0 cabd f279 263e ad46 1e3e 79dc 24bc
00000260: 06fc 95bc 2bdf 4bbd e950 36bc d789 eb3d
00000270: bcb4 033e bbe1 75bd 61e1 353e bd10 07bb
00000280: 8aa2 e2bd 363a 9d3c 9fb4 3fbe 1770 9c3d
00000290: 5ac2 7dbc 79bd b1bd 9c26 003e 7ff2 333d
000002a0: 819b d93c f2e4 c0bc 1595 203d 00dc db3c
000002b0: f9b0 3b3d 3bce e3bb 9b3e dc3d 4b28 0bbe
000002c0: b600 b9bd f3bc 383c 9732 62bc 882a 083e
000002d0: 9f85 183a 3513 c23d b35d 5f3d b1c3 863d
000002e0: 95c2 6f3e 7014 9bbe c9fb a1bc a818 e5bd
000002f0: 68c0 cb3d 1e93 0dbe 447e bf3d 12ee bc3d
00000300: 9fc0 123d 2712 5f3e 7e2c 8cbd 67f4 e7bd
00000310: 83ea 203d 317b 9dbd f2f5 f13d cd20 3bbe
00000320: 77f3 333e 94f4 c4bc 1772 78be 74c4 41bd
00000330: 1cb6 5bbe 09df 80bd f48c 25be 2cdb 44be
00000340: 6822 a4bd c841 203e 4fec 143d 4bd8 b5bc
00000350: 81e0 b63c 19b1 a43d caff 963d b34d bfbd
00000360: 3e1a 323d 7da9 a3bd 5b54 5dbd f137 bbbd
00000370: 2a0f f2bd 8c11 c63c 2a05 e9bc 8956 e6bd
00000380: 9050 c63d caf1 823e 6103 84bd 1d0a a73d
00000390: 7729 823d af78 223e 57b8 f1bd eb18 c13c
000003a0: 1898 2dbe 0876 29be b4df c6bc 8bc6 babc
000003b0: 6a11 133d b8b1 7cbc e5ff 333b 5db0 8dbd
000003c0: e8b5 d539 9dfa d03c 3369 523d 8543 fcbd
000003d0: 5f5d 78bd 4cf6 92bd edd6 1b3e d656 453c
000003e0: 2521 e33c b570 213e 5aba 4d3d 3f7b 0b3d
000003f0: 7e1d 0fbe 8b4d 80bd 1d18 473c 99e3 c0bd

_problem._r1._attn.out_proj.bias f4 [128]
-0.12303169 0.12874535 -0.05103884 0.14121008 -0.101255864 -0.2240462 0.056282863 -0.12934163
0.17275688 0.0061439597 0.07962517 -0.14965329 -0.03148436 0.14200956 -0.15521999 0.12884323
-0.08229383 -0.061950915 0.08420277 -0.061428852 -0.30762228 -0.047172975 -0.011280359 -0.30233648
-0.06369945 -0.11016156 0.18786219 -0.14750797 -0.074295536 0.027634334 0.18220039 0.10832783
-0.118424125 0.037483677 0.0100953 -0.10175619 -0.04264787 -0.08044539 0.09842883 0.09163003
-0.084533155 0.033119988 -0.16480517 -0.20010732 0.021206416 0.06062369 -0.2858835 0.23679769
0.13442767 -0.1971541 -0.34907004 -0.20800993 -0.1609734 -0.3227837 0.10583201 0.19145894
0.027092507 -0.18034317 -0.019215096 0.024239965 0.15396655 -0.16118552 -0.18978679 -0.047577634
0.21484615 -4.223468e-05 0.01801999 0.02988466 0.017581327 -0.025898168 0.01842012 -0.18453948
0.17381047 0.05102143 -0.090627104 -0.15348865 -0.055033173 -0.19495575 0.08828599 -0.079778254
0.019283636 0.08969425 0.09278579 -0.15703349 0.24701671 -0.023828559 0.15335968 -0.06829498
-0.04792561 -0.10576775 -0.08335188 -0.18452363 -0.026020043 -0.1032877 0.008297528 -0.17200363
0.010223668 -0.121575065 0.11202979 -0.15733556 -0.045462623 0.17764454 0.04567312 -0.18061076
-0.009925415 0.27738032 0.045553487 -0.08214235 0.11162924 -0.023463039 -0.22485863 -0.09453298
-0.11645305 -0.21161254 -0.11250613 -0.028423456 0.052068036 -0.13107829 0.17393172 -0.034723796
0.014058693 -0.28272262 -0.006260154 0.04936517 -0.03625413 -0.11094524 -0.04609636 0.104946315
00000000: 0af8 fbbd d2d5 033e 1a0e 51bd 6099 103e
00000010: 3c5f cfbd 5e6c 65be dc88 663d 2272 04be
00000020: 2ee7 303e 4553 c93b 8512 a33d b63e 19be
00000030: bff5 00bd f46a 113e fdf1 1ebe 7bef 033e
00000040: ab89 a8bd 3ec0 7dbd 8072 ac3d d29c 7bbd
00000050: ab80 9dbe 7338 41bd 41d1 38bc d9cb 9abe
00000060: db74 82bd 629c e1bd f25e 403e 540c 17be
00000070: 4228 98bd 6661 e23c bd92 3a3e fbda dd3d
00000080: 5988 f2bd 7c88 193d c266 253c 8d65 d0bd
00000090: 88af 2ebd 8dc0 a4bd 0e95 c93d 86a8 bb3d
000000a0: b81f adbd d3a8 073d b0c2 28be efe8 4cbe
000000b0: 14b9 ad3c 8c50 783d 525f 92be 187b 723e
000000c0: 68a7 093e c4e2 49be 4fb9 b2be 8e00 55be
000000d0: 36d6 24be e843 a5be 74be d83d d00d 443e
000000e0: 1bf1 dd3c e1ab 38be fa68 9dbc e492 c63c
000000f0: 68a9 1d3e d10d 25be 7857 42be c4e0 42bd
00000100: a100 5c3e 2425 31b8 a89e 933c add0 f43c
00000110: b706 903c 6528 d4bc cbe5 963c ebf7 3cbe
00000120: 5ffb 313e d9fb 503d b49a b9bd 212c 1dbe
00000130: 776a 61bd 7ba2 47be 49cf b43d c862 a3bd
00000140: b7f8 9d3c 9eb1 b73d 7a06 be3d 63cd 20be
00000150: f3f1 7c3e 1c34 c3bc 520a 1d3e 3dde 8bbd
00000160: a54d 44bd c39c d8bd 64b4 aabd c3f3 3cbe
00000170: fc27 d5bc 8088 d3bd 5bf2 073c b821 30be
00000180: 2c81 273c 59fc f8bd e06f e53d 931c 21be
00000190: 0437 3abd 73e8 353e bd13 3b3d 07f2 38be
000001a0: 359e 22bc cb04 8e3e 4b96 3a3d 403a a8bd
000001b0: df9d e43d 8f35 c0bc 5741 66be 829a c1bd
000001c0: f07e eebd f5b0 58be 9d69 e6bd 4fd8 e8bc
000001d0: 4b45 553d 6339 06be 281b 323e 8a3a 0ebd
000001e0: 6f56 663c 05c1 90be fa21 cdbb 2233 4a3d
000001f0: 367f 14bd 4237 e3bd 89cf 3cbd 18ee d63d

_problem._en._memory._patterns f4 [128, 128]
0.01938041 -0.118257076 0.02366078 0.1021444 0.04763288 0.16229942 -0.014918567 -0.01089447
-0.22308294 -0.14525628 -0.039630227 0.051114455 0.11141103 -0.102573946 0.026801841 -0.08940837
-0.05201185 -0.040652666 -0.037141826 -0.1500529 0.16924784 -0.13531016 0.014121767 0.12931737
0.04323185 0.07022276 -0.028833026 0.108535804 0.008871029 -0.030229408 -0.18848439 0.061840605
-0.0285805 0.07704681 -0.016339771 -0.10589544 -0.004930477 0.045722503 -0.0062071336 -0.009589987
0.019157825 0.00373184 -0.037050266 0.22536504 0.00696954 0.09431512 0.13417791 -0.14651643
-0.10211688 0.037778772 0.3432462 0.034341853 0.123280466 0.33404207 0.017473068 -0.28687292
0.029568115 0.020743502 -0.04236124 -0.08386373 -0.21901087 -0.0444386 0.035261042 -0.11479465
-0.16212942 -0.14710268 -0.07934451 -0.029738406 -0.008960487 -0.06521066 0.025949553 0.089542754
-0.22046281 -0.026152551 0.13977295 0.107654445 0.026034115 0.07507251 -0.08146885 0.018249895
0.09991844 -0.07686573 -0.072339095 -0.10042319 -0.01992621 0.053750165 -0.14319547 0.06723745
0.08387474 -0.040428255 0.024300396 0.122125044 -0.001700027 -0.14410233 0.12032173 0.016864587
-0.03603469 0.0319445 0.02613305 0.09541408 0.10432024 -0.117973916 0.04044977 0.1636086
-0.19489583 -0.27188155 -0.03117633 0.018186491 -0.17056556 0.018319858 0.12216465 0.0025527074
0.041911054 -0.053613156 0.21067414 -0.027366545 -0.07395673 -0.070214376 -0.043871306 -0.1120132
0.04262359 0.069240876 -0.025720736 -0.028904475 -0.06516157 -0.0660029 0.09121843 -0.09572946
0.02284536 -0.09022443 0.027677024 -0.062024403 0.022705458 0.17137155 0.047307897 0.01892239
-0.12745154 -0.13355525 -0.024705084 0.17351478 -0.0037882759 -0.038276497 0.10023332 -0.13648686
-0.03102812 -0.025279285 -0.07914928 0.018616706 0.17070732 0.014794832 -0.07189613 0.06148722
0.006159668 0.15824002 -0.118686214 0.08577408 0.078082345 -0.11519793 -0.034196697 0.021525279
0.042392615 -0.019334547 -0.0011243366 -0.11161632 0.08618825 0.10585036 -0.05167985 -0.0257878
0.07737081 -0.14822833 -0.008014149 0.2136486 -0.010849856 0.10820622 0.078412846 -0.043378957
-0.11256854 0.05012383 0.2393726 0.117989846 0.043090295 0.46631333 -0.17893592 -0.2007007
-0.031976957 -0.065687016 -0.05007058 -0.11373496 -0.20636722 -0.053457797 0.13532457 0.008165988
-0.05074676 -0.08527448 -0.062850945 -0.033711273 -0.09648694 -0.054621898 0.041021936 0.039421745
-0.29698715 -0.066272214 0.026616469 0.06873493 0.08722989 0.100199275 -0.018879335 -0.046177432
0.040161286 0.09996985 -0.061287664 0.10267616 -0.15618593 -0.02621443 -0.0231571 0.032418773
0.03936308 -0.017383758 -0.11286271 0.11167923 0.065449916 -0.056394197 0.02118079 0.05674092
0.06882479 -0.15226614 0.06776315 0.10292862 0.15132506 -0.17690209 0.040149756 0.07634155
-0.23059477 -0.34600744 0.07289949 -0.00737094 -0.17351687 0.041646928 0.09272345 0.100419976
0.066198125 0.05373204 0.22292458 0.062787384 -0.06464582 0.053858392 0.00020279444 -0.13927957
0.07575512 0.059654348 0.024445627 -0.03455125 0.09230416 0.0844384 0.12101692 -0.048656184
00000000: aac3 9e3c c430 f2bd 41d4 c13c 1531 d13d
00000010: b21a 433d d231 263e 016d 74bc b87e 32bc
00000020: db6f 64be 10be 14be 4e53 22bd 645d 513d
00000030: 772b e43d 4a12 d2bd 898f db3c bc1b b7bd
00000040: 610a 55bd 6983 26bd 0722 18bd 78a7 19be
00000050: 4e4f 2d3e bf8e 0abe fc5e 673c c66b 043e
00000060: e113 313d f3d0 8f3d 3d33 ecbc 0548 de3d
00000070: cb57 113c aaa3 f7bc 0d02 41be 934c 7d3d
00000080: a721 eabc b8ca 9d3d fcda 85bc b5df d8bd
00000090: d78f a1bb 8547 3b3d 3665 cbbb 521f 1dbc
000000a0: dff0 9c3c e391 743b 05c2 17bd 18c6 663e
000000b0: bd60 e43b 4928 c13d ef65 093e 6708 16be
000000c0: a822 d1bd eabd 1a3d f7bd af3e 0baa 0c3d
000000d0: 787a fc3d 9007 ab3e ae23 8f3c 02e1 92be
000000e0: d538 f23c 47ee a93c fb82 2dbd bfc0 abbd
000000f0: 6344 60be 4005 36bd e26d 103d 7519 ebbd
00000100: 4105 26be 16a2 16be 607f a2bd f59d f3bc
00000110: 02cf 12bc 2b8d 85bd 2894 d43c 3162 b73d
00000120: 01c1 61be e03d d6bc a420 0f3e ef79 dc3d
00000130: 7f45 d53c 9ebf 993d 24d9 a6bd ce80 953c
00000140: 0aa2 cc3d c86b 9dbd 8526 94bd acaa cdbd
00000150: 4b3c a3bc 2229 5c3d d5a1 12be cab3 893d
00000160: 85c6 ab3d 1998 25bd a011 c73c b21c fa3d
00000170: 71d3 deba 908f 13be 3d6b f63d 9a27 8a3c
00000180: 1c99 13bd 3cd8 023d fa14 d63c 7568 c33d
00000190: daa5 d53d 4f9c f1bd a8ae 253d 0389 273e
000001a0: c692 47be 0f34 8bbe 8165 ffbc d6fb 943c
000001b0: bda8 2ebe 8713 963c 7631 fa3d 534b 273b
000001c0: edaa 2b3d 7899 5bbd f6ba 573e ce2f e0bc
000001d0: a076 97bd 8ecc 8fbd 66b2 33bd 2d67 e5bd
000001e0: 1396 2e3d 29ce 8d3d 4bb4 d2bc 14c9 ecbc
000001f0: 6e73 85bd 872c 87bd bad0 ba3d cf0d c4bd
00000200: 3126 bb3c 96c7 b8bd edba e23c 4d0d 7ebd
00000210: cc00 ba3c 067c 2f3e edc5 413d 2103 9b3c
00000220: a882 02be b5c2 08be 5162 cabc dcad 313e
00000230: b944 78bb d1c7 1cbd 2047 cd3d 36c3 0bbe
00000240: af2e febc 8116 cfbc 0519 a2bd 1082 983c
00000250: e6cd 2e3e 0666 723c 473e 93bd 06da 7b3d
00000260: 0ad7 c93b ac09 223e c211 f3bd 52aa af3d
00000270: a3e9 9f3d e4ec ebbd d611 0cbd c855 b03c
00000280: e1a3 2d3d 7c63 9ebc 7a5e 93ba 1997 e4bd
00000290: 7783 b03d 13c8 d83d 40ae 53bd f040 d3bc
000002a0: 9674 9e3d 2bc9 17be c74d 03bc b3c6 5a3e
000002b0: 98c3 31bc 399b dd3d ea96 a03d 22ae 31bd
000002c0: 568a e6bd a54e 4d3d 171e 753e a9a4 f13d
000002d0: 737f 303d 9fc0 ee3e fa3a 37be 7c84 4dbe
000002e0: 45fa 02bd ea86 86bd cf16 4dbd e0ed e8bd
000002f0: ee51 53be 90f6 5abd 8692 0a3e a3ca 053c
00000300: d6db 4fbd 63a4 aebd ffb7 80bd d514 0abd
00000310: f29a c5bd 36bb 5fbd 9e06 283d b278 213d
00000320: b30e 98be bab9 87bd c80a da3c e6c4 8c3d
00000330: 96a5 b23d 4735 cd3d d6a8 9abc 8c24 3dbd
00000340: 2980 243d febc cc3d c608 7bbd e147 d23d
00000350: 34ef 1fbe a5bf d6bc f5b3 bdbc 8cc9 043d
00000360: 2e3b 213d 6268 8ebc 9124 e7bd 15b8 e43d
00000370: 9b0a 863d 9afd 66bd 5683 ad3c 2b69 683d
00000380: 03f4 8c3d a8eb 1bbe 68c7 8a3d 3ecc d23d
00000390: f5f4 1a3e d225 35be 1274 243d f558 9c3d
000003a0: 0921 6cbe e327 b1be 544c 953d ed87 f1bb
000003b0: 68ae 31be f895 2a3d cbe5 bd3d fda8 cd3d
000003c0: e292 873d 2116 5c3d 5746 643e ac96 803d
000003d0: 0765 84bd 9e9a 5c3d 38a5 5439 4e9f 0ebe
000003e0: 8025 9b3d 1e58 743d 3242 c83c 9d85 0dbd
000003f0: f709 bd3d 0aee ac3d b8d7 f73d b54b 47bd
