experiment/digit_classifier/version_1/checkpoints/best.ckpt (torch, 446119 bytes, 16 tensors)

_problem._r1._cls_token f4 [1, 1, 128]
0	0xbb02b45d	-0.001994393
1	0xbb8eb95b	-0.004355592
2	0x3a540bda	0.0008088924
3	0xbc079f16	-0.008277675
4	0x3bd1008e	0.00637824
5	0xba7fbac4	-0.0009755308
6	0x3aa7419c	0.0012760642
7	0x3a7c9f63	0.00096367876
8	0x3c20767a	0.009793872
9	0x3aeb010b	0.0017929388
10	0xba41f32c	-0.0007398601
11	0xbbb8bb8f	-0.005637593
12	0x39f266ff	0.00046234575
13	0xbaa69db2	-0.0012711792
14	0xbc030b94	-0.007998366
15	0xba8c1696	-0.0010687883
16	0x3b452c4f	0.0030086224
17	0xbbac7332	-0.005262756
18	0x3b67a084	0.0035343478
19	0x3b3ec8bf	0.0029111353
20	0x3a1ece73	0.0006057985
21	0x3b1641de	0.0022927443
22	0xbb53cab2	-0.003231686
23	0xbbc7199c	-0.006076051
24	0x391c55ef	0.00014909332
25	0x3b207d29	0.0024488664
26	0xbba45593	-0.005015084
27	0x3b77458d	0.0037730664
28	0x3b7c825d	0.003852985
29	0x3a1f7d5e	0.000608405
30	0x3b0730ca	0.0020628446
31	0xbb945c42	-0.0045275996
32	0xbbee4b02	-0.007272125
33	0x3b10995a	0.002206406
34	0x3b97028d	0.0046084584
35	0xbb8ae4fb	-0.0042387224
36	0xbaaab878	-0.0013024947
37	0x3b9ad8db	0.004725558
38	0x3b606988	0.003424259
39	0x3a5e056f	0.00084694376
40	0x3956b264	0.00020475086
41	0x3ade6a7d	0.0016968992
42	0x3b0af1e7	0.0021201314
43	0x39b9fe2f	0.0003547533
44	0x3b869c07	0.0041079554
45	0xbb9a531c	-0.0047096144
46	0x3b1fc933	0.0024381399
47	0x3adfdc33	0.0017079174
48	0x3a7bd88a	0.0009607157
49	0x3a59210e	0.00082828186
50	0xbb2ad857	-0.002606889
51	0xba86150c	-0.0010229661
52	0x3abf5de7	0.0014600129
53	0xbaed6f0f	-0.0018114763
54	0xbb5fd7bd	-0.003415569
55	0x3bdd0f4b	0.006746208
56	0xbb600fe7	-0.0034189166
57	0x37b24976	2.1253461e-05
58	0xbb8c4355	-0.0042804875
59	0xba037db3	-0.0005015984
60	0x3a09c17d	0.0005254967
61	0xb6abb0cc	-5.116779e-06
62	0xbb462d04	-0.0030239234
63	0xbab9ffdc	-0.0014190632
64	0x3b8d3efc	0.004310487
65	0x3b35f677	0.0027765313
66	0x3b242afd	0.0025050037
67	0x3bd91690	0.006625004
68	0xbbf7c6c1	-0.007561535
69	0xbaac0de4	-0.0013126698
70	0x3b848bae	0.0040449714
71	0x3b0e7b77	0.0021741071
72	0x3b7f1b5a	0.0038926215
73	0x3b1622f5	0.002290902
74	0xbb0e0330	-0.002166938
75	0xbb0f9d6f	-0.0021913906
76	0xbad20af2	-0.001602499
77	0xbb079b21	-0.002069183
78	0x3aecb0b2	0.001805803
79	0x3a32e42d	0.0006824162
80	0xbb871a17	-0.004122983
81	0x3bc61041	0.006044418
82	0xbbe12f62	-0.0068721035
83	0x3b575512	0.0032857102
84	0xbaa446d1	-0.0012533312
85	0x3b23ab2a	0.0024973848
86	0xbb96e251	-0.0046046157
87	0xbba68acc	-0.005082464
88	0x3aed36de	0.0018098017
89	0x3bbcac7d	0.005757867
90	0xb94fe62f	-0.00019826808
91	0x3c1fe9d2	0.009760337
92	0x3a6eb38d	0.00091057346
93	0xb95a0362	-0.0002079136
94	0xbac8e095	-0.001532572
95	0xbbf01099	-0.0073261973
96	0xbb373f1d	-0.0027961202
97	0xba8d1f2b	-0.0010766735
98	0xbb07213a	-0.002061917
99	0x392ff58c	0.00016780774
100	0xbadb908b	-0.0016751451
101	0x3b9d2d83	0.004796685
102	0x3ac3ba1c	0.0014932784
103	0xbb777cd8	-0.0037763622
104	0xbae5e864	-0.0017540571
105	0xbb0d9390	-0.0021602847
106	0x3be9cee9	0.0071352613
107	0x3b465945	0.003026561
108	0xbb8881b7	-0.004165854
109	0x3bb90bd2	0.005647161
110	0x3ae81a5a	0.0017708049
111	0x3b13257d	0.0022452765
112	0xba31f665	-0.000678873
113	0x3b0b3b4e	0.0021245065
114	0xbadf3bb4	-0.0017031343
115	0xbb13e02d	-0.002256404
116	0x3b0fca6f	0.0021940728
117	0xbb01ee19	-0.0019825755
118	0xba8ae3f5	-0.0010596501
119	0xbb00f05d	-0.0019674518
120	0xbb33e6ed	-0.0027450875
121	0xbb9a69ae	-0.004712305
122	0xbb1ab8a0	-0.002360858
123	0x3bccb429	0.0062470627
124	0x3bdd89b3	0.0067608
125	0x378ce219	1.6794585e-05
126	0x3a7f4acd	0.0009738624
127	0x3be93760	0.007117197

_problem._r1._pos_embed f4 [1, 17, 128]
0	0xbb02b45d	-0.001994393
1	0xbb8eb95b	-0.004355592
2	0x3a540bda	0.0008088924
3	0xbc079f16	-0.008277675
4	0x3bd1008e	0.00637824
5	0xba7fbac4	-0.0009755308
6	0x3aa7419c	0.0012760642
7	0x3a7c9f63	0.00096367876
8	0x3c20767a	0.009793872
9	0x3aeb010b	0.0017929388
10	0xba41f32c	-0.0007398601
11	0xbbb8bb8f	-0.005637593
12	0x39f266ff	0.00046234575
13	0xbaa69db2	-0.0012711792
14	0xbc030b94	-0.007998366
15	0xba8c1696	-0.0010687883
16	0x3b452c4f	0.0030086224
17	0xbbac7332	-0.005262756
18	0x3b67a084	0.0035343478
19	0x3b3ec8bf	0.0029111353
20	0x3a1ece73	0.0006057985
21	0x3b1641de	0.0022927443
22	0xbb53cab2	-0.003231686
23	0xbbc7199c	-0.006076051
24	0x391c55ef	0.00014909332
25	0x3b207d29	0.0024488664
26	0xbba45593	-0.005015084
27	0x3b77458d	0.0037730664
28	0x3b7c825d	0.003852985
29	0x3a1f7d5e	0.000608405
30	0x3b0730ca	0.0020628446
31	0xbb945c42	-0.0045275996
32	0xbbee4b02	-0.007272125
33	0x3b10995a	0.002206406
34	0x3b97028d	0.0046084584
35	0xbb8ae4fb	-0.0042387224
36	0xbaaab878	-0.0013024947
37	0x3b9ad8db	0.004725558
38	0x3b606988	0.003424259
39	0x3a5e056f	0.00084694376
40	0x3956b264	0.00020475086
41	0x3ade6a7d	0.0016968992
42	0x3b0af1e7	0.0021201314
43	0x39b9fe2f	0.0003547533
44	0x3b869c07	0.0041079554
45	0xbb9a531c	-0.0047096144
46	0x3b1fc933	0.0024381399
47	0x3adfdc33	0.0017079174
48	0x3a7bd88a	0.0009607157
49	0x3a59210e	0.00082828186
50	0xbb2ad857	-0.002606889
51	0xba86150c	-0.0010229661
52	0x3abf5de7	0.0014600129
53	0xbaed6f0f	-0.0018114763
54	0xbb5fd7bd	-0.003415569
55	0x3bdd0f4b	0.006746208
56	0xbb600fe7	-0.0034189166
57	0x37b24976	2.1253461e-05
58	0xbb8c4355	-0.0042804875
59	0xba037db3	-0.0005015984
60	0x3a09c17d	0.0005254967
61	0xb6abb0cc	-5.116779e-06
62	0xbb462d04	-0.0030239234
63	0xbab9ffdc	-0.0014190632
64	0x3b8d3efc	0.004310487
65	0x3b35f677	0.0027765313
66	0x3b242afd	0.0025050037
67	0x3bd91690	0.006625004
68	0xbbf7c6c1	-0.007561535
69	0xbaac0de4	-0.0013126698
70	0x3b848bae	0.0040449714
71	0x3b0e7b77	0.0021741071
72	0x3b7f1b5a	0.0038926215
73	0x3b1622f5	0.002290902
74	0xbb0e0330	-0.002166938
75	0xbb0f9d6f	-0.0021913906
76	0xbad20af2	-0.001602499
77	0xbb079b21	-0.002069183
78	0x3aecb0b2	0.001805803
79	0x3a32e42d	0.0006824162
80	0xbb871a17	-0.004122983
81	0x3bc61041	0.006044418
82	0xbbe12f62	-0.0068721035
83	0x3b575512	0.0032857102
84	0xbaa446d1	-0.0012533312
85	0x3b23ab2a	0.0024973848
86	0xbb96e251	-0.0046046157
87	0xbba68acc	-0.005082464
88	0x3aed36de	0.0018098017
89	0x3bbcac7d	0.005757867
90	0xb94fe62f	-0.00019826808
91	0x3c1fe9d2	0.009760337
92	0x3a6eb38d	0.00091057346
93	0xb95a0362	-0.0002079136
94	0xbac8e095	-0.001532572
95	0xbbf01099	-0.0073261973
96	0xbb373f1d	-0.0027961202
97	0xba8d1f2b	-0.0010766735
98	0xbb07213a	-0.002061917
99	0x392ff58c	0.00016780774
100	0xbadb908b	-0.0016751451
101	0x3b9d2d83	0.004796685
102	0x3ac3ba1c	0.0014932784
103	0xbb777cd8	-0.0037763622
104	0xbae5e864	-0.0017540571
105	0xbb0d9390	-0.0021602847
106	0x3be9cee9	0.0071352613
107	0x3b465945	0.003026561
108	0xbb8881b7	-0.004165854
109	0x3bb90bd2	0.005647161
110	0x3ae81a5a	0.0017708049
111	0x3b13257d	0.0022452765
112	0xba31f665	-0.000678873
113	0x3b0b3b4e	0.0021245065
114	0xbadf3bb4	-0.0017031343
115	0xbb13e02d	-0.002256404
116	0x3b0fca6f	0.0021940728
117	0xbb01ee19	-0.0019825755
118	0xba8ae3f5	-0.0010596501
119	0xbb00f05d	-0.0019674518
120	0xbb33e6ed	-0.0027450875
121	0xbb9a69ae	-0.004712305
122	0xbb1ab8a0	-0.002360858
123	0x3bccb429	0.0062470627
124	0x3bdd89b3	0.0067608
125	0x378ce219	1.6794585e-05
126	0x3a7f4acd	0.0009738624
127	0x3be93760	0.007117197
128	0x3eaf0987	0.34186956
129	0xbddef388	-0.10886294
130	0x3d8bc27b	0.068242036
131	0x3e97fb99	0.2968414
132	0x3ea284d6	0.3174197
133	0x3e57acca	0.21062008
134	0xbe3239dd	-0.17404886
135	0xbddd818c	-0.10815725
136	0xbe35289f	-0.17691277
137	0x3e41ad24	0.18913704
138	0x3e7b1706	0.24520501
139	0x3d16cf43	0.036818754
140	0xbdd0ba9c	-0.10191843
141	0xbdeb7046	-0.11496024
142	0xbea1899f	-0.3155031
143	0xbda53c2b	-0.08068117
144	0xbc273b1c	-0.010206964
145	0x3c09df89	0.008415111
146	0x3e625d10	0.22105813
147	0xbda408f0	-0.08009517
148	0xbe45f2cc	-0.19330901
149	0x3ec6d4a4	0.38834107
150	0x3dd6062c	0.10450396
151	0x3d8da03e	0.069153294
152	0x3e867240	0.2625904
153	0x3d4b3df2	0.049619623
154	0x3e7d858b	0.24757974
155	0xbbebec35	-0.007199789
156	0x3c60212a	0.013679782
157	0xbdd164c7	-0.102243
158	0x3dba7eba	0.091062024
159	0xbd21225a	-0.0393394
160	0x3d21a2c0	0.03946185
161	0x3e577d71	0.21043946
162	0x3dcf2989	0.10115344
163	0x3e90af1e	0.28258604
164	0xbcb5f983	-0.022213703
165	0x3df4b6b2	0.11948909
166	0xbda4a522	-0.08039309
167	0x3e9623de	0.2932424
168	0x3cae4a78	0.021275744
169	0x3d675427	0.05647674
170	0x3d8b6da9	0.068080254
171	0xbd1772f2	-0.036974855
172	0xbde05624	-0.1095393
173	0x3d77249d	0.06033765
174	0xbe09d9d7	-0.13462006
175	0x3d229047	0.039688375
176	0xbd189ed9	-0.037260864
177	0x3e5f90bd	0.21832557
178	0xbe18728b	-0.14887445
179	0xbe01123e	-0.12604615
180	0xbe641191	-0.22272326
181	0x3d5c5f69	0.053801928
182	0xbcd624e3	-0.026140636
183	0xbd186b7d	-0.037211884
184	0x3e9c52d5	0.30531946
185	0x3e6373b9	0.22212113
186	0xbee1cdfa	-0.4410246
187	0x3e686af3	0.22697048
188	0x3de1be76	0.11022656
189	0xbd1db4bf	-0.03850245
190	0x3c54e2cc	0.012993526
191	0x3d9e6e8a	0.077359274
192	0xbe2a06af	-0.16604112
193	0xbdac0be1	-0.08400703
194	0xbca2d4cd	-0.019876862
195	0xbda5d478	-0.08097166
196	0x3e0b9c75	0.13633902
197	0xbdd5622b	-0.10419115
198	0x3daab172	0.08334626
199	0x3de64544	0.1124368
200	0xbd6cf57d	-0.057851303
201	0xbe2f52b1	-0.17121388
202	0xbe54344f	-0.20723079
203	0xbc79c2dc	-0.015244212
204	0x3e68597d	0.22690387
205	0xbda410aa	-0.08010991
206	0x3d91c0db	0.071168624
207	0xbe4042c8	-0.18775475
208	0xbe52daf9	-0.20591344
209	0xbe5ee48c	-0.21766871
210	0x3dc59abf	0.09648656
211	0x3ebb9b66	0.36641997
212	0xbdf36270	-0.1188401
213	0xbe26f178	-0.1630305
214	0xbca01a16	-0.019543689
215	0x3da91fb8	0.08258003
216	0x3d50093d	0.05079006
217	0xbeb7e2cd	-0.35915223
218	0x3e3a125f	0.1817107
219	0xbc61ad9b	-0.013774301
220	0x3d0f2faa	0.034957565
221	0x3e79bace	0.24387667
222	0xbe7994e4	-0.24373204
223	0x3e3eb4e7	0.18623696
224	0xbc9a0bc6	-0.018804442
225	0x3d0a3e43	0.033750784
226	0xbe8e44e0	-0.27786922
227	0x3e33f50a	0.17573944
228	0xbe77230d	-0.24134465
229	0x3e7a6fb7	0.24456678
230	0xbe1d42f3	-0.1535757
231	0x3d6eec4d	0.058330823
232	0xbd0cc107	-0.034363773
233	0xbe7997a5	-0.24374254
234	0x3e6c76fd	0.23092265
235	0x3da93ce1	0.08263565
236	0xbdb80780	-0.089858055
237	0x3db5e59f	0.088816874
238	0xbd329d0b	-0.0436068
239	0x3cbca8b8	0.02302967
240	0xbe330a5f	-0.17484425
241	0x3e44064d	0.19143029
242	0x3e617ba5	0.22019823
243	0x3d633704	0.05547239
244	0x3db67a8b	0.08910092
245	0x3d9731d8	0.07382554
246	0x3c21aab2	0.009867357
247	0x3de4d4f3	0.11173429
248	0xbe8cc52c	-0.2749418
249	0xbd80209c	-0.0625622
250	0xbde20f1d	-0.11038039
251	0xbbbec93e	-0.00582233
252	0xbe422cc9	-0.18962397
253	0x3dd30a6f	0.103047244
254	0x3d3b40af	0.045715984
255	0xbe29a900	-0.16568375

_problem._r1._patch_embedding.0.weight f4 [128, 1, 7, 7]
0	0xbe1b4f07	-0.15166865
1	0xbd858ad1	-0.06520618
2	0x3ce435d7	0.027857704
3	0xbcdca41d	-0.026933724
4	0xbd2b8e31	-0.04188365
5	0xbc9e479f	-0.019321261
6	0x3da33cc6	0.07970576
7	0xbdc61d4b	-0.09673556
8	0xbe249e6d	-0.1607606
9	0xbc8f0a7b	-0.017461052
10	0x3d71680c	0.058937117
11	0x3c7582ce	0.0149848
12	0x3d9d66bc	0.07685611
13	0x3e0eef3f	0.13958453
14	0xbe4b4456	-0.19850287
15	0xbe67ef53	-0.22649889
16	0xbd202dc2	-0.039106138
17	0xbd397fb4	-0.045287803
18	0xbc475dca	-0.012168357
19	0xbd0b7628	-0.03404823
20	0xbe1a672e	-0.15078422
21	0x3e2a12b4	0.16608697
22	0x3cb569ac	0.022145115
23	0x3e795a24	0.24350792
24	0x3e1f2975	0.15543158
25	0x3e605fd7	0.2191156
26	0xbc8a4ed9	-0.0168833
27	0x3d11c21f	0.03558552
28	0x3deca884	0.11555579
29	0x3e82ead2	0.2556978
30	0x3e25340c	0.16133136
31	0x3e7a9cea	0.2447392
32	0x3d078279	0.033083413
33	0xbd269480	-0.040668964
34	0x3d940861	0.07228161
35	0x3e068ee5	0.13140447
36	0xbe0684ad	-0.1313655
37	0xbd692e25	-0.056928772
38	0xbdd0f13a	-0.1020226
39	0xbdc3e2b5	-0.09564725
40	0xbbb7e795	-0.0056123235
41	0x3c1f21aa	0.009712616
42	0x3de9adca	0.11410101
43	0x3dda2b12	0.10652746
44	0x3a6ebc2d	0.000910702
45	0xbde7bdbe	-0.11315487
46	0x3e1bc9de	0.15213725
47	0xbd571b34	-0.052516177
48	0xbdb4d4de	-0.08829664
49	0x3e3993be	0.18122765
50	0xbe4753d1	-0.19465567
51	0x3e0ccd3b	0.13750164
52	0xbd2fdf36	-0.04293748
53	0xbd42beef	-0.04754537
54	0xbe239593	-0.15975027
55	0xbf412c3a	-0.7545811
56	0x3e606b39	0.21915902
57	0x3dc30d6e	0.09524046
58	0x3e448eae	0.19195053
59	0x3cc9b071	0.024620267
60	0xbdde4c67	-0.10854416
61	0x3d431041	0.047622923
62	0xbd5cdef3	-0.05392356
63	0x3ead55fa	0.33854657
64	0x3d8af908	0.0678578
65	0x3d2b83b8	0.041873664
66	0xbe11df04	-0.1424523
67	0xbe83cb21	-0.25740913
68	0xbdfec900	-0.124406815
69	0x3cdf8c00	0.027288437
70	0x3e719127	0.23590527
71	0x3cac7419	0.021051453
72	0x3dc560b4	0.09637585
73	0x3cc915a0	0.024546444
74	0xbbc88313	-0.006119141
75	0xbb81fbaf	-0.0039667706
76	0x3c4bf0cd	0.012447548
77	0xbe107c2f	-0.14109872
78	0xbe7d9aa2	-0.24766019
79	0xbdf98376	-0.12183277
80	0xbce9235b	-0.028459242
81	0xbd71d242	-0.059038408
82	0xbd2a71af	-0.041612323
83	0xbd4263f7	-0.047458615
84	0x3dbbd6bf	0.09171819
85	0xbc30a453	-0.010781365
86	0x3dd4599b	0.103686534
87	0x3e80be68	0.25145268
88	0x3e23135f	0.15925358
89	0xbd22bc3f	-0.039730307
90	0xbd36666a	-0.044531263
91	0xbd41d8bc	-0.047325835
92	0xbca0eb1b	-0.019643357
93	0xbdc06f1a	-0.09396191
94	0x3d956298	0.07294196
95	0x3c8ac365	0.016938874
96	0x3d6fcd81	0.058545593
97	0x3e0e8aa3	0.13920073
98	0xbe001a17	-0.12509952
99	0x3d0d0525	0.034428734
100	0xbe1b398f	-0.15158676
101	0xbd81b2f9	-0.063329645
102	0xbe14481a	-0.1448063
103	0xbd121045	-0.035660047
104	0xbe4a2455	-0.19740422
105	0x3ca24840	0.019809842
106	0x3e0a9b21	0.1353574
107	0x3d8675f2	0.06565465
108	0x3cfd4a5d	0.030919248
109	0x3d6e5fcc	0.058196828
110	0x3dcda05b	0.10040351
111	0x3d92d961	0.07170368
112	0x3e43614b	0.19080083
113	0xbd8a87f5	-0.06764213
114	0xbd5ba28e	-0.05362182
115	0xbcb63caf	-0.022245733
116	0xbe6805ad	-0.22658415
117	0x3bc3a5b4	0.005970681
118	0x3e04d1e1	0.12970687
119	0x3dafc348	0.08582169
120	0x3e2fa438	0.17152488
121	0xbc07769a	-0.008268023
122	0x3d7084f4	0.058720544
123	0xbdd15912	-0.10222067
124	0x3dbc8373	0.092047594
125	0x3d53217c	0.051545605
126	0xbd45a6c5	-0.048254747
127	0xbd0e2f4f	-0.034713086
128	0x3e0a2df5	0.13494094
129	0xbdf77904	-0.12083629
130	0x3df858e9	0.12126333
131	0xbad9633c	-0.001658536
132	0x3d0fc240	0.03509736
133	0xbd12c0c0	-0.035828352
134	0xbe3cd437	-0.18440329
135	0x3d250dc2	0.040296324
136	0xbdbb4962	-0.09144856
137	0xbcb0cd05	-0.021582136
138	0xbd62e132	-0.055390544
139	0x3db2dfde	0.087341055
140	0xbe01170e	-0.12606451
141	0x3d11d69a	0.03560505
142	0xbbe4e4b1	-0.00698527
143	0xbd877059	-0.066132255
144	0x3d0322d9	0.032015655
145	0xbe00c5aa	-0.12575403
146	0x3dbfeefb	0.09371754
147	0x3d83173a	0.064009145
148	0xbe4b34e9	-0.19844402
149	0x3da79621	0.08182932
150	0xbc1f62b3	-0.009728122
151	0x3d169b37	0.03676912
152	0xbe4c9092	-0.19977024
153	0xbe0acc64	-0.13554531
154	0x3cd33238	0.025780782
155	0x3db82552	0.08991493
156	0xbd053e84	-0.032530323
157	0xbd07d676	-0.03316351
158	0xbd1f66f3	-0.03891654
159	0xbce25018	-0.027626082
160	0x3dda3aaf	0.10655724
161	0x3dcf72dd	0.1012933
162	0x3b754287	0.0037423687
163	0xbdd4a034	-0.10382119
164	0xbe1403c6	-0.14454564
165	0xbdab9142	-0.08377315
166	0xbe201e99	-0.15636672
167	0xbe2126d1	-0.15737464
168	0x3e617d1c	0.22020382
169	0x3e73bac5	0.23801716
170	0x3ec87fd9	0.3916004
171	0x3e8d0923	0.27546033
172	0x3e80e212	0.25172478
173	0xbcbb6281	-0.022874119
174	0xbe08b830	-0.13351512
175	0x3d4a7b64	0.04943408
176	0xbe19ac1d	-0.15007062
177	0x3e1103a7	0.1416155
178	0x3dce9f0b	0.10088929
179	0x3e3a09c6	0.18167791
180	0x3e29f52a	0.16597429
181	0x3dcaf0d1	0.09909213
182	0x3f1268f8	0.5719142
183	0x3db6759b	0.0890915
184	0x3e61745f	0.22017048
185	0x3e4ae006	0.1981202
186	0x3d0e5c29	0.03475586
187	0x3d427d5e	0.04748284
188	0x3d59e0af	0.05319279
189	0x3e5185c0	0.20461178
190	0xbd0ee946	-0.034890436
191	0x3dc15e84	0.094418555
192	0x3baaae68	0.005208779
193	0x3ca176de	0.01971
194	0x3df9264f	0.1216551
195	0x3c3c41f1	0.011490331
196	0x3a888dea	0.001041827
197	0x3bb83713	0.0056217997
198	0xbe0088d9	-0.12552203
199	0x3de566e3	0.11201265
200	0xbe20517b	-0.15656082
201	0xbe222087	-0.1583272
202	0xbe70824b	-0.23487203
203	0x3d1b2a80	0.037882328
204	0x3c5b2b50	0.013377026
205	0xbcb6425d	-0.022248441
206	0x3de2255f	0.11042284
207	0x3d4744b7	0.048649516
208	0x3db489b9	0.08815331
209	0x3e0897e0	0.13339186
210	0x3e0119f2	0.12607554
211	0x3dd3f744	0.103498966
212	0x3e320e0e	0.17388174
213	0xbe0481e6	-0.12940177
214	0xbd03984b	-0.03212766
215	0x3e069707	0.1314355
216	0x3e40479c	0.18777317
217	0x3e0e51f5	0.13898452
218	0xbdf17043	-0.1178899
219	0xbddb85cb	-0.10718878
220	0xbe22dd16	-0.1590465
221	0xbcde50b6	-0.027138095
222	0xbd0fd2fc	-0.03511332
223	0x3bf1d75b	0.0073804087
224	0xbe0455f4	-0.12923414
225	0x3bf35d49	0.007426892
226	0xbe89d21f	-0.26918122
227	0xbe9caf4c	-0.3060249
228	0xbd4bce6b	-0.049757402
229	0xbd2036ca	-0.03911475
230	0xbe28ab1c	-0.16471523
231	0x3e8e57d4	0.27801383
232	0x3e6c0805	0.23049934
233	0x3e8f528f	0.27992675
234	0x3e681e97	0.22667919
235	0x3e3963fc	0.18104547
236	0x3dd09e8f	0.10186493
237	0xbdc3fe91	-0.09570039
238	0x3def8e90	0.116971135
239	0xbe0fe571	-0.14052369
240	0xbe3d2232	-0.18470076
241	0xbe05b939	-0.13058938
242	0x3c7ba4e7	0.01535914
243	0x3cd85d93	0.026411807
244	0xbe2d2491	-0.1690848
245	0xbdcec4f6	-0.10096161
246	0xbe8bcb41	-0.27303508
247	0x3ccfd577	0.025370343
248	0x3de878c3	0.113511585
249	0xbe3a3e36	-0.18187794
250	0xbe083225	-0.13300379
251	0xbe8df138	-0.27723098
252	0x3e92af24	0.28649247
253	0x3e58190c	0.21103305
254	0x3e13d6ad	0.14437361
255	0x3dd084b9	0.10181565

_problem._r1._patch_embedding.0.bias f4 [128]
0	0x3ea3d425	0.3199779
1	0xbe396994	-0.18106681
2	0xbca6c118	-0.020355746
3	0x3f59939a	0.8499085
4	0x3e5fd42c	0.21858281
5	0x3e603a95	0.21897347
6	0xbe0390ca	-0.12848201
7	0xbdd91619	-0.10599918
8	0xbefef18e	-0.49793667
9	0x3eeb64b3	0.45975265
10	0x3ea81ac6	0.32832927
11	0x3e945069	0.28967598
12	0xbe289166	-0.16461715
13	0xbe7537c6	-0.23947057
14	0xbe836a5b	-0.2566708
15	0xbba9f27f	-0.0051863785
16	0xbe41579f	-0.18881081
17	0x3eda81ce	0.42677158
18	0x3eac69bc	0.3367442
19	0xbe724b9e	-0.23661658
20	0xbe05437c	-0.13014024
21	0x3f155984	0.58339715
22	0x3ef998e4	0.4874946
23	0x3dec1100	0.1152668
24	0x3e0708c4	0.13186938
25	0x3d69c377	0.057071175
26	0x3ea700e9	0.32617882
27	0xbe0b271b	-0.13589136
28	0xbd47afb1	-0.048751537
29	0xbe99e3b0	-0.30056524
30	0x3e1fca3f	0.15604495
31	0xbe6e78c4	-0.23288256
32	0x3e5241a1	0.20532848
33	0x3c8d03d4	0.01721374
34	0x3ea50046	0.3222677
35	0x3ee001fe	0.4375152
36	0xbdfe82da	-0.12427302
37	0x3de28e29	0.11062271
38	0x3e9f9e28	0.3117535
39	0x3f1a0b6c	0.6017368
40	0xbe434b87	-0.1907178
41	0xbe0e1323	-0.13874488
42	0x3e6c1373	0.23054294
43	0xbea75224	-0.32679856
44	0xbe0f239f	-0.13978432
45	0x3ed11e52	0.40843445
46	0xbe6c3061	-0.2306533
47	0x3e5c3921	0.21506168
48	0x3d587433	0.05284519
49	0x3f03be4b	0.5146224
50	0xbda62760	-0.08112979
51	0xbed61945	-0.41816154
52	0xbd836276	-0.06415264
53	0x3c7e9b16	0.015539905
54	0x3ea4a518	0.32157207
55	0xbe2a976b	-0.16659324
56	0x3e4e08ff	0.20120619
57	0x3e1b0047	0.15136825
58	0xbefcc689	-0.4937022
59	0x3e319ed6	0.17345747
60	0x3d90c9d1	0.070697434
61	0x3d587652	0.052847214
62	0xbc73b992	-0.014875786
63	0x3eac05d0	0.33598185
64	0xbeece44f	-0.46267936
65	0x3e43288b	0.19058435
66	0x3de092b9	0.10965485
67	0xbe88315e	-0.26600164
68	0x3e7604a8	0.24025214
69	0xbef365fd	-0.47538748
70	0x3e612be6	0.21989402
71	0x3df94ef7	0.121732645
72	0x3caefce6	0.021360826
73	0xbec1e2b4	-0.37868273
74	0xbe7fa1a5	-0.24964006
75	0x3d3369b0	0.043801963
76	0x3e878ec8	0.2647612
77	0xbdcfa12c	-0.10138163
78	0x3d056c63	0.03257407
79	0xbe513660	-0.20430899
80	0xbe2dc9e2	-0.16971543
81	0xbe0ac31c	-0.13550991
82	0x3e83e15c	0.25757873
83	0x3f05f3dc	0.52325225
84	0xbe011299	-0.1260475
85	0xbe28a2e6	-0.16468391
86	0xbc855a2b	-0.016278347
87	0x3e9a93ca	0.3019088
88	0x3bd82df4	0.006597275
89	0xbf033ba4	-0.5126288
90	0x3e958483	0.2920266
91	0xbeba184c	-0.36346662
92	0xbea8fd4c	-0.3300575
93	0x3ec96bcc	0.39340055
94	0xbe0a2981	-0.13492395
95	0x3ee8488c	0.4536785
96	0xbe0b1b51	-0.13584639
97	0x3db151b3	0.08658161
98	0xbe43ed28	-0.19133437
99	0x3eb45562	0.35221392
100	0xbec78769	-0.38970497
101	0x3f34726e	0.70487106
102	0xbe97e634	-0.2966782
103	0x3d86952e	0.065714225
104	0xbe36a7dc	-0.17837471
105	0xbed10bc3	-0.40829286
106	0x3d0e2a88	0.03470853
107	0x3e098e94	0.13433295
108	0x3df8a4c3	0.12140801
109	0x3d31e9e5	0.04343595
110	0xbd33fad8	-0.043940395
111	0xbe884cbf	-0.26621053
112	0xbdc7b048	-0.0975042
113	0x3ebb7e0f	0.36619613
114	0xbd81ac9b	-0.0633175
115	0x3dbe3c22	0.09288813
116	0x3e03f603	0.12886815
117	0x3e4613b1	0.19343449
118	0xbd11f9cf	-0.035638627
119	0x3c6bdb68	0.014395572
120	0xbe85f9d4	-0.26167166
121	0xbd3c62b4	-0.045992568
122	0xbe579261	-0.21051933
123	0xbe9ad19f	-0.30238053
124	0xbf031f2c	-0.5121944
125	0x3e613a32	0.21994856
126	0x3c1eb916	0.009687683
127	0xbe88596d	-0.26630726

_problem._r1._attn.in_proj_weight f4 [384, 128]
0	0x3c9e4670	0.019320697
1	0x3d5edf07	0.054411914
2	0xbcb9db62	-0.022687618
3	0x3c866fde	0.016410764
4	0xbd740a50	-0.059580147
5	0xbdb502a1	-0.08838392
6	0xbd0db38b	-0.034595054
7	0xbd7c8eee	-0.061659746
8	0xbdc0ffef	-0.094238155
9	0xbd966e7a	-0.073452905
10	0x3ce17028	0.0275193
11	0xbcf92d1e	-0.030417021
12	0x3d700673	0.0585999
13	0xbcf605eb	-0.030032119
14	0x3a8b4ec5	0.0010628334
15	0xbdacf40f	-0.08444988
16	0xbcc561f2	-0.024094556
17	0x3d670566	0.056401633
18	0xbc3f27c4	-0.011667196
19	0x3ca56eee	0.020194497
20	0x3d796555	0.060887653
21	0x3bec8a52	0.0072186375
22	0xbda199af	-0.07890641
23	0xbd9ae6b4	-0.075635344
24	0x3d4a6742	0.04941488
25	0xbc5b9fb6	-0.013404777
26	0xbcab2de4	-0.020895906
27	0xbb7953a7	-0.0038044245
28	0xbc91624a	-0.017747063
29	0x3dc850ee	0.09781061
30	0xbd85646d	-0.06513295
31	0xbdad67e1	-0.08467079
32	0xbbf3e8d7	-0.007443528
33	0xbc96e38f	-0.018419055
34	0x3b65c58b	0.0035060372
35	0xbd5ac2f3	-0.053408574
36	0xbdc92f61	-0.0982349
37	0x3dcc001e	0.0996096
38	0xbda43d2b	-0.08019479
39	0xbc1c4c15	-0.009539624
40	0x3d1200f0	0.035645425
41	0x3d6cd46b	0.057819765
42	0xbdcf2cba	-0.10115953
43	0x3d5921dd	0.05301081
44	0xbd964786	-0.07337861
45	0xbdc245d4	-0.09485975
46	0xbda0a4f3	-0.078439616
47	0xbd4fbd5c	-0.050717697
48	0xbdcc1465	-0.099648274
49	0xbc1f85dd	-0.009736505
50	0x3dbde5f5	0.092723764
51	0xbd9f7f24	-0.07787922
52	0x3daf0cb5	0.085473455
53	0xbcb1f398	-0.0217226
54	0xbda545e2	-0.0806997
55	0xbdcd4e89	-0.10024745
56	0xbd14aefe	-0.036299698
57	0xbc459800	-0.012060165
58	0xbd9d2188	-0.07672411
59	0xbd488427	-0.048954155
60	0x3dcc40c9	0.09973294
61	0xbda25448	-0.079262316
62	0x3d8f734d	0.07004414
63	0x3d3e8bec	0.04652016
64	0x3d6ccdf4	0.0578136
65	0xbc7f9b6a	-0.015601018
66	0x3de25652	0.110516205
67	0xbb31b55f	-0.0027116162
68	0xbc5a3692	-0.013318675
69	0xbdac1879	-0.08403105
70	0xbd1b5430	-0.037922084
71	0xbdcfd4db	-0.10148021
72	0xbcbbb042	-0.022911195
73	0xbd367370	-0.044543684
74	0xbda3a848	-0.079910815
75	0x3dd876d3	0.10569539
76	0x3b30b39c	0.0026962524
77	0x3cedf9ee	0.02904984
78	0xbd110dc8	-0.035413533
79	0x3d94872c	0.072523445
80	0x3c87f0a7	0.016594244
81	0x3d77b711	0.06047732
82	0xbd31376b	-0.04326574
83	0xbd1cdcac	-0.038296387
84	0xbc9eebf6	-0.019399624
85	0xbd10f18c	-0.035386607
86	0xbd4f3acb	-0.05059318
87	0xbd148ccf	-0.036267098
88	0x3d818e6d	0.06325994
89	0x3b85d26a	0.004083921
90	0x3dd02b2e	0.10164486
91	0x3ada0687	0.0016634025
92	0x3df3e847	0.11909538
93	0x3d943123	0.072359346
94	0xbddd4253	-0.10803666
95	0xbd99b019	-0.07504291
96	0xbd3d4e33	-0.046217155
97	0xbdc93d77	-0.098261766
98	0xbd95b697	-0.07310217
99	0x3cc6aeb8	0.024253234
100	0x3d820480	0.063485146
101	0x3d3b4a76	0.04572531
102	0xbd93121b	-0.07181188
103	0xbcb8b6bf	-0.022548078
104	0x3d7a29a6	0.061074875
105	0x3d0c494b	0.034249585
106	0x3cda528a	0.026650686
107	0xbd7ac77e	-0.061225407
108	0x3d4b4dc0	0.049634695
109	0x3c818bdb	0.015813759
110	0xbd898426	-0.067146584
111	0xbd477c2c	-0.048702404
112	0x3b903598	0.00440092
113	0xbda4d9f6	-0.08049385
114	0x3d5cf1c3	0.0539415
115	0xbdc57640	-0.09641695
116	0x3d8c5936	0.06852953
117	0x3c5a3be0	0.013319939
118	0xbd1436b1	-0.03618497
119	0x3cd52dfc	0.026022904
120	0x3d3addde	0.045621745
121	0xbd27b01e	-0.040939443
122	0xbdb89220	-0.09012246
123	0xbda34de3	-0.0797384
124	0xbd8e9684	-0.06962302
125	0x3d4a6ebe	0.04942202
126	0xbd1f3791	-0.03887135
127	0x3dba22f4	0.09088698
128	0x3d8ad1f6	0.06778328
129	0x3b590c8c	0.003311905
130	0xbd241ce9	-0.040066633
131	0xbd2d4593	-0.04230268
132	0xbcb31da9	-0.021864729
133	0xbd02bdac	-0.031919166
134	0x3db19e3a	0.086727574
135	0xbdc73673	-0.09727182
136	0xbdb57339	-0.088598676
137	0xbdc2217a	-0.094790414
138	0x3c2a5f23	0.010398659
139	0x3d798a2f	0.060922798
140	0x3d5a7d92	0.05334241
141	0x3d874110	0.066042066
142	0x3dc3ec79	0.09566588
143	0xbdb9d88c	-0.09074506
144	0x3d9f4bde	0.077781424
145	0xbdae5d2f	-0.08513867
146	0xbd58a45b	-0.052891117
147	0xbdcf0f58	-0.101103485
148	0x3c73c250	0.014877871
149	0x3d9b2d53	0.07577004
150	0x3bcb497b	0.006203828
151	0x3b2c9803	0.0026335723
152	0xbc9ee9d5	-0.01939861
153	0xbd888842	-0.06666614
154	0x3dca5925	0.09880284
155	0x3dc335a9	0.09531719
156	0x3db33cae	0.08751808
157	0x3dc2f6da	0.095197394
158	0xbd0d0f1c	-0.034438238
159	0x3d375eb5	0.044768054
160	0x3ad73e7a	0.0016421818
161	0x3d9115bf	0.07084226
162	0xbdb81d59	-0.089899726
163	0x3cd0485f	0.025425134
164	0x3ddddc6a	0.10833056
165	0xbc3131d9	-0.010815107
166	0xbc4b51db	-0.012409653
167	0x3bf2a38a	0.0074047493
168	0xbd2856e1	-0.04109848
169	0xb8700936	-5.7229037e-05
170	0xbc23feeb	-0.010009508
171	0x3c98d184	0.018654592
172	0x3c281e1e	0.010261087
173	0xbd049bb6	-0.03237506
174	0x3daba835	0.08381692
175	0xbd9caa3e	-0.076496586
176	0x3d088ac5	0.033335466
177	0xbdcfb8fd	-0.101427056
178	0xbd63eec9	-0.055647645
179	0xbc52ae62	-0.012858959
180	0xbdd2bc0d	-0.10289774
181	0x3d61c156	0.05511602
182	0x3d5d4247	0.054018285
183	0x3d148bb0	0.03626603
184	0xbcc89b3d	-0.024488086
185	0x3bda65e6	0.0066649793
186	0x3d9d9a36	0.07695429
187	0xbdd8fcc8	-0.10595089
188	0x3cc6629b	0.02421694
189	0xbd9661c9	-0.0734287
190	0x3db18f8b	0.08669957
191	0xbd1435b1	-0.036184017
192	0xbdb540ed	-0.08850274
193	0x3cb4cfe5	0.022071788
194	0xbd9ae3b4	-0.07562962
195	0xbd9942f8	-0.074834764
196	0xbd80eee3	-0.06295564
197	0x3b17cc4d	0.0023162544
198	0xbd171da1	-0.03689349
199	0x3d945780	0.07243252
200	0x3d96ccd6	0.07363288
201	0x3d6aaaef	0.05729192
202	0x3d7175af	0.058950122
203	0x3dd7269e	0.105054125
204	0x3d7108e5	0.058846373
205	0x3dc4ba5c	0.09605858
206	0x3d67ddc1	0.056607965
207	0x3c28bfd1	0.010299639
208	0x3ce456d8	0.027873442
209	0x3d0f0010	0.03491217
210	0x3dda6bc7	0.10665088
211	0x3d199690	0.037497103
212	0xbd3d3274	-0.046190694
213	0xbd978f98	-0.07400435
214	0x3c9a1814	0.01881031
215	0xbcd67904	-0.026180752
216	0x3da2e367	0.0795353
217	0x3d9ad041	0.075592525
218	0xbdc4f18a	-0.096163824
219	0xbdae8294	-0.085209996
220	0x3dd40e51	0.10354293
221	0xbdbc6f4e	-0.09200917
222	0x3d2c4541	0.042058233
223	0x3c23daae	0.010000868
224	0x3cc080c8	0.023498908
225	0xbdbf8d99	-0.093531795
226	0x3d4bcbd9	0.04975495
227	0x3c9902c9	0.018678086
228	0xbd2a1e2f	-0.04153269
229	0xbdce3dc6	-0.10070376
230	0x3cf55262	0.02994651
231	0x3d89b966	0.06724815
232	0xbd70c947	-0.058785703
233	0x3c74deb0	0.014945671
234	0x3d82a398	0.06378859
235	0xbd46b338	-0.04851076
236	0x3d1010b3	0.035172176
237	0xbca5a6e0	-0.020221174
238	0xbdc10e40	-0.09426546
239	0xbcfd90e3	-0.030952876
240	0x3daf3e4e	0.085568056
241	0xbdad594e	-0.08464299
242	0x3d539a04	0.051660553
243	0xbd776685	-0.060400505
244	0x3d091049	0.033462796
245	0x3daf212f	0.08551251
246	0xbd475768	-0.04866734
247	0xbd7d2088	-0.061798602
248	0xbd1daae1	-0.03849304
249	0x3d88bc7a	0.06676574
250	0x3d1d5222	0.038408406
251	0x3c6b4fde	0.014362304
252	0xbcf0a53e	-0.029375669
253	0x3dcb8047	0.09936576
254	0xbdc26356	-0.09491603
255	0xbc6c93e6	-0.014439559

_problem._r1._attn.in_proj_bias f4 [384]
0	0x3d86ccf1	0.06582058
1	0x3ba3e05c	0.005001111
2	0x3e1b4112	0.15161541
3	0x3d798f7d	0.060927857
4	0xbe193b47	-0.14964019
5	0xbd96d2c9	-0.07364423
6	0xbd50a8be	-0.050942175
7	0xbdb1524d	-0.08658276
8	0x3d1d1f79	0.038360093
9	0xbb98d89a	-0.004664493
10	0xbc0e8a2e	-0.008699937
11	0xbc632e85	-0.013866072
12	0xba7289da	-0.0009252109
13	0x3ded729b	0.11594125
14	0xbd53c15f	-0.051698085
15	0x3d311641	0.043234114
16	0x3d16b018	0.03678903
17	0x3cf5132a	0.029916365
18	0xbcf20b9d	-0.029546553
19	0x3d9294b3	0.071572684
20	0xbca0d8a9	-0.019634562
21	0xbdbd39cc	-0.092395395
22	0x3ded96d7	0.11601036
23	0x3c3768e7	0.011194444
24	0x3c8bad53	0.01705042
25	0xbd37077a	-0.044684865
26	0x3c6cdc7b	0.0144568635
27	0x3dfdbdc0	0.123897076
28	0x3e0e98dc	0.13925499
29	0xbb44013c	-0.0029907962
30	0x3d6fec0f	0.058574732
31	0xbd8a48a0	-0.06752133
32	0x3bae4720	0.0053185374
33	0xbd354e2a	-0.044263996
34	0xb97f28f7	-0.00024333956
35	0xbc362a85	-0.011118536
36	0x3bf8c246	0.0075915186
37	0xbcbffbd2	-0.023435507
38	0xbc9a08c3	-0.018803006
39	0xbc30d2d5	-0.010792454
40	0xbc9b58fe	-0.018963333
41	0xbdbdecaf	-0.092736594
42	0xbd60bea0	-0.054869294
43	0x3d88aa73	0.066731356
44	0xbd84e424	-0.06488827
45	0xbd8a9130	-0.067659736
46	0x3dbae6d1	0.09126056
47	0xbda07558	-0.078348815
48	0xbdbfefa4	-0.0937188
49	0x3df7caf3	0.12099256
50	0xbdc4bb81	-0.09606076
51	0xbdea6ba9	-0.11446316
52	0x3e2699d6	0.16269621
53	0xbdfa3f33	-0.122190855
54	0xbd366a94	-0.044535235
55	0x3dc26fca	0.09493978
56	0xbbdf848e	-0.0068212217
57	0xbdaa285c	-0.08308479
58	0xbb7a4e21	-0.003819354
59	0x3c35e447	0.011101789
60	0x3dd21dc3	0.10259583
61	0xbce43072	-0.027855132
62	0x3cb87a72	0.022519324
63	0x3db977b8	0.09056038
64	0x3d78c799	0.060737226
65	0xbd3d5430	-0.046222866
66	0xbd9173b4	-0.07102147
67	0xbbe5b700	-0.0070103407
68	0xbd03233e	-0.03201603
69	0xbb5062b2	-0.0031797108
70	0x3c8230ab	0.015892347
71	0x3da31827	0.07963591
72	0xbd7ed912	-0.062218733
73	0x3deba04c	0.115051836
74	0x3dc2f405	0.09519199
75	0x3c93051c	0.017946772
76	0x3d6bc76b	0.057563227
77	0x3d2188f1	0.039437238
78	0xbd8576c5	-0.06516794
79	0x3a76ce5d	0.0009414906
80	0xbd1dcb11	-0.038523737
81	0xbdabb57c	-0.08384225
82	0x3d7a82f4	0.061160043
83	0x3c8e5724	0.017375536
84	0x3ca4b655	0.020106474
85	0x3c3da69f	0.01157537
86	0xbdcd4c7a	-0.10024352
87	0xbac5db8a	-0.0015095335
88	0xbc9e4f9e	-0.019325074
89	0x3dd659c1	0.10466338
90	0x3b9c7826	0.004775065
91	0x3d01bb09	0.03167251
92	0xbd8945e0	-0.06702781
93	0xbda911e7	-0.08255368
94	0xbd4d6f2f	-0.05015486
95	0xbd4ca291	-0.049959723
96	0xbc61bf83	-0.01377857
97	0x3c088689	0.008332857
98	0xbdecde6d	-0.11565862
99	0xbb9aca50	-0.0047238246
100	0x3d8a5677	0.06754773
101	0x3e4bbcbe	0.19896218
102	0xbd5f9595	-0.054586012
103	0xbc8b3a1e	-0.016995486
104	0x3dce05e2	0.10059716
105	0x3cd6cc73	0.026220536
106	0xbcd7976f	-0.026317326
107	0x3c6cc6b5	0.014451672
108	0x3ced55a2	0.028971497
109	0xbc233fbb	-0.009963925
110	0x3cc0470d	0.02347138
111	0xbe043f55	-0.12914784
112	0x3d7a5286	0.061113857
113	0xbdb74f5e	-0.08950685
114	0xbaa4d80d	-0.0012576595
115	0xbd9772f9	-0.07394976
116	0x3e0d58f3	0.13803463
117	0x3ca8b42c	0.020593725
118	0x3d0dffc3	0.03466774
119	0xbcfbbe02	-0.030730251
120	0xbe21aa1c	-0.15787548
121	0xbc147515	-0.009061118
122	0x3c841fda	0.01612847
123	0x3dd7c418	0.10535449
124	0xbe0e7073	-0.13910083
125	0x3d8d03e9	0.068855114
126	0xbda6095d	-0.08107255
127	0x3d10ba84	0.035334125
128	0xb1880a56	-3.959296e-09
129	0x306a824c	8.5313867e-10
130	0x31e44c29	6.6443318e-09
131	0xb0718241	-8.786039e-10
132	0xb1cd3f5a	-5.9734875e-09
133	0x3154686f	3.0909424e-09
134	0x30ca82f1	1.473465e-09
135	0xb1f71d73	-7.191994e-09
136	0xb0e48753	-1.6627645e-09
137	0x30771a6c	8.9895624e-10
138	0x2eab6599	7.794227e-11
139	0x2f993b1d	2.787254e-10
140	0x2fbda3b3	3.4495215e-10
141	0x31ab87a1	4.9921742e-09
142	0x30c7737a	1.4511976e-09
143	0xaf847a67	-2.4097632e-10
144	0x31a9d0bd	4.942278e-09
145	0x3187d755	3.9534975e-09
146	0xb165f3e3	-3.346252e-09
147	0x316df7cf	3.4628902e-09
148	0xaf82d969	-2.3801341e-10
149	0xb2282160	-9.786476e-09
150	0x31842c45	3.8467385e-09
151	0x300d9e3c	5.1520366e-10
152	0x301ff9b0	5.819869e-10
153	0x2fc8e3e4	3.6541714e-10
154	0xafac0143	-3.1287514e-10
155	0x32276878	9.744433e-09
156	0x308c7a2d	1.0221065e-09
157	0xb0d4dec8	-1.5488348e-09
158	0xb03049ae	-6.413313e-10
159	0xb1e15687	-6.558199e-09
160	0x2fe8434f	4.224838e-10
161	0x306f1575	8.6978186e-10
162	0xafe8e38b	-4.2362233e-10
163	0x2e27d19c	3.8157574e-11
164	0x3011ae1f	5.2998134e-10
165	0xb10ff58d	-2.0948818e-09
166	0x304c15d1	7.424577e-10
167	0xafb4c053	-3.2878464e-10
168	0xb061531c	-8.197263e-10
169	0xb113b086	-2.1491657e-09
170	0x31f3529f	7.0816237e-09
171	0x2fe6d03b	4.1984713e-10
172	0xb19f82ef	-4.6423945e-09
173	0xb0bbd529	-1.3666624e-09
174	0xb0e70502	-1.6808885e-09
175	0xb19fdc2a	-4.652539e-09
176	0xb1cec068	-6.017263e-09
177	0x31f2753c	7.056455e-09
178	0x31a4d6a5	4.7974305e-09
179	0x3109f475	2.0075082e-09
180	0x3154d156	3.0969054e-09
181	0xb1e3f1e7	-6.6340706e-09
182	0xb1251067	-2.4019984e-09
183	0xb1c2ef67	-5.67336e-09
184	0x3059a05b	7.917202e-10
185	0xb1d4770b	-6.1835457e-09
186	0xae48eb40	-4.568368e-11
187	0x2faabcf8	3.105709e-10
188	0xb1a93686	-4.924746e-09
189	0x309a1efc	1.1213781e-09
190	0x3084af4b	9.654085e-10
191	0xaf9bb9ae	-2.832627e-10
192	0x2e8258a0	5.9274585e-11
193	0xadb33533	-2.037357e-11
194	0x2f8eec59	2.5997585e-10
195	0xb05b3e5b	-7.976035e-10
196	0xb14dde4c	-2.9957787e-09
197	0xb038c162	-6.7213624e-10
198	0x3065a912	8.354998e-10
199	0x31e23d8a	6.584462e-09
200	0xb17e1b73	-3.6977468e-09
201	0x3084bd56	9.658077e-10
202	0x30feacc2	1.8530033e-09
203	0xb0194a32	-5.5766514e-10
204	0xaf222148	-1.4745638e-10
205	0xb109375b	-1.996759e-09
206	0x311b1735	2.256866e-09
207	0xaf9c5252	-2.8434727e-10
208	0xb11c99e6	-2.2788469e-09
209	0x31a4fd9c	4.8018602e-09
210	0x31c874af	5.8340315e-09
211	0x30cbbe0a	1.4824206e-09
212	0xafdd2504	-4.0225967e-10
213	0x30a6f8cf	1.2148805e-09
214	0x317c4d22	3.6714671e-09
215	0xafc135cd	-3.5144723e-10
216	0xb0c1ee60	-1.4110348e-09
217	0xb0949ae7	-1.0812443e-09
218	0x3036bd28	6.648002e-10
219	0x315510a2	3.1005034e-09
220	0xaf367e90	-1.6597768e-10
221	0x30984790	1.1079795e-09
222	0xb1566323	-3.1197451e-09
223	0xb008b51a	-4.973387e-10
224	0x2fa8d093	3.0707223e-10
225	0x30013bd0	4.7014925e-10
226	0x310fe191	2.0937458e-09
227	0x300e3128	5.1729154e-10
228	0x30b006ee	1.2807655e-09
229	0x329c4144	1.819047e-08
230	0xb0fb844a	-1.8300252e-09
231	0xb0d2e90f	-1.534575e-09
232	0xb0c9eba1	-1.4691645e-09
233	0xb047dc8a	-7.2709183e-10
234	0xb1287ea0	-2.4519196e-09
235	0xaff8bcbb	-4.5245038e-10
236	0xaee39ea9	-1.03509486e-10
237	0x30273b24	6.083829e-10
238	0x30b0b356	1.2856656e-09
239	0xb18f596c	-4.172014e-09
240	0x3174e111	3.5634609e-09
241	0xb1f54161	-7.137871e-09
242	0x30bae0be	1.3597157e-09
243	0xb1a52447	-4.8062563e-09
244	0x2efe6d22	1.15699686e-10
245	0x3129e295	2.4721534e-09
246	0x3107d23b	1.9764588e-09
247	0xb092ec9c	-1.0690147e-09
248	0xb141c851	-2.8199063e-09
249	0xb0e0e447	-1.6363025e-09
250	0x303fbd6b	6.9754574e-10
251	0x322aee36	9.949465e-09
252	0xb24af00f	-1.18125305e-08
253	0x3123b5a4	2.3822873e-09
254	0xb1bebea9	-5.5514033e-09
255	0x31071a6d	1.9660107e-09

_problem._r1._attn.out_proj.weight f4 [128, 128]
0	0x3d4837b6	0.048881255
1	0xbd78e9df	-0.06076991
2	0x3d44d5ad	0.04805534
3	0x3c2e690c	0.010645162
4	0x3dc95d4c	0.09832248
5	0xbd9865a7	-0.07441264
6	0xbcd53404	-0.02602578
7	0x3d82907c	0.063752145
8	0xbdd4882e	-0.10377537
9	0xbdeae020	-0.1146853
10	0xbd13b883	-0.036064636
11	0x3db9bb25	0.09068898
12	0x3dbed5c6	0.09318118
13	0x3dcc10a2	0.0996411
14	0xbc406b30	-0.0117443055
15	0xbb8cbb5a	-0.004294795
16	0xbd6233f8	-0.055225343
17	0x3bb75396	0.005594681
18	0x3d66e640	0.056371927
19	0xbd9c7f77	-0.076414995
20	0x3d8725b4	0.06598988
21	0xbdaa2cd5	-0.08309332
22	0xbdad1851	-0.084519036
23	0x3d1dc8ab	0.03852145
24	0x3dd3bf78	0.10339254
25	0x3d6c4630	0.057684124
26	0x3d0e4845	0.03473689
27	0x3da91b57	0.08257168
28	0x3d29df2a	0.04147259
29	0xbd85c780	-0.06532192
30	0xbb3e9d1b	-0.0029085341
31	0xbc5b4264	-0.013382528
32	0x3cdacfad	0.026710356
33	0x3de3e56f	0.11127745
34	0xbbe7616d	-0.0070611746
35	0xbd0d21d0	-0.034456074
36	0xbd82471a	-0.06361218
37	0x3d73bab9	0.059504244
38	0x3d2cdd66	0.04220333
39	0xbd7710a4	-0.060318604
40	0x3dc5e72b	0.096632324
41	0xbd061720	-0.032736897
42	0x3d5693e6	0.05238714
43	0x3c7c24d3	0.015389639
44	0xbcdd7833	-0.027034855
45	0xbdc3ffe3	-0.09570291
46	0xbd09669b	-0.033545118
47	0x3db8ced0	0.09023821
48	0x3df7cd16	0.12099664
49	0x3e3231a3	0.17401747
50	0x3daa2fc5	0.083098926
51	0x3da97cae	0.08275734
52	0xbc1add26	-0.00945214
53	0x3d965f84	0.07342437
54	0xbc890c24	-0.016729422
55	0x3df8d169	0.12149317
56	0x3d8a1a06	0.06743245
57	0x3dcfb58e	0.10142051
58	0x3cf46280	0.029832125
59	0xbd9778d6	-0.073960945
60	0xbdc9c0e0	-0.09851241
61	0x3d966298	0.07343024
62	0xbe06d504	-0.13167197
63	0xbd241c51	-0.040066067
64	0x3d3f7324	0.046740666
65	0x3d72fedf	0.059325095
66	0xbca77ddc	-0.020445757
67	0x3d118bf3	0.035533857
68	0xbcc87e0c	-0.024474166
69	0xbd46ba70	-0.048517644
70	0xbd3902ec	-0.045168802
71	0x3dd2a6b6	0.10285704
72	0x3dabbd8b	0.08385762
73	0x3db135a2	0.08652808
74	0x3c620d71	0.01379715
75	0x3d76b5a0	0.060231805
76	0x3ba4c88a	0.005028789
77	0xbdb9fea1	-0.0908177
78	0xbd422757	-0.0474008
79	0xbd05fe21	-0.03271306
80	0xbda257d6	-0.079269096
81	0xbdbdba52	-0.092640534
82	0xbc94c9ff	-0.018162725
83	0xbe1bb70c	-0.15206546
84	0xbe180a47	-0.1484767
85	0x3c09c27c	0.008408185
86	0x3d7f14dc	0.062275752
87	0x3c6925d3	0.014230209
88	0xbd2d6191	-0.042329375
89	0xbdd767b3	-0.10517826
90	0xbd2cf3ce	-0.042224698
91	0x3b93991d	0.0045043365
92	0xbe06d6af	-0.13167833
93	0xbd590d9d	-0.0529915
94	0xbd4c761a	-0.049917318
95	0xbd41d941	-0.04732633
96	0xbc2387da	-0.00998112
97	0xbd9464fa	-0.07245822
98	0x3d3aa193	0.045564245
99	0x3df261c1	0.11835051
100	0x3c9b4929	0.018955784
101	0x3d4885ca	0.048955716
102	0x3d64b662	0.055837996
103	0x3e062b32	0.13102415
104	0xbb8be729	-0.0042695
105	0xbd1347f9	-0.03595731
106	0xbd0fe36d	-0.035129
107	0xbce13a01	-0.027493479
108	0xbd54b148	-0.05192688
109	0xbd087005	-0.033309955
110	0xbd44fc3f	-0.048092123
111	0x3d5f9486	0.054585002
112	0xbca2a531	-0.01985416
113	0xbcbb831b	-0.022889664
114	0xbda3e6ce	-0.08003007
115	0xbdb9f2e0	-0.09079528
116	0xbd1119ab	-0.03542487
117	0x3da9db5c	0.082937926
118	0xbd4d35c8	-0.050100118
119	0xbd250446	-0.04028728
120	0xbdc9aac4	-0.09847024
121	0x3d8ed4cf	0.06974184
122	0x3d90aea2	0.070645586
123	0x3b836713	0.00401009
124	0xbc8a8725	-0.016910145
125	0x3cc6ef2f	0.024283974
126	0x3db0846b	0.08619007
127	0xbe054ee1	-0.13018371
128	0xbd727079	-0.059189294
129	0x3d055e69	0.03256074
130	0x3d758834	0.059944347
131	0x3c13d69e	0.009023337
132	0xbd9683f4	-0.07349387
133	0xbddf38de	-0.108995184
134	0xbd97dedb	-0.07415553
135	0xbcca8369	-0.024720864
136	0xbe147add	-0.14499994
137	0x3d88e280	0.066838264
138	0x3cea32c1	0.028588654
139	0x3d1c63e3	0.038181197
140	0xbe15b3ed	-0.14619417
141	0x3c833d46	0.016020428
142	0x3db2f551	0.08738197
143	0x3cc7e994	0.02440337
144	0xbdb29ef9	-0.08721728
145	0x3c74e889	0.014948019
146	0xbda0aac0	-0.07845068
147	0xbd06de05	-0.032926578
148	0xbd828907	-0.06373792
149	0x3d804ebd	0.06265018
150	0x3a79b18b	0.0009525052
151	0x3d75a656	0.059973083
152	0xbc8b0fdd	-0.016975338
153	0xbdb9a6f7	-0.09065049
154	0x3e1ae104	0.15124899
155	0x3da1cc55	0.07900301
156	0x3d740242	0.059572466
157	0xbbfdb711	-0.0077427705
158	0x3ccb4713	0.024814164
159	0xbc968f72	-0.018378947
160	0x3b767375	0.003760544
161	0xbc05b674	-0.008161176
162	0xbdf5f3f9	-0.12009425
163	0x3d5120c9	0.051056657
164	0x3caddc19	0.021223115
165	0xbd93d18c	-0.07217702
166	0x3dc6b919	0.09703273
167	0xbd3e02a3	-0.046389233
168	0x3d80acef	0.062829845
169	0x3c63a976	0.013895383
170	0x3dafa276	0.08575909
171	0x3c757d15	0.014983435
172	0x3d45b26b	0.048265856
173	0x3c21b206	0.009869104
174	0x3cb6c365	0.022309968
175	0xbdd06e5f	-0.101773016
176	0xbbd9b552	-0.0066439295
177	0xbcd3c644	-0.025851376
178	0xbd692eb4	-0.056929305
179	0xbbf1b587	-0.007376376
180	0xbdc9bac3	-0.09850075
181	0xbbb61d1a	-0.0055576684
182	0x3c064e64	0.008197401
183	0x3c9e1e6d	0.019301618
184	0x3dbe4900	0.092912674
185	0xbe24fe14	-0.16112548
186	0x3e120b23	0.14262061
187	0xbe10b789	-0.14132513
188	0x3c56a76c	0.01310144
189	0xbdb8ca66	-0.090229794
190	0x3ddf39da	0.10899706
191	0x3e25b1c7	0.16181098
192	0xbdb33b3c	-0.087515324
193	0x3d3cf1e0	0.046129107
194	0xbde9e143	-0.114199184
195	0xbc1c41e2	-0.009537192
196	0x3c76d512	0.015065448
197	0x3d300903	0.042977344
198	0x3c17931a	0.00925138
199	0x3c5b8046	0.013397282
200	0x3e02dacc	0.12778777
201	0x3de7cf58	0.113188446
202	0xbe1c2026	-0.15246639
203	0xbd687122	-0.056748517
204	0xbdd75ef2	-0.10516156
205	0xbc931d35	-0.017958263
206	0xbdf4a52b	-0.11945566
207	0xbde68a3f	-0.11256837
208	0x3cb397c0	0.021922946
209	0x3e1158fc	0.14194101
210	0x3d56e10d	0.05246072
211	0xbe187633	-0.1488884
212	0x3df3d1ee	0.11905275
213	0xbc315070	-0.0108224
214	0x3d8def66	0.06930427
215	0x3a83a24a	0.0010042873
216	0xbcea4bbd	-0.028600568
217	0xbd204d67	-0.039136317
218	0xbcb25499	-0.021768855
219	0x3c070d57	0.008242927
220	0xbd6f2de8	-0.05839339
221	0x3d00e94b	0.031472486
222	0xbe224d48	-0.15849793
223	0xbc868994	-0.016423024
224	0x3c8861ea	0.016648252
225	0x3d8c5be3	0.068534635
226	0xbda0a5fa	-0.078441575
227	0xbd917f54	-0.07104364
228	0xbc884e53	-0.01663891
229	0xbd4374f9	-0.047718976
230	0xbe0f6a2b	-0.14005344
231	0x3b86634a	0.0041011916
232	0xbc5c7905	-0.013456588
233	0xbe09cecb	-0.13457792
234	0xbd579e85	-0.05264141
235	0x3ccaf928	0.02477701
236	0x3d849246	0.06473212
237	0xbd46a54c	-0.048497483
238	0x3c02db20	0.007986814
239	0xbdeb4c74	-0.11489192
240	0x3e137b07	0.144024
241	0xbdc5481d	-0.09632895
242	0x3d5b2927	0.053506043
243	0xbd050b30	-0.032481372
244	0xbd764589	-0.060124908
245	0x3d4ec5a4	0.050481454
246	0x3c168a92	0.009188311
247	0x3db0d748	0.08634812
248	0x3ddacea9	0.106839485
249	0x3d73570f	0.059409197
250	0x3a3dbeb9	0.0007238198
251	0xbbd05574	-0.006357843
252	0x3d8daa24	0.069172174
253	0xbdf2f945	-0.11863951
254	0x3b32c254	0.0027276473
255	0xbc15bac1	-0.009138764

_problem._r1._attn.out_proj.bias f4 [128]
0	0x3dd3dd02	0.10344888
1	0x3e188bf1	0.14897133
2	0xbe2cc9e6	-0.16873893
3	0x3e827d6d	0.25486317
4	0x3ccd72a1	0.025079073
5	0xbcb54abe	-0.022130366
6	0x3e17bbf6	0.14817795
7	0xbe05fdf9	-0.13085164
8	0x3aff60d8	0.0019483818
9	0x3d71db4e	0.059047036
10	0x3e9b755d	0.3036298
11	0x3ce73170	0.028221816
12	0xbd951a7c	-0.07280442
13	0x3d2b34f4	0.041798547
14	0xbe0f3dd7	-0.13988434
15	0x3edfcc64	0.43710625
16	0xbcb2482c	-0.02176293
17	0xbc8b2cd3	-0.016989147
18	0x3e41d8fc	0.18930429
19	0xbe2dc65f	-0.16970204
20	0xbe8e19aa	-0.27753955
21	0x3e581689	0.21102346
22	0xbc3c944c	-0.011509966
23	0xbe0f67db	-0.14004461
24	0xbc96cfd6	-0.01840965
25	0x3e9fb59d	0.31193247
26	0x3d90799d	0.07054446
27	0xbe36001f	-0.17773484
28	0x3d8945ab	0.06702741
29	0xbc8b3144	-0.016991265
30	0x3e7b1820	0.24520922
31	0x3e5a853e	0.2133989
32	0xbbabed13	-0.0052467673
33	0xb9f1a841	-0.0004609246
34	0xbdd154e7	-0.10221272
35	0x3aa5c2ae	0.001264652
36	0xbdb70e57	-0.08938282
37	0xbe3bfe6f	-0.18358777
38	0x39e7e4a2	0.00044230098
39	0x3d23822b	0.03991906
40	0x3d897ff1	0.06713856
41	0x3eb29666	0.3488037
42	0xbe1d6e7a	-0.15374175
43	0xbded6a45	-0.11592535
44	0x3d504cfb	0.050854664
45	0xbbbe5865	-0.0058088773
46	0xbd47fe09	-0.04882625
47	0x3e12079e	0.14260718
48	0x3e65d3a3	0.22444014
49	0xbe5d763e	-0.21627137
50	0xbdf8ec4b	-0.12154444
51	0xbe096c94	-0.13420326
52	0xbc5be8db	-0.013422216
53	0xbcd3beea	-0.02584787
54	0x3dbdd626	0.09269361
55	0x3e20498a	0.15653053
56	0x3db97245	0.09054998
57	0x3e14db59	0.145368
58	0x3e5b0da0	0.21391916
59	0xbce0774f	-0.02740064
60	0x3d90d45e	0.07071756
61	0xbe62e607	-0.22158061
62	0xbd4970d1	-0.049179856
63	0xbd9da95c	-0.07698318
64	0xbd78b766	-0.060721777
65	0xbc597512	-0.013272541
66	0xbde05e39	-0.109554715
67	0xbe22ae62	-0.15886834
68	0xbd54ab54	-0.051921204
69	0x3d0eaaf2	0.034830995
70	0xbdc31586	-0.0952559
71	0xbdf55063	-0.11978223
72	0x3e39e725	0.18154581
73	0x3cd05fdd	0.025436336
74	0xbe86a0d1	-0.26294568
75	0xbdab226a	-0.08356173
76	0x3e2e3b65	0.17014845
77	0xbe0fa1fd	-0.14026637
78	0x3e8ab02b	0.2708753
79	0xbe58afe0	-0.21160841
80	0xbd6e66a3	-0.05820335
81	0xbd64fd93	-0.05590589
82	0xbde5ab7e	-0.1121435
83	0xbde39825	-0.11113004
84	0x3e38674d	0.18008156
85	0x3d97fc62	0.07421185
86	0x3e571291	0.21003176
87	0xbe1f8c10	-0.15580773
88	0xbd51ef40	-0.051253557
89	0xbc6c8cc5	-0.014437859
90	0x3cfa6a14	0.03056816
91	0xbd7d5d4e	-0.06185656
92	0xbcf3de12	-0.029768977
93	0xbe6e6da6	-0.23284015
94	0x3d256ad9	0.0403851
95	0xbe49e911	-0.19717814
96	0x3e3625be	0.17787835
97	0xbd821352	-0.06351341
98	0x3e8e8583	0.27836236
99	0xbe29bf18	-0.16576803
100	0xbe4487b4	-0.19192392
101	0x3eba2d2b	0.36362585
102	0xbdaab013	-0.08334365
103	0xbd6a0bcc	-0.057140157
104	0x3e20306d	0.15643473
105	0x3b1b8e51	0.002373595
106	0xbdcef0a7	-0.101044945
107	0x3dc3cfdd	0.09561131
108	0x3e5c8cc1	0.21538068
109	0x3c541b04	0.012945894
110	0xbe34b650	-0.17647672
111	0xbda3c839	-0.07997174
112	0xbcdb4c00	-0.026769638
113	0xbdb3a01d	-0.087707736
114	0xbe0b56f4	-0.13607389
115	0xbd50c0cc	-0.050965115
116	0xbafc9c0d	-0.0019272581
117	0x3d4a2b4c	0.049357697
118	0x3d7e0c45	0.06202342
119	0xbc26c2c8	-0.010178275
120	0x3dba4ece	0.09097062
121	0xbe3c7b25	-0.18406351
122	0x3e83a83f	0.257143
123	0x3d737348	0.059436113
124	0x3e275970	0.16342711
125	0x3d8928a9	0.066972084
126	0xbc0ef69b	-0.0087257875
127	0x3e4d609b	0.20056383
