experiment/digit_classifier/version_5/checkpoints/best.ckpt (torch, 446119 bytes, 16 tensors)

_problem._r1._cls_token f4 [1, 1, 128]
000000 4c 4d 88 bb b6 30 27 3b 65 6d 3d 3b cd 30 e0 39
       -0.004159605 0.0025511212 0.0028904316 0.0004276097
000010 40 60 ee 3a 8b 8b 1f bb 3a 3e a7 38 96 e5 15 bb
       0.0018186644 -0.0024344649 7.974771e-05 -0.002287244
000020 a3 46 5f 3b 34 69 aa 3b cb 57 13 ba 79 5d 8a 3b
       0.0034069202 0.0052005295 -0.0005620687 0.0042225686
000030 c2 32 6d ba 9a e9 52 3a 4c 79 e9 38 17 cf 81 3a
       -0.0009048396 0.00080456736 0.00011132899 0.0009903637
000040 20 af 76 39 1a 51 2d 3a af 91 b0 bb a0 cf b2 3a
       0.00023525627 0.00066115113 -0.0053884606 0.0013642199
000050 5b ae 27 3a 2c 1b cb ba 27 9b 7b 3b 9d ca 39 bb
       0.00063965254 -0.0015495769 0.0038392039 -0.0028349527
000060 f8 10 58 bb 6e db e8 3a 65 d4 5b 3a b2 74 9d ba
       -0.0032969099 0.001776559 0.0008385836 -0.0012012927
000070 94 1c 63 39 91 10 fa b8 6c c9 16 3b 8a dc 56 bb
       0.00021659053 -0.00011924015 0.002300824 -0.003278526
000080 11 43 7a 3b 44 96 77 b9 55 ba e0 39 2d ac c0 ba
       0.0038186947 -0.00023611734 0.00042863438 -0.001469975
000090 e7 21 40 3a 83 bd 0b 3a 84 47 40 ba 98 6b 2f 38
       0.00073292706 0.00053306686 -0.00073348754 4.1823456e-05
0000a0 4e 46 13 bb be 75 2e 3b b0 ca 7f 3a ac 4d 0a 3b
       -0.0022472325 0.0026620473 0.0009757681 0.0021103425
0000b0 20 54 8e ba b4 31 bf 3a 61 47 21 b9 6e 4c 19 bb
       -0.0010858811 0.0014586956 -0.00015380747 -0.0023391503
0000c0 26 d4 e0 ba be 57 11 3a 77 8e 33 3a cc 80 c9 ba
       -0.0017153069 0.00055443856 0.0006849537 -0.0015373467
0000d0 2d 08 eb 3a 9b 72 80 b9 72 95 f2 ba 66 c8 fe 3a
       0.0017931514 -0.0002449945 -0.0018507673 0.0019438385
0000e0 f3 d4 28 ba 5d dc 84 3a 0d d1 4f 3b ee 0a 9c 3b
       -0.00064404233 0.0010136474 0.0031710297 0.004762045
0000f0 cc 0e e0 39 9b 87 0c 3b ce aa d8 3a 5b a2 5b bb
       0.00042735634 0.0021443132 0.0016530396 -0.003351352
000100 cf 34 3e bb 60 45 ca ba 34 b6 42 bb 85 70 34 3b
       -0.0029023176 -0.0015432052 -0.0029710652 0.0027532887
000110 64 b1 0e bb e6 76 ce ba 9e 1d 9e ba be f5 d4 3a
       -0.0021773214 -0.0015751987 -0.001206327 0.0016247553
000120 db f0 c9 3a 4a 93 ac b9 19 c2 99 b9 16 8b cc b9
       0.0015406864 -0.00032916135 -0.00029327048 -0.0003901354
000130 36 16 f3 ba 4c 25 c1 ba 89 98 75 bb 52 f4 6e 39
       -0.0018546048 -0.0014735847 -0.0037474951 0.00022788465
000140 8a 19 e4 3a 9f f3 c2 3a 83 95 23 3b f7 67 84 3a
       0.0017402631 0.001487363 0.0024960942 0.0010101785
000150 d6 90 88 bb 2e 3b 9e 3a 5c 4f 82 3a b2 23 2b ba
       -0.0041676564 0.001207208 0.0009941864 -0.00065284513
000160 92 bd 03 3a dd 2c e5 38 44 ba 07 3b 7b fd 69 ba
       0.00050255016 0.00010927927 0.0020710388 -0.0008926016
000170 86 83 64 ba d4 33 9a b8 54 72 e5 ba f3 53 2a 3b
       -0.0008717108 -7.352946e-05 -0.0017505386 0.002598998
000180 16 4d d2 3a a1 72 86 ba c2 e9 2c bb 18 7c cc 37
       0.0016044702 -0.0010257551 -0.0026384448 2.437648e-05
000190 9c 91 44 3b c1 b9 79 3b 30 74 42 39 7c 52 37 39
       0.0029994017 0.0038105103 0.00018544565 0.00017482968
0001a0 5f 47 74 3b e6 99 79 ba fd 3c 30 bb 76 e1 08 b9
       0.0037273986 -0.0009521529 -0.002689182 -0.00013053961
0001b0 d8 2b 3f bb 8b 61 a5 3a 71 8d 08 bb fd 22 29 3a
       -0.002917042 0.0012617571 -0.0020836259 0.0006452052
0001c0 a6 4e d7 3a 6e d4 9e 39 8a 3b 01 3b ce 53 05 bb
       0.0016426637 0.0003029438 0.0019719326 -0.002034414
0001d0 8e 4a 80 bb 9c ba ae 3a 34 cc cd b9 1c bd 92 bb
       -0.0039151376 0.001333076 -0.0003925279 -0.00447811
0001e0 ad 2b 89 ba 68 99 d0 3a fc 0b ff 38 1c a8 dc 3a
       -0.0010465287 0.0015914859 0.0001216158 0.0016834768
0001f0 1b f2 2e 3b ec 26 77 39 c4 d8 80 3a c3 44 3d ba
       0.00266946 0.00023570255 0.0009830226 -0.0007220024

_problem._r1._pos_embed f4 [1, 17, 128]
000000 4c 4d 88 bb b6 30 27 3b 65 6d 3d 3b cd 30 e0 39
       -0.004159605 0.0025511212 0.0028904316 0.0004276097
000010 40 60 ee 3a 8b 8b 1f bb 3a 3e a7 38 96 e5 15 bb
       0.0018186644 -0.0024344649 7.974771e-05 -0.002287244
000020 a3 46 5f 3b 34 69 aa 3b cb 57 13 ba 79 5d 8a 3b
       0.0034069202 0.0052005295 -0.0005620687 0.0042225686
000030 c2 32 6d ba 9a e9 52 3a 4c 79 e9 38 17 cf 81 3a
       -0.0009048396 0.00080456736 0.00011132899 0.0009903637
000040 20 af 76 39 1a 51 2d 3a af 91 b0 bb a0 cf b2 3a
       0.00023525627 0.00066115113 -0.0053884606 0.0013642199
000050 5b ae 27 3a 2c 1b cb ba 27 9b 7b 3b 9d ca 39 bb
       0.00063965254 -0.0015495769 0.0038392039 -0.0028349527
000060 f8 10 58 bb 6e db e8 3a 65 d4 5b 3a b2 74 9d ba
       -0.0032969099 0.001776559 0.0008385836 -0.0012012927
000070 94 1c 63 39 91 10 fa b8 6c c9 16 3b 8a dc 56 bb
       0.00021659053 -0.00011924015 0.002300824 -0.003278526
000080 11 43 7a 3b 44 96 77 b9 55 ba e0 39 2d ac c0 ba
       0.0038186947 -0.00023611734 0.00042863438 -0.001469975
000090 e7 21 40 3a 83 bd 0b 3a 84 47 40 ba 98 6b 2f 38
       0.00073292706 0.00053306686 -0.00073348754 4.1823456e-05
0000a0 4e 46 13 bb be 75 2e 3b b0 ca 7f 3a ac 4d 0a 3b
       -0.0022472325 0.0026620473 0.0009757681 0.0021103425
0000b0 20 54 8e ba b4 31 bf 3a 61 47 21 b9 6e 4c 19 bb
       -0.0010858811 0.0014586956 -0.00015380747 -0.0023391503
0000c0 26 d4 e0 ba be 57 11 3a 77 8e 33 3a cc 80 c9 ba
       -0.0017153069 0.00055443856 0.0006849537 -0.0015373467
0000d0 2d 08 eb 3a 9b 72 80 b9 72 95 f2 ba 66 c8 fe 3a
       0.0017931514 -0.0002449945 -0.0018507673 0.0019438385
0000e0 f3 d4 28 ba 5d dc 84 3a 0d d1 4f 3b ee 0a 9c 3b
       -0.00064404233 0.0010136474 0.0031710297 0.004762045
0000f0 cc 0e e0 39 9b 87 0c 3b ce aa d8 3a 5b a2 5b bb
       0.00042735634 0.0021443132 0.0016530396 -0.003351352
000100 cf 34 3e bb 60 45 ca ba 34 b6 42 bb 85 70 34 3b
       -0.0029023176 -0.0015432052 -0.0029710652 0.0027532887
000110 64 b1 0e bb e6 76 ce ba 9e 1d 9e ba be f5 d4 3a
       -0.0021773214 -0.0015751987 -0.001206327 0.0016247553
000120 db f0 c9 3a 4a 93 ac b9 19 c2 99 b9 16 8b cc b9
       0.0015406864 -0.00032916135 -0.00029327048 -0.0003901354
000130 36 16 f3 ba 4c 25 c1 ba 89 98 75 bb 52 f4 6e 39
       -0.0018546048 -0.0014735847 -0.0037474951 0.00022788465
000140 8a 19 e4 3a 9f f3 c2 3a 83 95 23 3b f7 67 84 3a
       0.0017402631 0.001487363 0.0024960942 0.0010101785
000150 d6 90 88 bb 2e 3b 9e 3a 5c 4f 82 3a b2 23 2b ba
       -0.0041676564 0.001207208 0.0009941864 -0.00065284513
000160 92 bd 03 3a dd 2c e5 38 44 ba 07 3b 7b fd 69 ba
       0.00050255016 0.00010927927 0.0020710388 -0.0008926016
000170 86 83 64 ba d4 33 9a b8 54 72 e5 ba f3 53 2a 3b
       -0.0008717108 -7.352946e-05 -0.0017505386 0.002598998
000180 16 4d d2 3a a1 72 86 ba c2 e9 2c bb 18 7c cc 37
       0.0016044702 -0.0010257551 -0.0026384448 2.437648e-05
000190 9c 91 44 3b c1 b9 79 3b 30 74 42 39 7c 52 37 39
       0.0029994017 0.0038105103 0.00018544565 0.00017482968
0001a0 5f 47 74 3b e6 99 79 ba fd 3c 30 bb 76 e1 08 b9
       0.0037273986 -0.0009521529 -0.002689182 -0.00013053961
0001b0 d8 2b 3f bb 8b 61 a5 3a 71 8d 08 bb fd 22 29 3a
       -0.002917042 0.0012617571 -0.0020836259 0.0006452052
0001c0 a6 4e d7 3a 6e d4 9e 39 8a 3b 01 3b ce 53 05 bb
       0.0016426637 0.0003029438 0.0019719326 -0.002034414
0001d0 8e 4a 80 bb 9c ba ae 3a 34 cc cd b9 1c bd 92 bb
       -0.0039151376 0.001333076 -0.0003925279 -0.00447811
0001e0 ad 2b 89 ba 68 99 d0 3a fc 0b ff 38 1c a8 dc 3a
       -0.0010465287 0.0015914859 0.0001216158 0.0016834768
0001f0 1b f2 2e 3b ec 26 77 39 c4 d8 80 3a c3 44 3d ba
       0.00266946 0.00023570255 0.0009830226 -0.0007220024
000200 d9 2e d4 3d 62 f6 88 3d a6 a8 7f be 67 f5 c5 bb
       0.10360498 0.06687619 -0.24966678 -0.006041217
000210 f5 72 b6 bd 98 2a 96 3e b2 ca 78 be 97 2a 6f 3d
       -0.08908645 0.2932937 -0.24296072 0.058390226
000220 5f c7 1f be 0b 9a b6 bd f1 2b 57 be 84 af 9a be
       -0.15603398 -0.089161 -0.21012856 -0.30212033
000230 7d 24 fa be a0 d7 f0 bd 11 d8 76 3d 3f ef 7f be
       -0.48855963 -0.11759877 0.06026465 -0.24993609
000240 d5 42 72 3e d4 a3 c3 3e 28 42 b3 bd 1f 9b 4e 3d
       0.23658307 0.38210928 -0.08752853 0.050440904
000250 bf 2b b5 bc 3d 16 41 bd 9d 57 6b 3e 78 1d b7 3d
       -0.022115586 -0.04714035 0.2298264 0.089411676
000260 13 04 4b 3e 66 f2 aa bc 8e 04 da bd 2f a6 13 be
       0.19825773 -0.020867538 -0.106454 -0.14418863
000270 f4 16 1d be b9 18 61 3e de 59 ea bc 09 85 8e bd
       -0.15340787 0.21982087 -0.028607305 -0.06958968
000280 07 fa 3f be d7 ee cc 3b 24 75 79 be 52 5a a1 3d
       -0.18747722 0.006254058 -0.24361092 0.07878555
000290 d5 95 78 3e df 65 94 bd 60 75 08 be af 19 f9 3c
       0.24275906 -0.07245993 -0.13326025 0.030407755
0002a0 22 ab 96 be 88 26 50 3e 6e 62 47 3b 75 38 17 3f
       -0.2942744 0.20327199 0.003042366 0.5907052
0002b0 40 d2 da 3d e8 0b 26 3e 80 8e fa 3d 46 b5 83 be
       0.10684633 0.1621548 0.12234211 -0.25724238
0002c0 d2 2d 48 3d 81 8c 8c be 44 1e e5 3d 4b cb 26 be
       0.048871823 -0.27450946 0.11187413 -0.16288488
0002d0 a5 d4 38 3e 4c 5c 02 be 83 65 17 3c a7 de 0d 3e
       0.18049867 -0.12730521 0.009240511 0.13854466
0002e0 16 f2 69 3e 1f 1b 5d bd d2 1d 4c be 80 da f5 3c
       0.22846255 -0.053980943 -0.1993325 0.030011415
0002f0 ce 4c 81 3e 90 0d f0 bd 9a de ed 3e 2e 69 bf 3e
       0.2525391 -0.11721337 0.46458894 0.37384933
000300 ba a7 be 3e a6 ff a1 3e 29 84 6d bd 16 09 fa 3c
       0.3723734 0.31640357 -0.057987366 0.03052191
000310 7d 03 03 be 24 db 56 bc ce 85 de 3d 9c 14 b3 3d
       -0.127943 -0.013113771 0.10865365 0.08744165
000320 ec c0 e9 3b ba ca 25 bd 08 cc 2b bd 2f 75 a0 3e
       0.007133594 -0.04047654 -0.041942626 0.31339404
000330 47 58 59 bf 8c 89 e5 be f9 cc 75 bd 1f 6f 47 bd
       -0.84900326 -0.44831502 -0.06000993 -0.048689958
000340 40 8b 06 3f 64 bc 46 3e 37 6e f0 3b 45 68 6c bd
       0.5255623 0.19407803 0.0073373574 -0.057716627
000350 e2 9e c6 3d 70 ab e7 bd 57 1c 6e 3d 26 df a3 3e
       0.09698273 -0.11311996 0.058132496 0.32006186
000360 be 71 27 bd d0 46 df 3b 23 a9 69 3e 70 76 2a be
       -0.040879957 0.0068138614 0.22818427 -0.16646743
000370 a1 8c 8b bc cb 7e bf bd e9 f8 0e 3e 79 d0 ae bd
       -0.01703483 -0.09350356 0.13962139 -0.08535857
000380 78 ab 5c bd ff ef 89 3e 3c ca 3a 3e 93 28 27 bd
       -0.053874463 0.26940915 0.18241209 -0.04081018
000390 cb cc ae 3d 6a 4e 60 bd af 5b 54 3d a6 3c 54 be
       0.08535155 -0.05476228 0.05184525 -0.2072626
0003a0 ee fd d2 bc 0b 75 f8 3d 34 b0 a0 be 77 c1 e3 bd
       -0.025755849 0.12131699 -0.31384432 -0.11120885
0003b0 7c de 8c bd 66 dc 91 3d 03 56 2a 3f c9 46 c3 3e
       -0.06878373 0.07122116 0.66537493 0.38139942
0003c0 cf ac b0 bd d1 d2 4f 3e c2 90 67 be 7b a2 23 3d
       -0.086267106 0.20295264 -0.22613814 0.039949875
0003d0 73 90 af 3d 76 cb f3 bc 96 5b 83 be 32 f7 58 be
       0.085724734 -0.029760104 -0.25655812 -0.21188048
0003e0 19 8e d1 bd 1e 0d b1 be 4d e8 97 3e 4e 1a 9b 3e
       -0.10232181 -0.3458032 0.2966942 0.30293506
0003f0 53 49 99 be 72 a6 30 3d 04 e7 21 3d 62 9e e0 3d
       -0.29938754 0.043127485 0.039526954 0.10967709

_problem._r1._patch_embedding.0.weight f4 [128, 1, 7, 7]
000000 8a 44 c7 3c 14 71 02 be dd 1a f6 3d 25 47 18 bd
       0.024324674 -0.12738448 0.120168425 -0.037177224
000010 25 b2 35 3d 3b 52 2a 3c fe e4 9b bc f5 41 1b bc
       0.044359345 0.010395582 -0.01903009 -0.009476175
000020 ac 28 fc 3d 3a d2 fb bd 8d f6 e1 3d 98 5c 34 3d
       0.12312445 -0.12295957 0.11033354 0.044033617
000030 f5 f5 c1 bc 40 61 2c bd 76 4b ec bd dc cd e7 3d
       -0.023676852 -0.042084932 -0.115378305 0.113185614
000040 fc 85 16 be 0e 66 9a 3d 53 a4 04 3d dd 12 ca 3d
       -0.14699548 0.07538997 0.032383274 0.09866879
000050 3e 31 c8 3c 90 cc 08 bc 35 66 fb bc 92 47 57 bd
       0.024437543 -0.008349553 -0.030688385 -0.05255849
000060 b6 75 79 3c 26 1a b0 3d 42 e8 20 be 6a 5c 74 3b
       0.015225818 0.085987374 -0.157136 0.0037286528
000070 67 a8 05 3d 1b 1e e3 bd a9 ec 56 3d 37 2c 41 3b
       0.032631304 -0.110897265 0.05247179 0.0029475817
000080 e6 04 ef bc ac e3 be 3d ed 5c 38 bd 66 78 16 3c
       -0.02917714 0.09320769 -0.045010496 0.009183979
000090 bc d4 5f 3d c0 40 15 3d cb 21 78 3d 12 81 9e bd
       0.05464624 0.036438704 0.060579102 -0.07739462
0000a0 14 a8 c3 3d 0a b8 2c 3a 4a da 11 3e 5f 7a 95 bc
       0.09553543 0.0006588703 0.14243427 -0.018246828
0000b0 06 28 07 be 0e 01 1b 3d b8 be b5 bd 2e df 93 3d
       -0.13198861 0.037842803 -0.08874267 0.072203025
0000c0 58 8b bd bd 9f 9a cc 3c e1 50 02 3d 55 0c 82 3d
       -0.09255093 0.024976073 0.031815413 0.063500084
0000d0 13 72 00 3e a1 9c 95 bd 39 8c e9 bc 6f f7 3c bd
       0.12543516 -0.07305265 -0.028509246 -0.04613441
0000e0 a4 71 25 3d 02 f4 d7 3d 2c 3f 21 bd 15 72 67 3d
       0.04039158 0.10544588 -0.039366886 0.05650528
0000f0 8d d3 34 bd 37 2d 80 3c 0d 74 06 be 97 2e 88 bd
       -0.044147063 0.01564656 -0.13130207 -0.06649511
000100 4d 3d ba bd 3f 03 8f 3d fa 8d b1 bc 6e 61 82 3c
       -0.090937234 0.06983041 -0.021674145 0.015915599
000110 4d 7c 67 3d 4f dd 19 be e0 92 72 3d 18 80 20 3c
       0.056515027 -0.15025829 0.059222102 0.009796165
000120 79 3b be bd 00 46 98 3b d4 ee b2 3d 09 34 3a bd
       -0.09288687 0.0046470165 0.08736959 -0.04545978
000130 8c a7 67 bc d3 63 1e 3e cb 3e 7e 3d a5 21 b2 3d
       -0.014139067 0.15467767 0.062071603 0.086978234
000140 53 2b 95 3b db a1 ab 3d 29 af 46 bd d3 fb 74 bd
       0.004552284 0.08380481 -0.04850689 -0.05981047
000150 8c 83 e0 bd 18 58 a4 3d 4b 92 97 3d 25 d0 fd bd
       -0.109625906 0.08024615 0.0740095 -0.12393216
000160 c9 fc a2 3d 97 4b 9e 3d 83 6b e4 3d 3e d3 41 be
       0.07958371 0.07729261 0.11153319 -0.18928239
000170 20 54 8d 3d f3 ef d7 bd be f4 db bd 7d d9 fa 3d
       0.06900811 -0.105438136 -0.1074004 0.12248514
000180 8a 38 cb bd 94 3a 0b 3d 72 bc 09 bd 6a 23 3f 3d
       -0.09922893 0.03399141 -0.03362698 0.046664633
000190 50 99 c6 bd 5b 03 43 bd 4c d4 5e bd 50 12 89 bd
       -0.09697211 -0.047610622 -0.05440168 -0.06692946
0001a0 59 c2 95 3d 3d 4a bf 3d 87 31 a6 3c 6a bf e2 bc
       0.073124595 0.09340332 0.020287288 -0.027679164
0001b0 70 65 ec 3d 3c 30 06 bd 13 89 04 3e f6 f8 13 bd
       0.11542785 -0.032760844 0.12942915 -0.0361261
0001c0 7c 1e 0f be 1c 00 b5 bd 8c 3c 84 3d b4 0f 54 3d
       -0.13976473 -0.088379115 0.06456861 0.05177279
0001d0 b5 6d a7 bd 90 65 28 3d 99 c0 21 bd 6c f9 d9 3d
       -0.08175222 0.041112483 -0.039490316 0.106432766
0001e0 2e 94 49 bd 76 8c fa bb ce 02 ff bd 9a 98 fe bd
       -0.04921358 -0.007646139 -0.12451707 -0.1243145
0001f0 43 80 89 bd b9 35 9f bd 70 f5 2f be d2 01 bb 3c
       -0.06713917 -0.07773919 -0.1718347 0.022828016
000200 bf bd 93 bd 9b c3 6b bd ba 01 e5 bd 15 50 88 bc
       -0.072139256 -0.05755959 -0.1118197 -0.016639749
000210 54 0d fc bb 93 1b 43 be 63 34 95 3d e8 b0 70 3c
       -0.0076920185 -0.19053487 0.072853826 0.014690615
000220 f3 46 cb bd 31 e7 c5 bd 42 9e bd bd cd 5e 9d 3d
       -0.09925642 -0.09663237 -0.09258701 0.076840974
000230 b2 f1 e1 bd 99 22 05 be 04 7a e9 bd 70 d6 de 3d
       -0.11032428 -0.13001479 -0.11400226 0.108807445
000240 8d 88 99 bc e8 71 5a 3d dc 4c f5 bd 21 19 1f 3c
       -0.01874187 0.053331286 -0.119775504 0.009710581
000250 0b a8 3a bd ad 42 28 bc b8 98 4f 3c 0f 5a 92 3d
       -0.045570415 -0.010269803 0.012670688 0.071460836
000260 c0 63 70 bd 7d 73 92 bd a3 37 2f bd 1c f0 04 3d
       -0.05868888 -0.07150934 -0.04277767 0.03245555
000270 66 3a 5e bd db 18 eb 3d 64 09 88 3d 46 78 3f bd
       -0.05425491 0.1147935 0.06642416 -0.04674556
000280 13 c0 08 3d 57 cf 91 3c 56 ac fa 3b b6 a9 41 3d
       0.0333863 0.017799063 0.0076499386 0.04728099
000290 6b ae 1d 3e 7d 5b 4d bd 1b e1 bb 3d 6e 80 27 3b
       0.15398566 -0.05013608 0.09173795 0.0025558728
0002a0 78 07 ef bd 35 06 13 be 95 d2 35 be 50 2c 2e be
       -0.116713464 -0.14357837 -0.17756112 -0.17009091
0002b0 dd d4 f7 bd 67 d7 c7 3d 78 b3 2d be 43 cb 43 3d
       -0.12101147 0.097578816 -0.16962993 0.047801267
0002c0 3b 34 f2 3d 63 4f 0c 3e 67 19 88 3d ce 65 b3 bd
       0.118263684 0.13702159 0.0664547 -0.08759652
0002d0 1c ed 34 ba 3e f0 b2 bd 41 0c 15 3e 6f 3a 05 bb
       -0.0006901787 -0.08737229 0.14555456 -0.0020329019
0002e0 bd 42 4c bd b5 06 9b 3d 09 34 42 3e 7a 4c c2 3d
       -0.049868334 0.07569639 0.18965162 0.09487243
0002f0 e9 67 a8 3d 14 a2 f8 3d 34 10 fb 3c 7d 38 0a be
       0.08222944 0.12140289 0.030647375 -0.13498111
000300 d4 27 b7 bc 1d 9f 09 bd be 0f a0 bd 50 01 bf bd
       -0.022357859 -0.033599008 -0.078155026 -0.09326422
000310 c9 72 09 be 96 9f 0b be fe ac 7d bc 95 ed 9c 3d
       -0.13422693 -0.13635096 -0.015483139 0.07662503
000320 ca 02 9d bd d4 9a 50 bd c8 cb 45 3e d3 e2 6d bd
       -0.076665476 -0.050928906 0.19316018 -0.058077645
000330 5f 2b 87 3d 72 c1 76 3d ae 2d 42 3c 31 f5 b0 bc
       0.06600069 0.060243078 0.011851711 -0.021601291
000340 8f 2a f9 bc a4 e4 8b 3c 84 95 17 be 1d a7 28 bb
       -0.030415801 0.017076798 -0.1480313 -0.0025734373
000350 42 96 4c 3d 6c 55 1c bd dc ec 78 bd 3d 39 3f bc
       0.049947985 -0.038167402 -0.06077276 -0.0116713615
000360 6b c6 a6 3c 66 e0 24 be a3 44 ce bd 99 fc e1 3c
       0.020358285 -0.16101226 -0.10071685 0.027586268
000370 a0 fe 0c be fc dd b5 ba 33 ba 23 bd c8 85 cb bb
       -0.13769007 -0.0013875361 -0.039972495 -0.0062110163
000380 a8 99 09 3e d5 0c 83 3a e7 33 5c 3b ae 80 e4 3d
       0.13437521 0.0009998331 0.0033600272 0.11157356
000390 f7 06 f2 3d d7 35 7c bd 10 85 cc bd 0f e5 0d 3e
       0.11817735 -0.061574783 -0.09986317 0.1385691
0003a0 e3 4f 42 bc d6 2a 9e 3d 72 3f a0 bd e2 24 76 bd
       -0.011859867 0.07723014 -0.07824601 -0.060093768
0003b0 51 26 c2 bc 26 52 d3 3c 71 b6 27 3e 04 2e 20 bd
       -0.023699911 0.025796007 0.1637819 -0.039106384
0003c0 f4 cc ab 3d e7 be 6f bd e0 eb 09 3e c1 e0 e1 bd
       0.08388701 -0.058531668 0.13468885 -0.110291965
0003d0 a6 24 31 bd 6d d6 6a bc 1e 7c 22 bd 12 72 6a bd
       -0.04324784 -0.01433335 -0.03966915 -0.057237692
0003e0 75 6c 5d bc 62 d2 10 be 4f 52 0e bd df 30 55 3d
       -0.013514628 -0.14142755 -0.034746464 0.05204856
0003f0 1d 13 65 3c d6 d8 2f 3d 2b a8 9a ba 1e 5f 0a 3d
       0.013981608 0.0429314 -0.0011799386 0.033782117

_problem._r1._patch_embedding.0.bias f4 [128]
000000 42 0b d4 3c ef c8 d0 3c e5 5d 2d be 4b 36 7b 3d
       0.025884274 0.025486438 -0.16930349 0.061331075
000010 37 5c 6d bd 55 d4 29 3e 92 cb 91 bb 1e 75 a1 bb
       -0.05794927 0.16584904 -0.0044493163 -0.0049272915
000020 dd 38 8b bc 60 47 95 3d f8 74 2f be a7 71 5b bd
       -0.016994888 0.07289004 -0.17134464 -0.053575184
000030 98 86 c7 bc 6e 35 d5 bd 67 2f ce bd 72 3e 1d bd
       -0.024356171 -0.104105815 -0.10067635 -0.03838963
000040 e0 e2 6f 3d 5c 06 36 3d a4 25 f5 bc de de 7d 3d
       0.058565974 0.04443966 -0.029925175 0.06198012
000050 03 15 d1 3a 08 b5 bc bd 79 de 0b 3e a8 61 07 3d
       0.0015951697 -0.092142165 0.13659085 0.033052117
000060 d9 16 00 3d 64 51 67 bd 3c 2c 30 3d 7b a0 bd bc
       0.03127179 -0.056474105 0.043010935 -0.023147812
000070 66 40 b6 bd 51 ab 1c bd 7b 3e f0 bc 3e e3 61 3d
       -0.08899002 -0.038249318 -0.029326668 0.055148356
000080 d1 7c 71 3d 5d df 0f bd 22 b3 86 bd 7f 9c 98 3d
       0.058956925 -0.035125125 -0.065771356 0.07451724
000090 e5 33 19 bd 64 5e aa 3a a6 1c fd bb 79 c8 b5 bd
       -0.037403006 0.0012998101 -0.0077243624 -0.08876128
0000a0 a3 ce 79 bd 75 a6 e3 3d fb 5e e5 3d c2 5a 41 bc
       -0.06098808 0.111157335 0.11199757 -0.0118014235
0000b0 44 95 08 3e d8 ac 22 3c ee 77 19 3d 15 06 ec bb
       0.1333819 0.0099289045 0.03746789 -0.0072028735
0000c0 6c 8b 9e bd 84 94 0e be b1 d2 9e 3d 86 cb 4d bd
       -0.07741436 -0.13923842 0.0775503 -0.050242923
0000d0 0e 40 14 3e cb ac c7 bd 94 ea 34 3c cc e1 16 3e
       0.1447756 -0.097497545 0.011042256 0.14734572
0000e0 22 de ea 3c b3 e3 73 bd 90 6d b9 bd 79 dd c2 bd
       0.028670374 -0.059543323 -0.090541005 -0.09514899
0000f0 a0 5f c5 bd f0 da a9 bc 0f 09 a8 3c 61 cd 1d 3c
       -0.0963738 -0.02073428 0.020512132 0.009631486
000100 92 85 8e 3d 78 75 e0 3d 9a 8d 84 bd e9 f7 19 bd
       0.0695907 0.109599054 -0.06472321 -0.03758994
000110 75 2c 76 bd bf d9 8c bd 94 ba 07 be 94 3a 28 3d
       -0.06010099 -0.06877469 -0.13254768 0.04107149
000120 47 23 d1 3d 87 d1 0c be da 24 d8 3b 13 05 1f 3e
       0.10211807 -0.13751803 0.00659619 0.1552928
000130 30 50 a4 bb 9d c7 e4 bc 7c 26 9d bd 8f 50 96 bd
       -0.005014442 -0.027927214 -0.07673356 -0.07339584
000140 1b 9d a8 3c 29 4a ed 3d dd bb 87 3d 88 f6 78 3d
       0.020582726 0.115864106 0.06627629 0.060781986
000150 2c 5e a5 3d 83 4c 5c 3a 33 6b e9 bd 77 d6 cc 3d
       0.080746025 0.0008403735 -0.113974 0.100018434
000160 6e 05 ad bd a7 23 29 3c 10 8c c1 3d c2 91 b0 bd
       -0.08448301 0.010323442 0.09450543 -0.08621551
000170 6b 6d 7d bd 98 9c ce bc e7 7a 88 bd ba 08 1b bc
       -0.061871927 -0.025221154 -0.06664067 -0.00946253
000180 ff 68 96 bd 3a 96 a8 bc 32 ac a2 bd 99 8d 8a 3d
       -0.07344245 -0.020579446 -0.07943 0.06765289
000190 46 fe c1 bd f3 5f 2c 3d 33 89 3d bd 4c 07 08 be
       -0.09472327 0.04208369 -0.04627342 -0.13284034
0001a0 3b 29 01 3d 9c cc 4e 3a 47 0c 4c be 43 01 a0 bc
       0.03153346 0.00078887655 -0.19926558 -0.019531852
0001b0 8c b9 70 bd d3 87 65 bc b6 f2 93 3d 44 d1 8e 3d
       -0.0587707 -0.014009434 0.07224028 0.06973508
0001c0 73 d1 62 bd 19 74 c2 3d 32 5c 45 3c 42 a2 a3 3d
       -0.055375528 0.094948 0.012045907 0.079899326
0001d0 37 2d b8 3d b1 71 ab 3b ab e4 30 bd 73 87 a7 bc
       0.08992999 0.005232059 -0.043186825 -0.02045033
0001e0 9c 98 ba bd 65 5d bc bd 85 76 a4 3d 63 1a 92 3d
       -0.09111139 -0.09197501 0.08030418 0.07133939
0001f0 bc b0 49 bd 05 2d 61 bd 07 3a 18 3e 54 b4 9b 3d
       -0.049240813 -0.054974575 0.14865886 0.07602754

_problem._r1._attn.in_proj_weight f4 [384, 128]
000000 af 73 75 bd 61 d0 13 3d cf 39 01 be 53 e5 9a bd
       -0.059924778 0.036087397 -0.12619708 -0.075632714
000010 e0 e9 ab 3c 2f d8 95 3d 33 ad 3e 3c 5c 7b ed 3c
       0.020985544 0.073166244 0.011637974 0.028989486
000020 d3 c0 12 bd e9 00 89 3d 5f 02 ac bd 8d ed e9 ba
       -0.035828423 0.06689627 -0.0839889 -0.0017847285
000030 81 58 8d 3d 5d 0f 2c bd 0b 64 5f 3d c0 f4 dd 3d
       0.069016464 -0.04200684 0.054538768 0.10837698
000040 12 56 af bc 18 1b 54 bd 8d 64 7a bd 72 85 3d 3d
       -0.021403346 -0.05178365 -0.06113105 0.04626984
000050 b9 c3 af bd ea 23 81 bc 32 fa f9 3b dd d0 49 3c
       -0.08582253 -0.015764195 0.0076287026 0.012317863
000060 94 97 aa bd 10 e3 36 3d 5c f0 02 bb 5d a3 d2 bc
       -0.083296925 0.044650137 -0.001997969 -0.025712663
000070 80 b2 2d bb 62 78 73 3d e6 0f 30 bd 21 32 15 3e
       -0.00265041 0.059440978 -0.042983912 0.14569904
000080 23 03 9a 3b fc 18 a3 3d 2d 3a 80 3d d6 69 f2 bd
       0.004700081 0.0796375 0.06261096 -0.11836593
000090 5f 1a d9 3c 1f 8b 03 bd 25 4d 36 bd 89 04 9c bd
       0.026501833 -0.032115098 -0.044507165 -0.076180525
0000a0 05 f3 d0 bd 66 2d 07 bd 40 9b 8b bd 65 ba 32 bd
       -0.10202602 -0.03300228 -0.06816721 -0.04363479
0000b0 c9 40 73 bc d9 78 01 bd 04 61 29 bc 29 01 b8 3a
       -0.014846989 -0.03160939 -0.010338072 0.0014038432
0000c0 44 0a a2 bd fe 18 91 3d 42 ee 17 ba 37 eb 41 bd
       -0.07912114 0.07084845 -0.0005795696 -0.04734346
0000d0 72 f9 88 bd 03 7e 9d bd 06 39 88 bd 3f 44 dc 3d
       -0.06688203 -0.076900505 -0.06651501 0.107552044
0000e0 0a 8e 73 3d 41 91 87 3d 5d 40 4f 3d d6 54 89 bc
       0.05946163 0.06619502 0.05059849 -0.016764086
0000f0 f9 b8 d7 bd d5 fe 70 3d 91 94 15 bd cb e5 85 bc
       -0.105333276 0.058836777 -0.036518637 -0.016344925
000100 28 d2 63 bd 49 fc 3a bd 71 42 13 bd bd e0 80 bd
       -0.055620342 -0.045650754 -0.035952035 -0.062928654
000110 6f 0d 50 3c 16 10 7c bd 88 7a 55 3b 6a 1b 05 3d
       0.012698515 -0.06153878 0.0032574255 0.032496847
000120 e7 81 40 3d 37 b3 5b bd 38 e4 8d 3c 2b f9 87 3d
       0.046998885 -0.05363771 0.017320737 0.06639322
000130 2c 9f e9 bc 2e 46 95 3c 54 56 d1 3c 69 b3 e6 bc
       -0.028518282 0.01822194 0.02555386 -0.028161721
000140 c2 b1 01 bd 20 8e 68 bc fd 5e 1a 3d 05 51 c4 bb
       -0.031663664 -0.0141940415 0.037688244 -0.0059911036
000150 7b d7 6c bd 86 fe 96 bd 15 93 ae bc 05 3e 02 bc
       -0.057822686 -0.07372765 -0.021310369 -0.007949357
000160 3e b7 da 3c 7f af a2 3d b5 a3 09 bd 84 be e6 3b
       0.026698705 0.079436295 -0.03360339 0.007041754
000170 cd e3 cd bb 08 eb 45 bd f8 b7 8f bd cb 86 71 bd
       -0.0062832595 -0.048319846 -0.07017511 -0.05896644
000180 b9 47 4e bc 85 13 78 3d 24 b0 5c 3c 21 77 95 bd
       -0.012590342 0.06056549 0.01346973 -0.07298113
000190 4b bc 94 3c 11 f0 07 bd e6 2a 2b bd 77 d8 87 3c
       0.018156191 -0.03318793 -0.041788958 0.01658271
0001a0 c8 6b 38 bd 36 58 38 bc d5 f7 c5 bd 70 37 16 3d
       -0.045024663 -0.0112515 -0.09666411 0.036673963
0001b0 6c c1 e9 bd b4 f2 8e 3d 9c fb e3 3d 47 b1 59 3c
       -0.114138454 0.06979886 0.11131975 0.013286895
0001c0 7a 29 75 bd ee 92 d1 3d fb 88 77 bc d6 fb 0b bd
       -0.05985401 0.10233103 -0.015108342 -0.034175716
0001d0 0b 5e 43 bc 5b d2 77 ba 9e 79 40 bd 70 88 d8 3c
       -0.011924277 -0.00094536477 -0.046990983 0.026432246
0001e0 eb 95 00 3d e0 34 e5 3d 61 c1 b9 bd 04 32 3e 3d
       0.031392973 0.11191726 -0.09070087 0.046434417
0001f0 be ab 19 3d 32 6f 26 3d 7e f3 db 3d 0c 3d 8a 3c
       0.0375173 0.040633388 0.10739802 0.016874813
000200 e7 0b 76 3c 0e 6a 7e 3d f5 9c eb bc a2 97 c9 3d
       0.015017486 0.06211286 -0.028761366 0.09843375
000210 55 3a 66 bd 7a e0 0e bd 45 9b 47 3d 7a 45 1f 3d
       -0.056207974 -0.034882046 0.04873206 0.038884617
000220 60 fd f0 bd ff 6b f4 bb ea 85 91 3d fb 0e 8c bd
       -0.117670774 -0.007459163 0.0710562 -0.06838795
000230 3d 9e 71 bc db 28 15 bd 27 6c 0e 3d 8b 18 de 3d
       -0.0147472 -0.036415916 0.03477111 0.10844525
000240 1c 1b f7 bd 30 9d 3d 3d e2 20 06 bd 71 0b 9f bc
       -0.120657176 0.046292484 -0.032746203 -0.019414635
000250 d7 48 2f bc 9f 3f 99 bd e5 af cb 3c 98 d6 f0 bb
       -0.010698519 -0.07482838 0.024864146 -0.0073498003
000260 06 b2 f1 bc 6f 01 54 3d 08 1e c1 bb c9 af 5c 3d
       -0.029503834 0.05175918 -0.0058934726 0.05387858
000270 aa f4 9c 3b 95 77 24 bc 55 27 57 bd d0 26 85 3d
       0.0047899084 -0.010038276 -0.052527744 0.065015435
000280 f5 bd 0e 3d d8 2f 11 3d b6 7d f6 bc 9d c5 62 bd
       0.034849126 0.035446018 -0.03008924 -0.05536424
000290 4a b6 9f bc 3d 78 31 3d 57 42 18 3d ac 5f ed b9
       -0.019496102 0.04332756 0.03717264 -0.00045275444
0002a0 ef 68 14 bd 7c 27 ce 3b e8 30 97 3d 06 ec 80 bd
       -0.036232885 0.006291328 0.07382375 -0.06295018
0002b0 e2 06 96 bd bb b6 b0 bd f0 0d 38 bd 29 32 ad bd
       -0.073255315 -0.08628603 -0.044935167 -0.08456833
0002c0 5d 7c 21 3d 82 7e 35 3d 65 3e ad bd bd 43 61 bd
       0.039425243 0.0443101 -0.084591664 -0.05499624
0002d0 63 ac 85 bb 83 c2 5e 3d f7 e4 3c 3d b5 5a 8a 3d
       -0.004079388 0.05438472 0.046116795 0.06755582
0002e0 08 b0 e1 bc 2d 9d a6 3d 13 ae f9 3c 1c 90 6a 3c
       -0.027549759 0.08135448 0.030478513 0.014316585
0002f0 0b e2 c3 bb 75 c5 9d 3b 16 69 9e 3d 1e 74 d4 3d
       -0.005977874 0.0048147985 0.07734887 0.1037371
000300 b9 94 3b 3d 54 d4 b9 3d fd a8 7d bd c1 87 de 3a
       0.04579613 0.090737015 -0.061928738 0.0016977714
000310 77 66 3c bd 84 3e bc 3d 96 b8 62 bd c6 51 72 3d
       -0.045996156 0.091916114 -0.055351816 0.059160016
000320 bf 0e 8e bc 67 e0 c4 3b 86 c9 a3 bc 8f 92 0f bd
       -0.017341016 0.006008196 -0.019993555 -0.03505188
000330 f7 5d 08 3d 85 94 e3 3c 89 43 40 bd 25 07 14 bd
       0.033292737 0.02778078 -0.046939407 -0.036139626
000340 3b cf ad 3d 97 e7 c5 3d 21 e3 5d 3c 07 f3 ce bc
       0.08486792 0.09663313 0.013542921 -0.025262369
000350 da a9 e7 3c 94 74 94 bd 77 7d 8b ba c3 e3 f1 3c
       0.028279234 -0.07248798 -0.001064225 0.02952755
000360 dc 8c b1 3c 5a 57 83 bb 83 5a 5f bd d9 59 58 bd
       0.021673612 -0.004008216 -0.054529678 -0.05282006
000370 16 56 84 bd 6b c3 9a bd c7 7f ab bc 79 f1 c3 3d
       -0.06461732 -0.07556804 -0.020934952 0.09567542
000380 94 40 66 bc 1d e9 20 3b c2 6e 24 bd 50 27 12 3d
       -0.014053483 0.002455301 -0.04014469 0.035682023
000390 cf 81 c4 bc 7a c3 26 bd 0f 66 ab 3d cd 66 fe 3d
       -0.023987679 -0.040713765 0.083690755 0.124219514
0003a0 e8 ea b4 bb dc 74 b4 3d d6 d8 05 3d e3 70 b3 3d
       -0.005521167 0.08811352 0.032677494 0.08761766
0003b0 88 dd be 3b 33 25 94 3d 15 78 39 3d 2f 24 67 bd
       0.0058247484 0.07233658 0.045280535 -0.05643099
0003c0 1e a6 19 3b 7f d2 22 3b 36 88 6b bd 75 b3 3d 3c
       0.002344496 0.0024844704 -0.057502948 0.01157843
0003d0 fb 75 47 bc ed 7d 42 3c ad 2e 97 bd 22 34 d4 3c
       -0.012174125 0.011870843 -0.073819496 0.025903765
0003e0 d8 2c 97 3d c8 de a9 bd 19 d6 b8 3c 1b 02 26 bd
       0.073816 -0.08294445 0.022563027 -0.04052935
0003f0 7a 7d 5b 3d 66 54 a5 bc d4 3f 98 bd ad 1d 8d 3d
       0.05358646 -0.020181846 -0.07434049 0.06890426

_problem._r1._attn.in_proj_bias f4 [384]
000000 7e bc 32 bd d8 06 80 3d 3b f1 c5 3b 14 f4 92 3c
       -0.04363679 0.06251305 0.00604072 0.017938651
000010 08 55 55 3b ff ff 99 3a 91 a6 b1 3b 66 24 57 bb
       0.0032551903 0.0011749266 0.0054214676 -0.0032828092
000020 74 4b 9e bb 98 a0 41 3b 8e 9d 84 bb 30 83 a7 ba
       -0.004830772 0.0029545184 -0.0040471023 -0.0012780186
000030 15 88 2f bd 02 f9 63 3b 03 a3 f4 bc 0d 2d 1f 3d
       -0.042854387 0.0034785871 -0.029862886 0.038861323
000040 c0 cb b6 3b fa 46 2c 3b ff 3d 01 3d 64 86 29 3b
       0.005578488 0.0026287423 0.031553265 0.0025867457
000050 5a 8c 05 39 c7 ff 64 3b c3 15 98 bd a0 51 0a 3d
       0.00012736153 0.0034942494 -0.07426026 0.03376925
000060 07 a8 a1 3c 50 a8 05 3b 99 e8 8d 3d ec ba 34 3d
       0.019733442 0.0020394512 0.0692913 0.044123575
000070 99 4b a4 3d 93 95 e4 bb be b7 40 bb 99 26 3f 3b
       0.080222316 -0.0069758384 -0.0029406394 0.0029167293
000080 77 df 0a 3b f0 c4 bc 3d 67 f1 ee ba ff a5 04 bc
       0.0021190324 0.0921725 -0.0018229902 -0.008096217
000090 1a b4 35 3c 4f 61 f2 bb 7f 50 ec 3a b9 3e 0f 3e
       0.011090303 -0.007396854 0.0018029361 0.1398877
0000a0 67 4b b2 bd 1d c4 be bc e3 72 c9 3d a5 2a 88 bd
       -0.08705788 -0.023286873 0.09836366 -0.06648759
0000b0 84 a1 f2 ba 41 22 a7 bd 8d d7 81 ba 7d 92 34 3d
       -0.001851127 -0.0816083 -0.0009906158 0.044085015
0000c0 ae 8a 05 3b 36 72 b6 3d d5 e5 f9 ba 27 84 9c 3d
       0.002037685 0.08908503 -0.0019065688 0.076423936
0000d0 d7 a3 96 3b c7 2a 2c bb e2 ae 17 bb ff 9b ce bd
       0.004597168 -0.0026270614 -0.002314501 -0.10088348
0000e0 c9 26 f2 3c eb 1c d8 3a 67 a0 cd 3a d8 fb 77 3a
       0.02955951 0.001648811 0.0015688062 0.000945983
0000f0 31 cc 9d bb 36 ec 7f 3a 35 f0 7a 3a a0 d4 a6 bd
       -0.0048156013 0.0009762676 0.0009572537 -0.08146024
000100 51 78 bc ba b0 f0 c9 3a ef 55 38 bb 5d 1a 1d 3c
       -0.0014379119 0.0015406813 -0.0028127392 0.009588805
000110 c4 c3 3f bb 99 cb c8 39 0d 93 82 bb a8 71 87 3d
       -0.0029260973 0.00038298665 -0.003984815 0.06613475
000120 41 67 af ba e0 92 09 3e bc 12 1d 3b 42 c2 f6 3a
       -0.0013382212 0.13434935 0.0023967465 0.0018826204
000130 6d 34 6f 3d 3d 25 3c 3b c6 a8 5c ba 78 7f 8b 3a
       0.058399606 0.002870872 -0.0008417483 0.0010642847
000140 66 15 d8 bd 9f cd 95 bd 7b 4f a7 3d d7 21 43 3b
       -0.105509564 -0.0731461 0.081694566 0.0029774809
000150 72 66 ae ba f4 c8 83 ba bb fd dd 3c 13 b6 2a 3d
       -0.0013305678 -0.0010054396 0.027098527 0.041677546
000160 ff 54 ee bd 18 7e 74 3d 6c e7 1b 3d f7 b8 a5 3b
       -0.116373055 0.059690565 0.038062498 0.00505745
000170 2e 8e e3 3d 10 5a 34 bd df eb 53 3c 09 2e 33 bd
       0.11111103 -0.044031203 0.012934654 -0.043745074
000180 78 1f 06 be ac bc 8a 3b 63 24 5c bb 31 52 15 bb
       -0.13097942 0.004233917 -0.0033591024 -0.0022784586
000190 c0 d6 94 bd 8f 5f b9 39 e3 27 a7 3d 8a 3a a0 bd
       -0.07267523 0.00035357146 0.08161905 -0.078236654
0001a0 74 f6 a3 bb 11 86 d8 3a 35 3a 04 3b 96 b7 a9 3b
       -0.0050037447 0.0016519447 0.0020176296 0.005179356
0001b0 b0 c1 91 bc f1 89 16 bb 4a 3a d9 39 63 4e be 3b
       -0.017792553 -0.0022970403 0.00041432894 0.0058076843
0001c0 aa 5c e6 bd fb fc 43 bb 35 42 fa ba ee 37 99 bb
       -0.11248143 -0.0029905427 -0.0019093218 -0.004675857
0001d0 76 2e 5e 3d e9 bc 21 3a 1c 2c 49 3d 09 7e 89 bc
       0.054243527 0.00061698124 0.04911433 -0.016783731
0001e0 80 7b 35 3b cb db b7 3b 8f 80 6b bb 87 63 fa 3d
       0.002769202 0.005610918 -0.0035934781 0.122260146
0001f0 a0 27 b2 ba 6e 88 81 3a e2 d7 cc bd 27 ba c2 bd
       -0.0013592131 0.0009882578 -0.10002114 -0.09508162
000200 77 ca bc 3a 2e f7 c6 b9 9d e1 ee 37 8f 6e 05 bb
       0.0014403601 -0.00037949666 2.847687e-05 -0.0020360088
000210 d4 06 03 3a 80 e8 06 39 50 1c 0a 3a b3 d7 5b 3a
       0.0004998271 0.00012865849 0.0005268501 0.00083863287
000220 4a df d3 b9 4d d2 be b9 1f 62 a4 b8 d0 d6 e9 39
       -0.0004041142 -0.0003639631 -7.838406e-05 0.0004460127
000230 29 18 b8 3b c2 9f 48 39 57 53 aa 3a 9e 32 91 bb
       0.0056181145 0.00019133001 0.0012994808 -0.004431083
000240 a1 c1 88 ba b7 88 d1 38 dd 28 50 bb e5 9d d5 3a
       -0.0010433682 9.991362e-05 -0.0031762638 0.0016297667
000250 de 0f 1f ba 95 f6 75 39 d0 46 6f 3b db ec 43 bb
       -0.0006067733 0.0002345688 0.0036510713 -0.0029895816
000260 3d 78 c9 ba e3 04 84 36 fc 95 92 bb d0 68 8d 3a
       -0.0015370917 3.9344754e-06 -0.004473446 0.0010788683
000270 72 dd c3 bb 24 69 bd 37 7d 62 e2 b9 3c be 15 bb
       -0.005977326 2.2579516e-05 -0.0004317946 -0.0022848984
000280 cb fb d4 38 f5 96 1b bb 4e 9e be b9 10 dc 11 3a
       0.00010155848 -0.00237411 -0.0003635757 0.0005564103
000290 2d 58 cd 39 51 b9 28 3b c9 4a 2f ba 58 00 50 bb
       0.00039166343 0.0025745223 -0.0006686864 -0.0031738486
0002a0 5e 77 b5 3b ee 05 57 3a 2f 82 8d 3a 00 b4 1e 3b
       0.0055379113 0.0008202483 0.0010796244 0.0024216175
0002b0 f5 c4 99 38 6d c7 8b 3b 5a d7 5f 3a 1d f7 3a bb
       7.3322946e-05 0.0042657168 0.0008538865 -0.0028528639
0002c0 81 31 47 ba ce 0b c4 bb 16 72 6c 39 c0 3b 8b bb
       -0.0007598624 -0.0059828525 0.00022549214 -0.004249066
0002d0 77 db db 38 39 72 22 b8 db 9f d2 b9 ca 16 e5 3a
       0.00010483612 -3.8730188e-05 -0.00040173423 0.0017478105
0002e0 dc 83 dc ba 82 02 b9 38 fd 2f 47 b9 18 f0 8b b8
       -0.0016823965 8.8219545e-05 -0.00018995996 -6.6727574e-05
0002f0 08 79 9b 3a cd d8 e9 b8 fe e2 f1 b9 e7 0b 0e 3c
       0.0011861632 -0.00011150688 -0.00046136224 0.00866983
000300 a2 7d 21 ba f8 fe a1 3a ee 3a 9e b9 d7 c2 e5 b9
       -0.00061603833 0.0012359312 -0.00030180014 -0.0004382345
000310 fd 7a 7f b8 9a ac 2f ba 10 1a f7 38 2a bc c7 39
       -6.091128e-05 -0.000670144 0.00011782732 0.0003809643
000320 41 38 99 ba dc 89 64 bc 79 8b 85 3a 90 f9 63 39
       -0.0011689739 -0.013948884 0.0010188661 0.00021741376
000330 27 36 b7 bb 8e 5b 70 39 1a b6 94 ba 75 a8 3b 3a
       -0.0055911723 0.0002292229 -0.0011345774 0.0007158586
000340 6b 2a aa 3b 60 91 f8 3a 25 86 4a bb d5 3c 84 39
       0.005193045 0.0018964224 -0.003090271 0.00025222325
000350 84 d5 4a 3a a0 53 7a b9 b7 d8 32 ba ff 09 07 3b
       0.0007737505 -0.0002387301 -0.0006822454 0.0020605323
000360 3f aa 07 3c ed 89 8c bb 0b c5 91 bb c6 6d 0e ba
       0.008280336 -0.004288903 -0.004448538 -0.00054332276
000370 4e be 97 bb da 4b 4e 3b c4 e8 b1 ba 55 d6 d2 3b
       -0.0046308404 0.0031478317 -0.0013573398 0.006434242
000380 0a a1 0d 3c a4 ce 0b bb 8e d0 4f 3a 1b 0a 0f 3a
       0.008644352 -0.0021332884 0.00079275004 0.0005456523
000390 37 16 12 3a db 90 57 39 36 e3 c0 ba 75 19 86 3a
       0.0005572768 0.0002055796 -0.0014716152 0.0010230975
0003a0 22 c7 8a b8 5f 7a 8d b9 62 ab ed b9 2a e4 ad 38
       -6.617444e-05 -0.0002698479 -0.00045331853 8.291782e-05
0003b0 95 62 12 3b 3f a3 07 ba f6 e7 91 ba e8 ef bd 38
       0.0022336592 -0.0005174167 -0.0011131752 9.056908e-05
0003c0 1b 15 07 ba 31 59 f4 39 39 12 06 b9 75 38 93 b9
       -0.0005152986 0.0004660576 -0.00012786024 -0.0002808009
0003d0 bd c3 5d bb 71 3a 5e 3a 26 58 ea bb 4c ab 66 3b
       -0.0033838593 0.00084773364 -0.0071516214 0.0035197316
0003e0 f0 32 37 3a d1 94 c7 39 bc fc 22 39 22 11 34 bb
       0.0006988486 0.00038067115 0.00015543675 -0.0027476032
0003f0 0f 57 d0 b9 fd a2 5f 37 de eb 2a 3b b6 0f a1 bb
       -0.00039737715 1.3329784e-05 0.002608053 -0.004915203

_problem._r1._attn.out_proj.weight f4 [128, 128]
000000 8e a9 8b 3c 13 87 7d bc 35 4c 57 3c 0a 72 1a 3d
       0.017048623 -0.015474099 0.013140728 0.037706412
000010 df 4a b4 bc b5 02 3e 3d d6 67 83 bc 93 c6 5d bd
       -0.022008358 0.0463893 -0.016040724 -0.054144453
000020 e2 21 03 bd 3d ad 05 bd de 66 9e ba 9b b2 03 3d
       -0.032014735 -0.032635916 -0.00120851 0.032152753
000030 4e ec aa 3d ad 28 a7 bd 43 a0 b1 3c e4 f5 90 bc
       0.08345853 -0.08162055 0.021682864 -0.017695375
000040 25 ae 13 3e d1 74 73 bb e2 be 7e bd 5e f2 93 3c
       0.144219 -0.0037148485 -0.06219376 0.018059906
000050 7a 4f bd 3d f5 f3 87 3d ad 98 04 3e ed d6 8f 3d
       0.092436746 0.06638328 0.12948866 0.07023416
000060 f1 5a 9d bd 33 78 39 3d e3 e0 a8 bd b9 05 87 bb
       -0.07683361 0.045280647 -0.08246019 -0.0041205552
000070 58 b3 09 bd ab f6 9b 3b 4b e1 2c 3d 9c 02 0f bd
       -0.0336183 0.0047596297 0.042207044 -0.034914598
000080 fe 74 8e bd 65 f6 ea 3b 11 f2 bd bd c5 a3 6e bd
       -0.06955908 0.007170486 -0.09274686 -0.05826165
000090 86 9f 42 bd 15 5b a7 3d ae 4e 3f bd 2f f6 6d bd
       -0.047515415 0.081716694 -0.046705894 -0.058096107
0000a0 bf 8e f1 bd f0 05 03 bc 66 f1 a2 bb 1d b6 d2 bd
       -0.11794805 -0.007997021 -0.0049726246 -0.102886416
0000b0 40 d7 46 bd d2 54 32 3d 8b 83 5f 39 4a 9c ff bd
       -0.048545122 0.043537922 0.00021315941 -0.12480982
0000c0 fd f4 11 3d d2 62 82 3d 84 c4 a2 3d c7 40 33 3d
       0.03563403 0.06366505 0.07947639 0.04376295
0000d0 28 4c f7 3d 66 3e e7 3d 1f 2d 20 3e d5 de 6f bd
       0.120750725 0.112911984 0.15642212 -0.05856212
0000e0 78 b6 4f bd 07 0c 3c bb 2a 5c 3a bd 7b 49 46 bd
       -0.050711125 -0.0028693692 -0.04549805 -0.04840992
0000f0 ad 0d ad 3d 58 0e 25 bd 94 30 58 3d 8e 4f e0 bd
       0.08449874 -0.040296882 0.052780703 -0.10952674
000100 64 c9 ac bd 7e 5c 3b 3d a6 d7 9f bc 1e 55 0e bd
       -0.0843685 0.045742504 -0.019512009 -0.034749143
000110 a3 ac 4c 3d 78 81 3b bc 6a 69 32 bc 5a 65 02 3e
       0.049969327 -0.011444442 -0.0108893905 0.12733975
000120 6d 85 ef 3d ce 48 4c 3d cd c5 ca bd a6 f9 f3 3c
       0.11695371 0.04987412 -0.09901009 0.029782128
000130 0f 49 8e bc b3 64 01 bd ba bc d1 3d 1a 2b bf 3d
       -0.017368821 -0.031590175 0.10241075 0.09334393
000140 c9 cd 82 3c 66 98 a8 bc 0a 83 d4 3c f5 5e d7 bc
       0.015967267 -0.020580482 0.02594139 -0.026290396
000150 db b3 e7 3d 9a d5 b4 3d 05 46 2a bd 96 39 48 3d
       0.113136016 0.08829804 -0.041570682 0.048883043
000160 16 bf 0a 3c 25 90 0b 3d c5 f8 b9 3d 64 c4 89 bc
       0.00846841 0.034073014 0.09080652 -0.01681728
000170 10 78 e2 3d 4c ec b3 bd cd 9d 9c bd 25 a1 80 3d
       0.11058056 -0.087853044 -0.076472856 0.06280736
000180 8a ba 50 bd e9 57 ba bd 68 d1 52 bd 87 19 71 bd
       -0.050959148 -0.09098799 -0.051469237 -0.058862235
000190 34 cd 91 bc fc c4 17 bd be fe 86 bd 84 b5 9c bc
       -0.017798044 -0.037053093 -0.06591557 -0.019129522
0001a0 76 97 80 3d 62 de cb bc ff 58 e0 bd 05 85 91 3d
       0.06278889 -0.024886314 -0.10954475 0.071054496
0001b0 58 39 f8 3d 63 36 ae bd 21 05 47 bc 79 23 3f 3d
       0.121203125 -0.08506467 -0.012147219 0.04666469
0001c0 42 84 d9 3c 2d 82 69 3d 89 81 db 3d 2c 71 00 3c
       0.026552323 0.05700891 0.10718066 0.007839482
0001d0 c3 f0 d4 3d f5 6a 15 bd 36 80 4b 3d fc 42 cd bd
       0.10397484 -0.036478955 0.04968282 -0.10022542
0001e0 ca 49 a1 3d 15 40 d2 3d 1b 44 6e bd be d6 99 bd
       0.07875402 0.10266129 -0.05817042 -0.07511662
0001f0 48 c0 71 bd a3 a7 64 3d b5 78 99 bc b4 da 53 3c
       -0.059021264 0.055823933 -0.018734315 0.012930561
000200 29 4e 90 3d 7b 04 d8 3d da ef 35 3e cc 68 b3 3d
       0.07046158 0.105477296 0.17767277 0.08760223
000210 6e 01 be bd 0d fb 99 bd af 8d 7a 3d f4 6d 55 3e
       -0.092776164 -0.07518587 0.061170276 0.20842725
000220 23 3e 9e 3d fc 62 e3 bd d2 26 5e 3c c8 99 d9 bd
       0.077266954 -0.11102864 0.01355906 -0.106250346
000230 4f 33 73 3e 79 cb 39 be 06 a8 9e 3d 31 8e 2c be
       0.23750041 -0.18144025 0.07746892 -0.16851117
000240 a4 2f fd 3d 51 d9 55 bc 37 96 a3 bd 12 f0 38 3e
       0.12362602 -0.013052301 -0.079876356 0.1806033
000250 be 8f 98 bd ea 70 19 3e 6e fc f3 bc 1e 9d 94 bc
       -0.07449292 0.1498448 -0.029783454 -0.018141326
000260 cc 9b a1 bd a6 94 0a bd f1 92 63 be 14 48 8f 3d
       -0.07891044 -0.03383317 -0.22224022 0.0699617
000270 6a 32 0e 3d 3b 61 19 3e 0d 76 70 3d 0e 9b 08 bc
       0.034716047 0.14978497 0.058706332 -0.008337749
000280 03 5b e8 3a ca 5b e2 bb 78 ce e0 bd a1 2b e3 bd
       0.0017727319 -0.0069079148 -0.10976881 -0.11092306
000290 5e 2f a8 3d 98 77 34 3c ae 56 59 be fc 99 a0 3c
       0.082121596 0.0110148415 -0.21224472 0.019604675
0002a0 cf 30 c0 bd b4 53 ea 3c 4f 24 8b 3e b1 f5 e8 bd
       -0.093843095 0.028604366 0.2717614 -0.11374987
0002b0 80 78 07 3e 7a a6 30 3e 7e 3c 8f bd db 5c fe bd
       0.13229561 0.17251006 -0.0699396 -0.124200545
0002c0 16 b3 02 3e 59 73 c5 bd 6c d9 e5 3d 1d ff 18 bc
       0.12763628 -0.096411414 0.112231106 -0.0093381675
0002d0 71 f4 f0 bc d4 a7 0d bd 65 a8 48 3e 62 06 7a bd
       -0.029413434 -0.03458388 0.19595487 -0.061041243
0002e0 aa bb 23 bd 5b 85 c8 3d 29 7e d7 bd c5 dc 65 3d
       -0.039973892 0.097910605 -0.1052211 0.056118745
0002f0 27 01 a4 3e df 9d 0f be cb 83 9f bd a6 4a 20 3c
       0.3203213 -0.14025067 -0.077888094 0.009783423
000300 b9 51 d8 bd f6 72 88 3d 19 22 21 3d 4f ff b2 ba
       -0.10562462 0.06662552 0.03933916 -0.001365641
000310 35 b8 98 3d 23 90 5b 3e fa 68 50 be e7 46 fd 3b
       0.0745701 0.21441703 -0.20352545 0.0077293995
000320 c8 a0 6e 3e 91 c3 d9 3d ed 1e 0c be 77 2c fb 3d
       0.2330352 0.106330045 -0.13683672 0.1226434
000330 9b de 92 be ca c0 79 bc a4 09 11 3e a4 5a 2c bd
       -0.2868546 -0.015243718 0.14163834 -0.04207863
000340 c0 ba a1 3d 8a b0 aa 3d 44 88 5f 3c cd 6b f6 3d
       0.07896948 0.083344534 0.013643328 0.1203228
000350 1e b3 23 3e 1a 82 98 3d b3 a0 e6 3d 01 cb 76 bd
       0.15986297 0.0744669 0.1126112 -0.060252193
000360 c9 6e 62 bc a1 c6 4f 3e a6 39 a5 bd 28 46 ad bd
       -0.013820359 0.20290615 -0.08067636 -0.08460647
000370 7c fe 09 3e 1b d1 32 bc 4b 0b ca bc e3 99 13 bd
       0.13475984 -0.010914112 -0.024663588 -0.03603543
000380 42 7e d5 bd 30 cb e8 bd c1 92 5a 3d d5 37 58 bd
       -0.104244724 -0.1136688 0.05336261 -0.05278762
000390 73 3a 6a bd 02 56 53 be 66 50 36 be b1 5a 3c 3d
       -0.057184648 -0.20638278 -0.17804107 0.045984928
0003a0 60 33 42 3e ba 80 67 3d 42 67 d8 3d 0e 2f 75 3e
       0.1896491 0.056519248 0.1056657 0.23943731
0003b0 bc a1 21 3d 06 85 f0 3c c1 b1 94 bd 4f 55 20 3c
       0.039460883 0.029360306 -0.07260466 0.009785964
0003c0 a4 7d b5 bd 5a cf c7 3d 51 ae ce bc c0 38 0d be
       -0.08861855 0.09756346 -0.025229605 -0.1379118
0003d0 24 c5 8f 3d 96 9a c2 3c 3a b0 82 3e 74 4c e5 bc
       0.070200235 0.023755353 0.25525075 -0.027990557
0003e0 2b 77 4b bd 58 aa 83 3d 90 80 2b 3e 76 7c c9 3b
       -0.049674194 0.06428975 0.16748261 0.00614887
0003f0 41 19 2a 3e d6 65 99 bd 10 c1 3b be bc 06 70 3d
       0.16611196 -0.07490127 -0.18335366 0.058600172

_problem._r1._attn.out_proj.bias f4 [128]
000000 78 f8 34 be f2 4c 33 bd d9 de 49 be c1 5a e1 bd
       -0.17672908 -0.043774553 -0.19713916 -0.11003638
000010 7e 72 c1 bd 21 2a 13 3e 97 b4 a9 3b 0f 7f 05 3d
       -0.09445666 0.1437154 0.0051789987 0.032591876
000020 ae f0 17 3d e7 27 25 be 70 63 e4 3c f9 8b 30 3d
       0.037094764 -0.16128503 0.027879447 0.04310224
000030 58 db 89 3d 4f cf 03 be 7d b7 63 bd cc 2d 4b bd
       0.067312896 -0.1287205 -0.05559491 -0.049604222
000040 67 62 51 bd 39 0c 97 3d 2e 05 10 be db c5 30 bc
       -0.051119234 0.07375378 -0.14064476 -0.01078936
000050 62 84 1b be 64 ee b0 3d 42 6b c7 bd 37 56 29 bd
       -0.15187219 0.086392194 -0.09737255 -0.041341987
000060 0e 3c 77 bc 5d 10 09 be cd 40 34 3e e7 59 16 be
       -0.015090002 -0.13385148 0.17602845 -0.14682733
000070 76 e5 a3 3d 4d a3 27 be f9 fb 79 b9 b5 6c 15 3e
       0.080027506 -0.16370888 -0.00023840358 0.1459225
000080 38 0f 05 3e 43 b8 60 3c 47 4f bb 3d 21 da 49 3d
       0.12994087 0.013715806 0.0914598 0.04928029
000090 cf 91 97 bd 82 61 67 3c 16 8e 7a 3c fe e8 89 3d
       -0.07400858 0.014122369 0.015292665 0.06733893
0000a0 19 85 b3 3d 01 8e 6d bd 8d 5d 0d 3e fb 0f a3 bd
       0.08765621 -0.057996754 0.13805218 -0.079620324
0000b0 f3 11 55 3e fa a8 31 3e 70 12 94 bd 0d d3 99 3d
       0.20807628 0.17349616 -0.07230079 0.07510958
0000c0 22 b5 7b 3d 54 50 27 be cc 98 0b 3e 04 9a 8a bd
       0.06145204 -0.16339236 0.13632506 -0.067676574
0000d0 b1 d2 03 be 41 bc 93 3d 1f 85 a7 bc 33 df 29 bd
       -0.12873341 0.07213641 -0.02044922 -0.041472625
0000e0 93 40 33 be 55 ef 96 3d 72 20 d5 3a 30 d8 60 be
       -0.17505102 0.07369868 0.001626028 -0.21957469
0000f0 55 51 52 be 77 f7 03 bd bc b9 e2 bd 6c 02 79 be
       -0.20538838 -0.032218423 -0.11070582 -0.2431733
000100 e3 76 51 3e 69 68 27 be b4 7d 9b bd b6 01 02 3e
       0.20455508 -0.16348423 -0.07592335 0.12695965
000110 02 67 4e be 73 cc 80 3d d1 9f 3b 3e fa bf 1f be
       -0.20156482 0.062889956 0.18322684 -0.15600577
000120 c4 cf 06 bd 3a 83 15 3e 67 3b 48 3d 61 77 8f 3d
       -0.032912984 0.1460084 0.048884775 0.070051916
000130 2c aa 9d bd a4 c2 73 be 7b 91 54 be 10 84 3c be
       -0.07698473 -0.23804718 -0.20758621 -0.18409753
000140 aa 82 14 be f7 0c d2 3d fe 32 b7 bb 55 21 1f be
       -0.1450297 0.10256379 -0.0055907955 -0.15540059
000150 9f 6c c3 bd e9 48 1e 3e 59 c1 27 be ce 51 2d be
       -0.09542202 0.154575 -0.1638235 -0.16925737
000160 76 d6 7a bb dd 01 45 3e ec 82 06 3b b3 18 c9 3d
       -0.0038274801 0.19238992 0.0020524813 0.09819164
000170 8e 45 06 be c5 ad 93 bd 58 dd 29 3d a7 d2 8c bb
       -0.1311247 -0.07210878 0.041470855 -0.0042975727
000180 e1 95 31 3e 32 d7 00 3e a5 08 5c be 42 ca 1d be
       0.1734233 0.1258209 -0.21487673 -0.15409186
000190 37 72 6c 3d 40 98 41 3d 47 ee a7 3b 24 ea 13 3e
       0.05772611 0.047264338 0.0051248404 0.14444786
0001a0 99 c9 c3 bb fd 7d 59 3e 2c 2a 5c be de f8 b1 bd
       -0.00597496 0.21239467 -0.21500462 -0.08690046
0001b0 26 ec dc bc b4 80 ca bd 63 d6 50 3e d5 94 2c 3d
       -0.026968073 -0.098878294 0.20394282 0.042134125
0001c0 22 7d 88 be ef a3 87 bd 73 b0 26 3e 32 19 b5 bd
       -0.2665797 -0.06623065 0.16278248 -0.08842696
0001d0 26 0b 0a be 46 12 6b 3e b0 ed 71 3d d2 4e 9e 3c
       -0.13480815 0.2295619 0.059064567 0.019324694
0001e0 18 5f 3c bd d8 16 e4 3d 25 a2 a6 bd 6d 3f 42 3d
       -0.045989126 0.111371696 -0.08136395 0.04742377
0001f0 50 55 30 3e 9a 7a 33 3c 6a 46 30 3e cb d4 04 3d
       0.17220044 0.010954523 0.17214361 0.032429498
